method_max_utility/save/model/Phi_h_Model_64X64.pt (torch, 37171 bytes, 7 tensors)

Linear1.weight f4 [64, 2]
0	0x3e500359	0.20313777
1	0xbf141a81	-0.5785294
2	0xbe3fb654	-0.18721896
3	0x3f1ccf09	0.6125341
4	0xbf1add7a	-0.60494196
5	0x3f6dd80a	0.92907774
6	0xbe1bbfd6	-0.15209898
7	0x3ef878ad	0.48529568
8	0x3c5068e6	0.012720322
9	0xbef0554a	-0.4694007
10	0xbc9c2b3c	-0.019063585
11	0xbe4194f4	-0.18904477
12	0x3c285cd0	0.0102760345
13	0xbf06eaaa	-0.5270182
14	0xbddb0bf1	-0.10695637
15	0xbebf902e	-0.37414688
16	0x3af81904	0.0018928354
17	0xbb44cf65	-0.0030030843
18	0x3ec574fa	0.3856581
19	0x3f1bcec7	0.6086239
20	0xbe232aed	-0.15934344
21	0xbf7b06c9	-0.9805723
22	0x3bf82c22	0.0075736204
23	0xbf880d3f	-1.0629042
24	0xbe7f3d7d	-0.249258
25	0x3f09c805	0.5382083
26	0x3eb69a8a	0.3566478
27	0x3f3f1403	0.7463991
28	0xbf0b7c9f	-0.5448703
29	0x3f69c068	0.91309214
30	0xbabea5d3	-0.0014545269
31	0x3f7b1502	0.9807893
32	0x3e943786	0.2894861
33	0xbf6b6052	-0.9194385
34	0xbedb247d	-0.42801276
35	0xbf2686ef	-0.6504964
36	0x3e7fbcac	0.24974316
37	0xbe89eea7	-0.2693989
38	0x3d96ea00	0.07368851
39	0xbf0c71d0	-0.54861164
40	0x3ee85881	0.45380023
41	0xbf0a791e	-0.5409106
42	0x3bb24a09	0.0054409546
43	0xbc050d52	-0.008120852
44	0xbec2a012	-0.3801275
45	0x3f2e456d	0.68074685
46	0xbe0d6b9f	-0.13810585
47	0x3e9611c1	0.2931042
48	0xbdd38f88	-0.10330111
49	0xbee161ed	-0.44020024
50	0xbec95942	-0.3932591
51	0xbf4a5506	-0.79035985
52	0x3eaf7622	0.34269816
53	0xbf3220bb	-0.6958119
54	0x3f0bb789	0.5457693
55	0x3f8b4093	1.0879081
56	0xbbffbf96	-0.0078048212
57	0xbee6d3d2	-0.4508348
58	0x3e8e7637	0.27824566
59	0x3edc7068	0.4305451
60	0xbea05750	-0.31316614
61	0x3f062543	0.52400607
62	0x3ec21359	0.37905386
63	0x3f82983c	1.0202708
64	0xbe96a8c3	-0.2942563
65	0xbed10991	-0.4082761
66	0x3b97d4e0	0.004633531
67	0x3e17bcc5	0.14818104
68	0xbec3d58b	-0.38248858
69	0xbf52a4c0	-0.8228264
70	0x3d860e17	0.06545656
71	0xbef05c98	-0.46945643
72	0x3e100bef	0.14067052
73	0x3ed0ef76	0.40807694
74	0x3dd66098	0.104676425
75	0x3efc7ccf	0.4931397
76	0x3e81849e	0.2529649
77	0x3f261789	0.6487966
78	0xbedfb52e	-0.43692917
79	0x3eb42544	0.3518468
80	0xbe422ab2	-0.189616
81	0xbf992b0d	-1.1966263
82	0x3d302320	0.043002248
83	0xbdf6c6a8	-0.120496094
84	0x3e72131e	0.23640105
85	0xbf1d8851	-0.6153613
86	0xbec4769b	-0.3837174
87	0x3f184502	0.594803
88	0xbcc2d46c	-0.023782931
89	0x3f101c88	0.56293535
90	0x3d3679c9	0.044549737
91	0xbf575026	-0.8410667
92	0xbdd05434	-0.101723105
93	0x3e6555c3	0.22395997
94	0xbec08b40	-0.3760624
95	0xbf306a84	-0.6891253
96	0xbca3707d	-0.0199511
97	0x3de63b2c	0.11241755
98	0xbe0d820d	-0.13819142
99	0xbf021fda	-0.5082985
100	0x3e5473a9	0.20747246
101	0x3edfc6ce	0.43706363
102	0x3b3bc0d1	0.0028648863
103	0x3efd7a79	0.49507502
104	0xbe3b5018	-0.18292272
105	0xbf7ab21a	-0.9792801
106	0x3d4c5829	0.049888764
107	0x3dd754d4	0.105142266
108	0x3e9b90d5	0.30383936
109	0x3ed630f6	0.4183423
110	0x3e7eafb3	0.24871711
111	0x3f51cb8b	0.81951207
112	0x3ec5ca7d	0.3863105
113	0xbf146612	-0.57968247
114	0x3bfd1b90	0.007724233
115	0x3f79e9c8	0.97622347
116	0x3eca8119	0.3955162
117	0x3f3c9667	0.73666996
118	0xbea227fa	-0.31671125
119	0xbf474de0	-0.778532
120	0xbb82409f	-0.0039749886
121	0x3cc7666d	0.024340833
122	0x3ec4dabe	0.38448137
123	0xbf0d2157	-0.55129
124	0x3e3ee9ed	0.18643923
125	0xbf1f3253	-0.62186164
126	0xbe4c0f86	-0.19927797
127	0xbf1ceca7	-0.612986

Linear1.bias f4 [64]
0	0x3eafe477	0.34353992
1	0x3f1aeb8a	0.60515654
2	0xbeba1a45	-0.36348167
3	0x3ea60b7a	0.3243063
4	0x3f031515	0.51204044
5	0x3e402298	0.18763196
6	0x3ec6e40e	0.38845867
7	0x3e9b0956	0.3028056
8	0xbc9aafe7	-0.018882705
9	0x3e2c2835	0.16812213
10	0xbe9d0fce	-0.3067612
11	0xbeca88f3	-0.3955761
12	0xbebf91bd	-0.37415877
13	0x3ceb3ca7	0.028715445
14	0xbf0c1698	-0.54721975
15	0x3f07caed	0.53044015
16	0x3e0318a9	0.12802376
17	0xbe577026	-0.21038875
18	0x3cbb621e	0.022873934
19	0x3d097123	0.03355516
20	0x3e95093c	0.29108608
21	0xbcfbe30b	-0.030747911
22	0xbd071dc8	-0.032987386
23	0x3e8c77b4	0.27435076
24	0xbd004dc8	-0.031324178
25	0xbc9ec02c	-0.019378744
26	0xbf1a5652	-0.60287964
27	0xbeb70a5d	-0.35750094
28	0xbede7388	-0.43447518
29	0xbed80504	-0.42191327
30	0x3f00ce06	0.50314367
31	0xbdb497c8	-0.088180125
32	0xbf1fb081	-0.623787
33	0xbdbf2924	-0.09334019
34	0x3e702253	0.23450594
35	0x3eb6d7ea	0.35711604
36	0xbeefea6b	-0.46858534
37	0x3e37e320	0.17957735
38	0xbe3babf8	-0.1832732
39	0xbdc6ed64	-0.097132474
40	0xbefb10e3	-0.4903632
41	0xbea500ca	-0.32227165
42	0xbe81b488	-0.25333047
43	0x3e90d404	0.28286755
44	0x3ea25706	0.3170702
45	0x3dca16c1	0.09867621
46	0x3e914a59	0.28377035
47	0x3f233b01	0.6376191
48	0xbcdb18f4	-0.026745297
49	0xbc07cb91	-0.00828828
50	0xbf3ade5a	-0.7299553
51	0x3e8a0bf6	0.2696225
52	0xbe26a092	-0.1627219
53	0xbed29f5f	-0.41137215
54	0xbf434d6e	-0.76290023
55	0x3d92f939	0.07176442
56	0xbf33c3e1	-0.7022076
57	0x3f1f6226	0.6225914
58	0xbf2f1e26	-0.6840538
59	0xbf2af812	-0.66784775
60	0xbd50370e	-0.050833754
61	0xbf18500b	-0.59497136
62	0x3e570241	0.20996954
63	0xbea8a25b	-0.32936367

Linear2.weight f4 [64, 64]
0	0xbe5f77b1	-0.21823002
1	0xbc209921	-0.009802134
2	0xbdd22d47	-0.10262542
3	0xbda6b17f	-0.081393234
4	0xbd62bcd0	-0.055355847
5	0xbbb49763	-0.0055112108
6	0xbd165b14	-0.036707953
7	0xbe5fbeea	-0.21850172
8	0x3d6e9ace	0.058253102
9	0xbdfbf450	-0.12302458
10	0xbdcfdb21	-0.101492174
11	0xbf515ba4	-0.8178046
12	0x3bd5d7f6	0.0065259887
13	0x3ba45878	0.005015429
14	0xbe592c03	-0.21208195
15	0x3d75fe2b	0.060056847
16	0xbdaa26b1	-0.08308161
17	0x3cd7f5b9	0.026362287
18	0xbe07ae48	-0.13250077
19	0x3c049542	0.008092226
20	0xbe7c067d	-0.2461185
21	0x3d984632	0.07435264
22	0x3d7c37ae	0.061576538
23	0x3d522f24	0.051314488
24	0x3da5895e	0.08082841
25	0xbe0af3e0	-0.13569593
26	0xbe14aa4b	-0.14518087
27	0x3daf5402	0.08560945
28	0xbde851ee	-0.11343752
29	0x3cd23ccc	0.025663756
30	0xbde2ffa3	-0.11083915
31	0xbdb3adf7	-0.087734155
32	0xbda0c9a8	-0.07850963
33	0xbe06fd88	-0.13182652
34	0xbe272d6a	-0.16325918
35	0xbcfa2694	-0.030535974
36	0xbc4d8b8a	-0.012545476
37	0x3db67c5b	0.08910438
38	0xbc8e17a2	-0.017345253
39	0xbe5a7334	-0.21333009
40	0xbc0b5b5e	-0.00850567
41	0xbcda2388	-0.02662827
42	0xbdb612bc	-0.08890292
43	0x3c227422	0.0099153835
44	0xbd906706	-0.070509
45	0x3cea3b0b	0.028592607
46	0x3c88730f	0.016656427
47	0xbe88425f	-0.26613137
48	0xbe264047	-0.16235457
49	0xbdb6e941	-0.089312084
50	0xbdf28199	-0.11841125
51	0xbd6124d4	-0.054966763
52	0xbe395e4f	-0.18102382
53	0xbcc23ac9	-0.023709672
54	0xbea9500a	-0.33068877
55	0xbd88ee1d	-0.066860415
56	0xbdf53f96	-0.11975019
57	0x3e079bf0	0.13243079
58	0x3dcd7045	0.10031179
59	0xbe85b1e4	-0.26112282
60	0xbd90b84a	-0.070664
61	0x3b9fa9fa	0.0048725577
62	0xbdad5a84	-0.0846453
63	0xbd51b375	-0.051196534
64	0x3e15da7b	0.14634125
65	0x3bac8efb	0.005266068
66	0xbe022d02	-0.12712482
67	0xbe537cc8	-0.20653069
68	0x3e1552ea	0.1458241
69	0x3dead94e	0.11467229
70	0xbbe401e2	-0.0069582323
71	0x3e204e34	0.15654832
72	0x3d35539e	0.044269197
73	0xbe42904d	-0.19000359
74	0x3e916e41	0.2840443
75	0x3f724853	0.9464161
76	0x3cc0bbfc	0.023527138
77	0xbe943526	-0.289468
78	0xbe269c1d	-0.1627049
79	0xbec295a6	-0.38004798
80	0x3e14c566	0.14528427
81	0x3e1d624a	0.15369526
82	0xbcd9cf88	-0.026588216
83	0x3d5b072e	0.053473644
84	0xbd816e1d	-0.063198306
85	0x3ac56684	0.0015060459
86	0xbe217e36	-0.15770802
87	0xbc6ce803	-0.014459613
88	0x3e053417	0.13008152
89	0x3df33cea	0.11876853
90	0x3c2765c8	0.010217138
91	0xbecb9552	-0.3976236
92	0xbcc2942a	-0.02375229
93	0xbe2bbb9e	-0.16770789
94	0xbe480a0e	-0.19535086
95	0xbe45b85d	-0.1930861
96	0x3e02535e	0.12727115
97	0x3cc8f048	0.024528638
98	0x3df3350a	0.11875351
99	0xbd24e759	-0.040259693
100	0x3ca46cae	0.020071354
101	0xbe015c19	-0.12632789
102	0xbecc1041	-0.3985615
103	0xbdba7a08	-0.09105307
104	0x3e1b2abf	0.15153025
105	0x3ae1a000	0.0017213821
106	0xbc18c629	-0.009324589
107	0xbe09bb5d	-0.1345038
108	0xbe8449cd	-0.25837556
109	0x3df1972e	0.11796413
110	0x3b0bd1a5	0.0021334675
111	0x3d02cf9c	0.031936273
112	0xbd0c41fc	-0.034242615
113	0x3dc1fe61	0.09472347
114	0xbdeb6f7f	-0.114958756
115	0x3d36d177	0.044633355
116	0x3e8297c9	0.25506428
117	0x3d118fe4	0.035537615
118	0xbd9bed0d	-0.07613573
119	0xbe9a918f	-0.30189177
120	0xbe39bdf8	-0.18138874
121	0xbe8e9ad9	-0.27852514
122	0xbca9e7b5	-0.02074037
123	0x3dcea28f	0.10089599
124	0xbd0aa6c4	-0.033850446
125	0x3da4f611	0.08054746
126	0x3e2dacb3	0.16960411
127	0x3d3100d3	0.043213677
128	0x3c7cb60f	0.0154242655
129	0xbe44bff0	-0.19213843
130	0xbe000b9e	-0.12504432
131	0xbe9dc73e	-0.30816072
132	0x3ce09897	0.02741651
133	0xbdc74e8b	-0.09731778
134	0xbd1d593b	-0.038415175
135	0x3c3d726a	0.011562923
136	0xbdae6f2f	-0.085173
137	0xbe9faeeb	-0.3118814
138	0x3f1a784b	0.603398
139	0x3fce13c2	1.609978
140	0xbe15d6f2	-0.14632776
141	0xbf015060	-0.5051327
142	0xbdfee37a	-0.124457315
143	0xbf66d543	-0.9016916
144	0x3d1a7f4b	0.037719052
145	0x3db3dcf1	0.087823756
146	0x3c6d02d4	0.014466006
147	0x3dc350d3	0.095369
148	0xbd47e896	-0.048805796
149	0xbe0095f9	-0.1255721
150	0xbea49f96	-0.32153004
151	0x3d2ed8f6	0.04268738
152	0x3e2302f6	0.15919098
153	0x3de370a9	0.111054726
154	0x3decd9ed	0.115650035
155	0x3d88ce90	0.06680024
156	0xbdad1c45	-0.084526576
157	0xbd4ffc29	-0.050777588
158	0xbd9d92c5	-0.0769401
159	0xbd446842	-0.04795099
160	0x3e203afb	0.156475
161	0xbdd5335c	-0.10410187
162	0x3e582953	0.21109514
163	0x3d9c4e01	0.076320656
164	0x3e5a3d68	0.21312487
165	0xbed8ccad	-0.42343655
166	0x3c9420b3	0.018081998
167	0xbdaa77a8	-0.08323604
168	0x3ead0d2f	0.3379912
169	0xbdfacc6c	-0.12246022
170	0x3e239a34	0.15976793
171	0xbdb62b8d	-0.088950254
172	0xbebfa25c	-0.37428558
173	0x3e1d7f46	0.15380582
174	0xbe5b90ff	-0.2144203
175	0xbcecb0e6	-0.028892945
176	0xbd1828cf	-0.037148293
177	0x3e1c1c24	0.1524511
178	0x3d98b8b4	0.07457104
179	0xbe26b760	-0.1628089
180	0x3e9ac08f	0.30225036
181	0xbe909e42	-0.2824574
182	0x3e995600	0.29948425
183	0xbf165c8f	-0.58734983
184	0xbd70cca1	-0.0587889
185	0xbeb9d99c	-0.36298835
186	0x3dccb6b8	0.09995788
187	0x3ebe0077	0.3710973
188	0xbc5253b4	-0.012837339
189	0x3d70634a	0.05868844
190	0x3e2d6757	0.16933952
191	0xbad59c0c	-0.0016297116
192	0xbddea264	-0.10870817
193	0x3cf50ad4	0.02991239
194	0x3c927896	0.017879765
195	0xbcb8dd4b	-0.022566458
196	0xbd7fcd96	-0.06245192
197	0xbda2a988	-0.07942492
198	0x3bc0e8a7	0.0058871093
199	0x3da5b199	0.08090515
200	0xbb9ac325	-0.00472297
201	0xbdc15696	-0.09440343
202	0x3dea3acf	0.11436998
203	0x3cda53fe	0.026651379
204	0x3d8687c1	0.06568862
205	0xbb923b69	-0.0044626486
206	0x3db020c8	0.086000025
207	0x3c3af491	0.011410848
208	0xbd9a0ac3	-0.07521584
209	0x3d95711d	0.07296965
210	0xbcd004df	-0.025392948
211	0xbddafd04	-0.1069279
212	0xbd5e7cac	-0.054318115
213	0xbe196155	-0.14978535
214	0xbdc65784	-0.09684661
215	0xbe0737b8	-0.13204849
216	0x3d8f399c	0.0699341
217	0xbd290345	-0.041262884
218	0xbcb0ec70	-0.021597117
219	0x3cf65c17	0.030073209
220	0x3d39de10	0.04537779
221	0xbde19033	-0.11013832
222	0xba865ac6	-0.0010250441
223	0x3c5afed8	0.013366424
224	0xbdf007f5	-0.11720268
225	0x3d82e931	0.06392134
226	0xbdb6f9da	-0.08934374
227	0xbda71020	-0.081573725
228	0xbe020e36	-0.12700734
229	0x3d8be8bd	0.06831501
230	0xbb97d022	-0.0046329657
231	0x3da82dd0	0.08211863
232	0xbaef5685	-0.0018260038
233	0x3d8b25ae	0.06794296
234	0xbd237964	-0.03991069
235	0xbe038167	-0.12842332
236	0xbd1a37a3	-0.037650716
237	0xbc812a7d	-0.01576733
238	0xbd745cfa	-0.05965898
239	0xbd9c56b1	-0.076337226
240	0xbd37f1fd	-0.044908512
241	0x3cb9be99	0.022673892
242	0x3cf82bb0	0.03029427
243	0xbe1eb03b	-0.15496914
244	0x3d4e7002	0.050399788
245	0xbc35516e	-0.011066778
246	0x3d7e7a48	0.062128335
247	0x3d2a7a04	0.04162027
248	0xbdc99a90	-0.098439336
249	0x3d873cf1	0.066034205
250	0xbe1a52af	-0.15070604
251	0x3d7c5eab	0.06161372
252	0xbc37a224	-0.011208091
253	0x3d72486c	0.059151098
254	0xbd9ba0c7	-0.07599025
255	0x3d6ef0d9	0.05833516

Linear2.bias f4 [64]
0	0xbe32a3de	-0.17445323
1	0x3d10b4f7	0.03532883
2	0xbd0f5743	-0.03499533
3	0xbe06e191	-0.13171984
4	0xbc815710	-0.015788585
5	0x3a395c00	0.0007070899
6	0xbc8d3a53	-0.017239725
7	0xba21ce00	-0.0006172359
8	0x3e489d2d	0.19591208
9	0x3e6bae9d	0.23015828
10	0x3d016f5c	0.03160034
11	0xbdfa731e	-0.12228988
12	0xbcae4c81	-0.021276714
13	0xbdd14dcd	-0.102199174
14	0xbd25f67b	-0.040518265
15	0xbd53b018	-0.051681608
16	0xbe87b13e	-0.26502413
17	0xbd742387	-0.059604194
18	0xbe156d90	-0.14592576
19	0x3dbbfb46	0.09178786
20	0xbe3b7f44	-0.18310267
21	0xbe40bdaa	-0.18822351
22	0xbd6f5fd1	-0.058440987
23	0x3dd54bf5	0.10414878
24	0xbdcaa530	-0.09894788
25	0xbc09aca2	-0.008402975
26	0xbe03204a	-0.12805286
27	0x3ca52a9f	0.020161925
28	0xbd6f66f7	-0.058447804
29	0xbe263e8f	-0.16234802
30	0x3dc04960	0.09388995
31	0xbd27d659	-0.040975902
32	0x3d90e147	0.07074218
33	0xbe020592	-0.12697437
34	0xbda0f32e	-0.07858883
35	0x3d97180f	0.07377636
36	0x3e09ee4b	0.13469808
37	0xbd9dbd1d	-0.07702086
38	0xbd402426	-0.046909474
39	0x3c9f5811	0.019451173
40	0xbd36c83c	-0.044624552
41	0xbda3bf11	-0.079954274
42	0xbe2f7db0	-0.1713779
43	0x3c906bb0	0.017629474
44	0xbde01c70	-0.10942924
45	0xbd8b85b2	-0.0681261
46	0xbe8552e2	-0.26039797
47	0xbe4c1565	-0.19930036
48	0xbe0525da	-0.1300272
49	0xbd8681e1	-0.06567741
50	0xbe2017f0	-0.15634131
51	0xbda2c722	-0.07948138
52	0x3dcc8c78	0.0998773
53	0xbd440c02	-0.047863014
54	0xbe139bc4	-0.14414889
55	0x3dbadd70	0.09124267
56	0xbb225bad	-0.0024773881
57	0xbdd141ac	-0.10217604
58	0xbdf3b359	-0.11899442
59	0xbc193ed1	-0.0093533555
60	0xbe44899d	-0.1919312
61	0x3dcb5493	0.099282406
62	0xbe19e518	-0.15028799
63	0xbda163c0	-0.07880354

Linear3.weight f4 [64, 64]
0	0xbef96287	-0.48707983
1	0xbdc244f8	-0.09485811
2	0x3e053d43	0.1301165
3	0xbd64c531	-0.05585212
4	0xbe401302	-0.18757251
5	0x3daa1cca	0.08306272
6	0x3ca60670	0.020266742
7	0x3dbfa1be	0.09357022
8	0xbe3ed5d9	-0.18636264
9	0xbe34f4e8	-0.1767155
10	0xbce96f08	-0.028495327
11	0xbdb096d9	-0.08622522
12	0xbd2059ef	-0.039148267
13	0xbab67bb0	-0.001392236
14	0xbd9fb794	-0.077986866
15	0xbe17fc53	-0.14842348
16	0x3f83864e	1.0275362
17	0xbd37cfbf	-0.044875856
18	0xbcb24933	-0.02176342
19	0xbf5bfcf6	-0.8593286
20	0x3f96f147	1.1792382
21	0x3e4d28df	0.20035122
22	0x3d6ff2dd	0.05858122
23	0xbca2965e	-0.019847091
24	0xbdcb54ab	-0.099282585
25	0xbac0fb75	-0.0014723378
26	0xbd742539	-0.05960581
27	0xbd39922c	-0.045305416
28	0xbc8d3455	-0.017236868
29	0xbef1358c	-0.47111166
30	0xbd37ba1f	-0.044855233
31	0xbf1e078e	-0.6173028
32	0xbdc6801b	-0.09692403
33	0x3e278d86	0.1636258
34	0xbddcc0ec	-0.107789844
35	0x3de8f2d6	0.11374442
36	0xbe6fbc75	-0.23411734
37	0x3eb8e60f	0.3611302
38	0xbd3dd371	-0.046344224
39	0xbd664890	-0.056221545
40	0xbacfa400	-0.0015841722
41	0x3e1a1eec	0.15050858
42	0x3e595ee7	0.21227609
43	0xbd849926	-0.06474523
44	0xbdc5c56d	-0.096567966
45	0x3d312820	0.043251157
46	0x3f8c8a12	1.0979636
47	0x40261c65	2.595483
48	0x3dcf9aba	0.101369336
49	0xbe07dffb	-0.13269036
50	0x3d21ad6f	0.03947204
51	0xbd767988	-0.060174495
52	0xbed70f16	-0.42003697
53	0xbda4a196	-0.080386326
54	0xbef64ba5	-0.48104587
55	0x3da40b03	0.08009913
56	0x3dc99be1	0.09844185
57	0xbd14c770	-0.03632301
58	0xbda605bc	-0.081065625
59	0xbdcbef6e	-0.09957777
60	0x3f492dda	0.7858559
61	0xbe3316e4	-0.17489201
62	0x3cddb582	0.027064089
63	0x3d58c1c0	0.05291915
64	0xbd02ff39	-0.03198168
65	0xbcdf6a6a	-0.027272422
66	0xbdcb093a	-0.09913869
67	0x3c1bfeea	0.0095212255
68	0xbe19b464	-0.1501022
69	0x3a526700	0.00080262125
70	0x3da77ab5	0.081777014
71	0xbde579dc	-0.112048835
72	0xbdff641b	-0.124702655
73	0xbe19ac91	-0.15007235
74	0xbddcc54c	-0.10779819
75	0x3c308c7d	0.0107756825
76	0xbe180778	-0.14846599
77	0x3e239808	0.15975964
78	0x3e1bae8c	0.15203303
79	0x3c6056a0	0.013692528
80	0xbe7281a0	-0.2368226
81	0x3e0f84b7	0.1401547
82	0x3e0bbfb2	0.13647345
83	0x3e12d2bc	0.14338201
84	0x3d5f6b7d	0.05454587
85	0x3d836689	0.064160414
86	0x3c893e36	0.016753297
87	0xbd1fba37	-0.038995948
88	0xbdbf539d	-0.0934212
89	0x3e1e97f2	0.1548765
90	0xbddd0ada	-0.107930854
91	0x3d88f6a0	0.06687665
92	0xbdd0fe5c	-0.10204765
93	0x3e5d5907	0.21615992
94	0xbce3a787	-0.027789844
95	0x3df9ec42	0.12203266
96	0xbe43c0a2	-0.19116452
97	0xbcae6bb4	-0.021291591
98	0xbd630887	-0.055428054
99	0xbdc253da	-0.0948865
100	0xbdaf671b	-0.08564588
101	0x3d889ee0	0.06670928
102	0xbd8f0069	-0.069825
103	0x3d1f94a1	0.038960103
104	0xbd816930	-0.06318891
105	0xbe1a962f	-0.15096353
106	0xbccf965c	-0.025340252
107	0xbd9110e2	-0.07083298
108	0x3db0aa6a	0.08626254
109	0x3d671b0c	0.05642228
110	0xbe4d5d40	-0.20055103
111	0xbf1f22f8	-0.62162733
112	0xbe061e5f	-0.13097523
113	0x3c820d38	0.015875444
114	0x3d98beeb	0.0745829
115	0x3c1ade80	0.009452462
116	0x3d4e0473	0.05029721
117	0x3deeaf5d	0.11654542
118	0x3e5dc64a	0.21657673
119	0xbdcff468	-0.10154039
120	0xbdda2a87	-0.10652643
121	0x3d088848	0.033333093
122	0xbdac892e	-0.084246024
123	0x3c990b28	0.018682078
124	0xbd85647f	-0.06513309
125	0xbe01bb7c	-0.12669176
126	0x3d629fe7	0.055328276
127	0xbdd0a7c8	-0.10188252
128	0xbe02d3ad	-0.1277606
129	0xbcaff02e	-0.021476831
130	0xbd8ec658	-0.06971425
131	0x3c268410	0.010163322
132	0xbe48b51a	-0.19600335
133	0x3da124d8	0.078683555
134	0xbe0748e9	-0.13211407
135	0xbd23cb38	-0.039988726
136	0xbd18035d	-0.037112582
137	0xbd0a1aa6	-0.03371682
138	0x3d7ebc10	0.06219107
139	0xbd51fb8f	-0.051265296
140	0xbd1abde8	-0.037778765
141	0xbdf07dbf	-0.11742734
142	0xbd7ad439	-0.061237548
143	0xbd59ae75	-0.05314489
144	0xbdfc597a	-0.12321754
145	0xbdef51fc	-0.11685559
146	0x3ba5cb17	0.0050596106
147	0xbe43f878	-0.19137752
148	0x3da9749f	0.08274197
149	0xbd94d05a	-0.072663024
150	0xbdf71299	-0.12064094
151	0xbc992e25	-0.018698761
152	0xbd53365f	-0.051565524
153	0xbcc76ba3	-0.024343317
154	0x3de041be	0.10950039
155	0x3dc4a38c	0.096015066
156	0x3de490e5	0.11160449
157	0xbe50204f	-0.20324825
158	0x3d101f00	0.035185814
159	0xbd59ffea	-0.053222574
160	0xbd4f1a98	-0.05056247
161	0xbd1ee26a	-0.038790144
162	0xbe09f188	-0.13471043
163	0xbdc64659	-0.096813865
164	0xbdb1f625	-0.086895265
165	0xbe01cfc1	-0.12676908
166	0xbe3326d7	-0.17495285
167	0x3d986ed0	0.07443011
168	0xbd3eb1b4	-0.04655619
169	0xbe51ab1d	-0.20475431
170	0xbe11eff0	-0.14251685
171	0x3cd6a148	0.026199952
172	0xbdf64380	-0.12024593
173	0xbd703dc9	-0.058652673
174	0xbdb4e755	-0.088331856
175	0xbda56431	-0.080757506
176	0xbce12435	-0.027483085
177	0x3a9a0ffb	0.001175403
178	0x3bebe7e0	0.0071992725
179	0x3c0148f0	0.007890925
180	0xbdb5d965	-0.08879355
181	0xbdd3b209	-0.10336692
182	0xbdd8f799	-0.105941005
183	0x3bc00021	0.0058593904
184	0xbe3b9cad	-0.18321486
185	0x3d8c44a6	0.06849031
186	0xbe0ac2a0	-0.13550806
187	0xbdf5a55a	-0.11994429
188	0xbaa54c68	-0.0012611272
189	0x3d14abd4	0.03629668
190	0x3def05c4	0.116710216
191	0xbe50a259	-0.2037443
192	0xbdae38f7	-0.08506959
193	0x3e2c5827	0.16830502
194	0x3e0cd690	0.13753724
195	0x3dc8e965	0.098101415
196	0x3e497532	0.19673613
197	0xba9fe780	-0.001219973
198	0x3e1f9375	0.15583594
199	0xbdd04c96	-0.101708576
200	0x3e4a5d63	0.19762187
201	0x3e4ce91d	0.200108
202	0x3dfb209c	0.12262079
203	0x3d3c6497	0.045994367
204	0x3de9813f	0.11401605
205	0x3d0ff384	0.035144344
206	0x3cd80280	0.02636838
207	0x3d90fc23	0.07079341
208	0x3ea1ee86	0.3162729
209	0x3d99b104	0.07504466
210	0x3d8776d6	0.06614463
211	0x3e1cd0c8	0.15314019
212	0x3eaa3470	0.33243132
213	0x3da36a84	0.079793006
214	0xbd85b140	-0.065279484
215	0x3dd8c0e5	0.10583667
216	0x3e18a72f	0.14907525
217	0xbd8cf49f	-0.06882595
218	0xbd082357	-0.033236828
219	0xbd95459c	-0.072886676
220	0x3e1b6a85	0.15177353
221	0xbd8fd910	-0.07023823
222	0x3d0aeaa5	0.03391518
223	0xbcd114c3	-0.025522595
224	0x3de82f96	0.11337201
225	0x3e4b9490	0.19880891
226	0x3d9242e7	0.07141667
227	0xbd90f8c7	-0.070787005
228	0x3e563bd4	0.2092126
229	0x3dc0d44d	0.09415493
230	0x3e318591	0.17336108
231	0xbc8def61	-0.017326059
232	0xbd829e7a	-0.06377883
233	0x3e87f5ff	0.26554868
234	0x3ca9a900	0.020710468
235	0xbdde7b76	-0.10863392
236	0x3de0a052	0.10968079
237	0x3e06a093	0.13147192
238	0x3f4027fc	0.7506101
239	0x3e978a2a	0.29597598
240	0x3d5fa665	0.054602046
241	0x3d07af52	0.033126183
242	0xba4134ba	-0.00073702226
243	0x3d76899c	0.06018983
244	0xbd6eab08	-0.058268577
245	0xbd1dfa6e	-0.038568906
246	0xbc925e40	-0.017867208
247	0x3c8cfada	0.01720946
248	0x3e4538ec	0.19259995
249	0xbdf77d72	-0.12084474
250	0x3d03030b	0.031985324
251	0x3d3d92fb	0.04628275
252	0x3e887856	0.2665431
253	0x3dfb07b7	0.12257331
254	0x3dc06c94	0.0939571
255	0x3e7c2f90	0.24627519

Linear3.bias f4 [64]
0	0xbeb2a337	-0.34890148
1	0xbe5018c2	-0.20321944
2	0x3d7d49cf	0.061837967
3	0x3e20fa57	0.15720497
4	0x3d53fe2b	0.051756065
5	0x3e5bafd1	0.21453787
6	0x3d5e6263	0.054293048
7	0x3d939268	0.07205659
8	0xbe691397	-0.22761379
9	0xbdea9b10	-0.11455357
10	0xbe3a5e6a	-0.18200079
11	0xbe26fd24	-0.16307503
12	0xbdef0ec7	-0.116727404
13	0xbe0690fe	-0.13141248
14	0x3d69cc62	0.05707968
15	0x3e349095	0.17633279
16	0xbe213f0a	-0.15746704
17	0xbd811cd5	-0.063043274
18	0xbd54ade0	-0.051923633
19	0xbd8a7759	-0.06761045
20	0x3b94594e	0.0045272475
21	0xbc816e94	-0.015799798
22	0x3a087d76	0.00052066834
23	0x3e292a4d	0.16520043
24	0xbdff0f23	-0.12454059
25	0x3d2e0688	0.042486697
26	0xbdcb37a8	-0.09922725
27	0xbe11ce8b	-0.14238946
28	0x3c94ac51	0.018148573
29	0xbd898cc7	-0.06716304
30	0xbdffcf65	-0.12490729
31	0xbd63f7a0	-0.055656075
32	0xbde87f1f	-0.113523714
33	0xbe8375ec	-0.25675905
34	0xbd13926d	-0.036028314
35	0xbdc8841e	-0.09790824
36	0x3e48157e	0.19539449
37	0x3d8509fb	0.06496044
38	0xbd98d84c	-0.0746313
39	0xbd4ef8af	-0.050530132
40	0x3dbb366b	0.09141239
41	0xbda90a08	-0.082538664
42	0xb9a4f54e	-0.00031463284
43	0xbe0f3cd8	-0.13988054
44	0xb9afa0f7	-0.0003349853
45	0xbe1c8fdb	-0.15289252
46	0xbd76b0ba	-0.060227133
47	0xbe71cd91	-0.23613574
48	0xbe50a9e8	-0.20377314
49	0xbd94d3ec	-0.072669834
50	0xbd9a1d8d	-0.075251676
51	0x3cd76252	0.026292
52	0xbd07cd72	-0.033154912
53	0x3d1539eb	0.036432188
54	0xbd00425b	-0.03131328
55	0xbeeacadc	-0.45857894
56	0xbd5c6442	-0.05380655
57	0xbec9d727	-0.3942196
58	0x3c3efbbc	0.011656698
59	0xbe05dd1b	-0.13072626
60	0xbe2249e8	-0.15848505
61	0x3d7eb1a5	0.062181134
62	0xbe11a75a	-0.14223996
63	0xbc41d0f1	-0.011829601

Linear_last.weight f4 [1, 64]
0	0x3f616bdf	0.88055223
1	0xbe19051c	-0.14943355
2	0xbd01fc20	-0.031734586
3	0x3e106528	0.14101088
4	0x3d8d1b47	0.06889968
5	0x3e054f18	0.13018453
6	0x3d995267	0.0748642
7	0x3d529d14	0.051419333
8	0x3d4af639	0.049551222
9	0xbdfd778a	-0.12376316
10	0x3bce0fb2	0.006288492
11	0xbb0e24bf	-0.0021689383
12	0x3c0daa87	0.008646614
13	0x3aed6c22	0.0018113891
14	0x3bbca9de	0.0057575544
15	0x3deab36e	0.11460005
16	0x3bd88ac2	0.006608338
17	0xbbb43973	-0.0055000125
18	0x3b3654fe	0.0027821655
19	0xba4b70f5	-0.00077606674
20	0x3cc5d212	0.02414802
21	0xbba73e53	-0.005103865
22	0x3e2afe2c	0.16698521
23	0x3dfef5bb	0.12449213
24	0x3b318161	0.0027085172
25	0x3b9b326b	0.004736235
26	0xbcee9eca	-0.02912845
27	0xbcfe0149	-0.031006472
28	0x3d0938d1	0.03350145
29	0x3c3cf28e	0.011532439
30	0xbddc0067	-0.10742264
31	0x3d0f4c04	0.034984604
32	0xbcc0f2ad	-0.023553217
33	0x3fc211e0	1.5161705
34	0xbc8953ff	-0.016763685
35	0xbbfd6e6c	-0.0077341106
36	0x3da9c036	0.082886145
37	0x3d785b99	0.06063423
38	0xbb980961	-0.00463979
39	0x3d668692	0.05628068
40	0x3d818d01	0.063257225
41	0xbd5c8cc1	-0.05384517
42	0x3b60798b	0.0034252133
43	0xbe0e3ce6	-0.13890418
44	0x3b7adf18	0.0038279947
45	0x383e52a1	4.5376484e-05
46	0x3cf96dca	0.03044786
47	0xbc9ac281	-0.018891575
48	0x3e8a3c21	0.26999
49	0xbcaae429	-0.020860748
50	0x3d0dd48f	0.03462654
51	0x3b09527c	0.0020953706
52	0x3d1d9137	0.038468566
53	0xbd909c79	-0.07061095
54	0x3c817794	0.01580409
55	0x4043749a	3.0539918
56	0xb90e46c8	-0.00013568543
57	0x402f2f77	2.737272
58	0x3c166741	0.009179891
59	0xbe036c5c	-0.12834305
60	0xbbd4b52c	-0.006491324
61	0xbda17494	-0.07883564
62	0x3cd9cff4	0.026588418
63	0x3bf2f96e	0.0074149882
