method_max_utility/save/model/Phi_h_Model_8X8.pt (torch, 3423 bytes, 7 tensors)

Linear1.weight f4 [8, 2]
0.0025181046 -1.0832049 0.0018088782 1.5393255 0.008938775 -0.11249266 0.0009030636 -0.2650092
0.058477536 -0.058186445 -0.0009281886 0.55948484 -0.0011765885 -1.0638623 -0.04105646 -0.06133928
00000000: c906 253b 75a6 8abf e117 ed3a 9e08 c53f
00000010: f173 123c 8d62 e6bd 93bb 6c3a 49af 87be
00000020: 2486 6f3d e954 6ebd af51 73ba 663a 0f3f
00000030: c237 9aba a42c 88bf d22a 28bd e63e 7bbd

Linear1.bias f4 [8]
0.3700434 1.008895 0.47120574 0.26408288 -0.3378857 0.012609092 -0.39125162 -0.30831143
00000000: 5476 bd3e 7923 813f e141 f13e df35 873e
00000010: 5bff acbe 5d96 4e3c 2252 c8be ffda 9dbe

Linear2.weight f4 [8, 8]
0.3161971 -1.1766329 0.4259111 0.3922867 -0.13927057 0.41453463 0.8566348 0.335545
0.55431044 -3.4064147 -0.09059249 0.14105032 0.42366815 -0.0517273 0.8360969 -0.16399266
0.72913355 -0.39801404 0.3372293 0.27264577 0.009813285 0.33703947 0.8176661 0.10414336
-0.12579927 -0.038761616 -0.339902 -0.16856779 0.17178051 -0.1083121 0.3276573 0.28340432
0.5304635 -1.2607626 0.3114523 0.40335667 -0.25378358 0.8791451 0.93361795 0.31372917
0.24106595 -2.8170705 0.016355716 0.14554985 0.22214103 -0.72762376 1.2635765 -0.08265025
-0.0017747977 0.90840083 0.32263508 0.35310957 -0.04217061 0.4535808 -1.0558276 0.17750706
-0.2485916 -0.26675922 0.021501124 -0.060248047 0.2076504 -0.20475537 -0.31430256 0.25730512
00000000: 96e4 a13e e89b 96bf 0511 da3e cdd9 c83e
00000010: f29c 0ebe e23d d43e 6b4c 5b3f 8ecc ab3e
00000020: 4ae7 0d3f b302 5ac0 8e88 b9bd 7f6f 103e
00000030: 08eb d83e 01e0 53bd 720a 563f b1ed 27be
00000040: 7fa8 3a3f 7fc8 cbbe 52a9 ac3e 3a98 8b3e
00000050: e7c7 203c 7090 ac3e 9152 513f 1d49 d53d
00000060: 86d1 00be 80c4 1ebd a307 aebe 099d 2cbe
00000070: 3be7 2f3e bcd2 ddbd b3c2 a73e 5f1a 913e
00000080: 75cc 073f ab60 a1bf ad76 9f3e c484 ce3e
00000090: ecef 81be a70f 613f 9601 6f3f 1ca1 a03e
000000a0: fed9 763e e24a 34c0 6cfc 853c 050b 153e
000000b0: f078 633e 8d45 3abf e0bc a13f 8944 a9bd
000000c0: 54a0 e8ba f58c 683f 6d30 a53e c7ca b43e
000000d0: 17bb 2cbd be3b e83e 5c25 87bf 69c4 353e
000000e0: cc8e 7ebe aa94 88be 2023 b03c a8c6 76bd
000000f0: 4ea2 543e 64ab 51be 44ec a0be 7fbd 833e

Linear2.bias f4 [8]
0.104971714 0.14243875 0.48189345 -0.28771386 0.33552566 0.035312917 0.06605379 -0.16775128
00000000: 69fb d63d 77db 113e bdba f63e 3b4f 93be
00000010: 05ca ab3e 47a4 103d 3647 873d fec6 2bbe

Linear3.weight f4 [8, 8]
0.25776464 -0.3815421 -0.24429254 -0.107026234 0.58097297 -4.9071527 0.49197796 0.15308973
-0.54130244 1.5802238 0.07074178 0.018461406 0.03485909 -3.3175156 0.46370327 0.26408973
0.07132105 1.3947535 -0.15477614 0.26384178 0.089396134 -3.644121 -0.07934503 -0.25459528
0.343527 0.55700856 0.5274466 -0.19989382 0.7277262 10.955302 -0.61439407 -0.07514411
0.9965543 1.4111929 0.41485643 0.10163855 0.9912188 12.4751625 0.13465275 0.25124654
0.75545204 1.8385657 0.030816011 -0.27214003 0.39626598 13.809678 -1.6312363 0.12934881
0.2095451 0.33100834 0.31276524 0.13734639 0.39616913 11.063427 -1.2080266 0.3454307
-0.15416946 -0.012146682 -0.41268134 -0.22755268 -0.20654711 -0.15122288 0.22523573 -0.115534544
00000000: baf9 833e 7c59 c3be d327 7abe 9230 dbbd
00000010: a5ba 143f 6507 9dc0 89e4 fb3e 8ec3 1c3e
00000020: cc92 0abf c644 ca3f 11e1 903d 603c 973c
00000030: 68c8 0e3d 2d52 54c0 846a ed3e c536 873e
00000040: c510 923d 4887 b23f a37d 1ebe 4516 873e
00000050: 5215 b73d 4739 69c0 a67f a2bd 505a 82be
00000060: c5e2 af3e 1d98 0e3f be06 073f f7b0 4cbe
00000070: 444c 3a3f eb48 2f41 ee48 1dbf 28e5 99bd
00000080: 2f1e 7f3f f8a1 b43f 1068 d43e df27 d03d
00000090: 84c0 7d3f 449a 4741 69e2 093e 63a3 803e
000000a0: 4e65 413f 1f56 eb3f dc71 fc3c f055 8bbe
000000b0: 60e3 ca3e 71f4 5c41 5acc d0bf 0474 043e
000000c0: fe92 563e ed79 a93e c422 a03e 88a4 0c3e
000000d0: aed6 ca3e cc03 3141 9ea0 9abf 4bdc b03e
000000e0: 99de 1dbe e002 47bc f84a d3be 9203 69be
000000f0: 1681 53be 2cda 1abe 32a4 663e 609d ecbd

Linear3.bias f4 [8]
-0.2151728 -0.0058963373 -0.028305102 0.40478298 0.20351417 0.024361884 -0.027032817 -0.16747455
00000000: 4256 5cbe 1036 c1bb 1ae0 e7bc b73f cf3e
00000010: 0566 503e 9392 c73c ed73 ddbc 737e 2bbe

Linear_last.weight f4 [1, 8]
-1.1631476 -0.14366353 0.5308487 0.49418792 0.76375526 1.296153 0.83705777 0.42179742
00000000: 05e2 94bf 881c 13be b3e5 073f 3306 fd3e
00000010: 7785 433f 57e8 a53f 6b49 563f d5f5 d73e
