method_max_utility/save/model/Phi_h_Model_16X16.pt (torch, 5299 bytes, 7 tensors)

Linear1.weight f4 [16, 2]
0	0x3d707083	0.05870105
1	0xbf47a8cf	-0.77991956
2	0xbe131982	-0.14365199
3	0x3f3ca181	0.73683935
4	0xbf17f1a6	-0.593531
5	0xbf2cdf87	-0.67528576
6	0xbea3db62	-0.32003313
7	0x3f42eb5b	0.76140374
8	0xbd9968a1	-0.074906595
9	0xbebe8a66	-0.37214965
10	0x3e633b58	0.22190607
11	0xbf04b5bf	-0.5183982
12	0x3c225b3c	0.009909447
13	0xbf2bd2a8	-0.6711831
14	0xbd2b7044	-0.04185511
15	0xbd7de174	-0.061982587
16	0xbe2d298e	-0.16910383
17	0x3e70a076	0.23498711
18	0x3e96daf9	0.29463938
19	0x3eced6fa	0.4039839
20	0xbe0426c6	-0.12905416
21	0xbf597b04	-0.8495333
22	0xbd364964	-0.044503585
23	0xbf473d41	-0.7782784
24	0xbcb4bb9a	-0.022062112
25	0xbf6c073c	-0.9219854
26	0x3e7771db	0.24164526
27	0x3efafd20	0.49021244
28	0xbebd5c9c	-0.36984718
29	0x3e8e3b75	0.27779737
30	0x3d0940e8	0.033509165
31	0x3fafb565	1.3727232

Linear1.bias f4 [16]
0	0x3ee59506	0.44840258
1	0xbe1b6e73	-0.15178852
2	0xbf0c3079	-0.54761463
3	0x3e88c3f5	0.26712003
4	0x3ef6eee3	0.4822913
5	0xbe3aeef8	-0.18255222
6	0x3e966584	0.29374325
7	0xbea95945	-0.3307592
8	0x3f412317	0.7544417
9	0xbe560168	-0.20898974
10	0x3f10fe7f	0.5663833
11	0xbd5aa5cf	-0.053380784
12	0xbecb8ce6	-0.39755934
13	0x3e801248	0.25013947
14	0xbe340738	-0.17580879
15	0x3f54fb0f	0.83195585

Linear2.weight f4 [16, 16]
0	0x3dc1a2a8	0.09454852
1	0x3cfefe1c	0.031127028
2	0x3c33b834	0.01096921
3	0xbe67cdd5	-0.22637112
4	0x3e7b196b	0.24521415
5	0x3e0efb01	0.13962938
6	0x3ee04ef7	0.43810245
7	0x3e4d3a29	0.20041718
8	0x3db78273	0.08960428
9	0xbdef071c	-0.11671278
10	0x3eb083a9	0.3447545
11	0x3ea94cfa	0.3306654
12	0x3ea93962	0.33051592
13	0x3e2a23cb	0.16615216
14	0x3e4c9609	0.19979109
15	0xbe88fbad	-0.26754513
16	0xbe42f48e	-0.19038603
17	0x3e10a219	0.14124335
18	0xbbb1615a	-0.0054132165
19	0x3e87353c	0.26407802
20	0xbdf7850b	-0.12085923
21	0xbea40e35	-0.3204209
22	0x3d1b3790	0.037894785
23	0xbd707d43	-0.05871321
24	0x3e678d67	0.22612534
25	0x3d6864d6	0.05673679
26	0x3cc10006	0.023559581
27	0xbe2e9cd1	-0.17052008
28	0x3e25053b	0.16115277
29	0x3e9acbe7	0.3023369
30	0xbda3f4ed	-0.080057
31	0x3f366719	0.71251065
32	0xbe33ffe2	-0.1757808
33	0xbe412780	-0.18862724
34	0x3c791880	0.015203595
35	0xbd2e7f38	-0.042601794
36	0x3e165ade	0.146831
37	0xbe14423c	-0.14478391
38	0xbe639452	-0.22224548
39	0x3e3a4f0e	0.1819422
40	0xbd17d730	-0.037070453
41	0x3e0ffd32	0.1406143
42	0x3da499a0	0.08037114
43	0xbe3ff7d4	-0.18746883
44	0x3d4db848	0.050224572
45	0x3d75f618	0.060049146
46	0xbe2b6832	-0.16738966
47	0xbdf2ee08	-0.11861807
48	0x3e69de9c	0.22838825
49	0x3d816a5a	0.06319113
50	0xbcb2ec7e	-0.021841284
51	0xbd0994c5	-0.033589143
52	0x3eaa3020	0.3323984
53	0x3e30ce19	0.1726612
54	0x3eaaf679	0.3339117
55	0x3dddbb87	0.108267836
56	0xbd431fa1	-0.047637586
57	0xbd98b8f6	-0.074571535
58	0x3ecc2b29	0.3987668
59	0x3e68c733	0.22732238
60	0x3f1e9a29	0.6195398
61	0x3d5f1088	0.054459125
62	0x3d481c2b	0.048854988
63	0xbe28c278	-0.16480434
64	0x3ec92623	0.39286909
65	0xbdab04df	-0.083505385
66	0x3d47c4d3	0.04877169
67	0xbdd6245b	-0.10456153
68	0x3e8b2bbe	0.2718181
69	0x3e82a233	0.25514373
70	0xbc866117	-0.016403718
71	0xbe384ca8	-0.17997992
72	0xbd71472b	-0.05890576
73	0x3de6ae91	0.11263765
74	0x3ec73e51	0.3891473
75	0x3d9913c6	0.074744746
76	0x3f178495	0.5918668
77	0xbd394426	-0.045231007
78	0xbde6141a	-0.11234303
79	0xbedee1af	-0.43531558
80	0x3d4cae74	0.04997106
81	0xbcbce67a	-0.023059119
82	0xbbdef90b	-0.0068045906
83	0x3de20e01	0.11037827
84	0x3e0a43a3	0.13502364
85	0xbde417d1	-0.11137355
86	0x3d690db5	0.056897838
87	0x3e35e34c	0.17762488
88	0x3d37f618	0.044912428
89	0xbe327f02	-0.17431262
90	0xbe8aafad	-0.27087155
91	0xbec11d54	-0.37717688
92	0xbecb6cc0	-0.39731407
93	0xbdc0b1e5	-0.09408931
94	0xbe7433a6	-0.23847827
95	0x3f20ef0d	0.6286476
96	0x3c422a3a	0.011850888
97	0xbeb9f344	-0.3631841
98	0x3d80d6df	0.062909834
99	0x3c594088	0.013260014
100	0x3e9a1645	0.30095115
101	0xbddadfd4	-0.10687223
102	0xbe337729	-0.17525925
103	0x3e7a0acc	0.24418181
104	0x3e202927	0.15640698
105	0x3d8a5cbd	0.0675597
106	0xbe34017a	-0.17578688
107	0xbee3c14b	-0.44483408
108	0xbf3c401f	-0.7353534
109	0x3da5b06d	0.08090291
110	0x3cb64322	0.022248808
111	0x3f4256b2	0.75913537
112	0x3da816ec	0.08207497
113	0xbd5f471b	-0.05451117
114	0x3e5639c8	0.2092048
115	0xbf1ff205	-0.6247867
116	0xbdcc22f8	-0.09967607
117	0x3f0dfde9	0.5546556
118	0x3e7a07e9	0.2441708
119	0xbd65c315	-0.056094248
120	0xbe919a80	-0.28438187
121	0x3ddd5bc2	0.10808517
122	0x3dbb6f2e	0.09152065
123	0x3f12f38d	0.5740288
124	0x3fbd3e01	1.4784547
125	0xbec2e96e	-0.38068718
126	0x3dbad2fd	0.09122274
127	0xbfda7694	-1.7067437
128	0x3e9e54c3	0.30924043
129	0x3db1db4e	0.08684407
130	0xbe0c9006	-0.13726816
131	0x3e875d99	0.26438597
132	0xbe9250f7	-0.28577396
133	0xbe45571e	-0.19271514
134	0xbf9eccff	-1.240631
135	0xbd4a44f0	-0.04938215
136	0xbe4addee	-0.19811222
137	0x3f065e10	0.5248728
138	0xbe2714bb	-0.16316502
139	0xbf0dd526	-0.55403364
140	0xbc10d9f9	-0.008841031
141	0x3c5474de	0.012967316
142	0x3e935848	0.2877829
143	0x3db431ff	0.087985985
144	0x3d2ef615	0.04271515
145	0xbd6b3add	-0.057429183
146	0x3d58fe87	0.05297711
147	0xbed1aef5	-0.40953794
148	0x3e59247b	0.21205322
149	0x3ed17737	0.40911266
150	0x3ed499ba	0.41523534
151	0xbe33243b	-0.1749429
152	0x3e15e5f9	0.14638509
153	0xbd27e40f	-0.040988978
154	0x3ebe6ba0	0.37191486
155	0x3de63a7b	0.11241623
156	0x3f4c4cd9	0.7980476
157	0x3cb2f98d	0.02184751
158	0xbdc8229d	-0.09772227
159	0xbf0a9fa0	-0.5414982
160	0x3e2ae86b	0.16690223
161	0x3cf25a2a	0.02958401
162	0x3d9af9f4	0.07567206
163	0xbe4ca839	-0.19986047
164	0xbe2135e8	-0.1574322
165	0x3ed1e3f1	0.40994218
166	0x3eba7a38	0.3642137
167	0x3e53a7b0	0.20669436
168	0x3e6d7be9	0.23191799
169	0xbde1d425	-0.110267915
170	0x3d7113d9	0.05885682
171	0x3ef61fd5	0.4807116
172	0x3eec19b1	0.4611335
173	0x3e048f77	0.12945352
174	0xbe0ea3e6	-0.1392971
175	0xbf677711	-0.90416056
176	0x3e7437e1	0.23849441
177	0x3e33c9c8	0.17557442
178	0x3e85080b	0.259827
179	0xbf6a22ce	-0.9145936
180	0x3e17b755	0.1481603
181	0x3f14506d	0.5793522
182	0x3dd28f9e	0.10281299
183	0xbe46e621	-0.19423725
184	0x3dcff329	0.10153801
185	0x3e43ab7c	0.19108385
186	0x3cab4d01	0.020910742
187	0x3f03f479	0.5154491
188	0x3fc2a458	1.5206404
189	0x3cf0ca8a	0.029393453
190	0x3d2dc4b8	0.042423934
191	0xc0044429	-2.0666602
192	0xbd314372	-0.04327721
193	0x3dcc58d5	0.09977881
194	0x3e9563cb	0.29177698
195	0xbf70ebbd	-0.9410971
196	0xbd9c6935	-0.07637254
197	0x3ed7180d	0.42010537
198	0xbd709370	-0.058734357
199	0xbe34dd70	-0.17662597
200	0xbe418d64	-0.18901592
201	0x3dc1edfb	0.09469219
202	0x3eb04ce0	0.3443365
203	0x3e588230	0.21143413
204	0x3faf6b8e	1.3704698
205	0xbd8d8107	-0.06909376
206	0x3e07af30	0.13250422
207	0xbfd8bf3b	-1.6933359
208	0x3da7e49f	0.08197903
209	0xbf3f2759	-0.74669415
210	0x3e01ca5f	0.12674855
211	0xbea6d0ab	-0.32581076
212	0x3e2c0c79	0.16801633
213	0x3d319b9f	0.043361302
214	0xbe51f959	-0.20505275
215	0x3e7a6d1e	0.24455687
216	0xbd3ef9fa	-0.046625115
217	0xbec4db68	-0.38448644
218	0x3d58e9de	0.052957408
219	0xbeaeb69a	-0.3412369
220	0xbf033af8	-0.51261854
221	0xbe450e03	-0.19243626
222	0xbd922f11	-0.071378835
223	0x3eeb168d	0.45915642
224	0x3e800c75	0.25009504
225	0x3e08870e	0.1333277
226	0x3d36dfa0	0.04464686
227	0xbe04b845	-0.12960918
228	0xbd8e2e94	-0.06942478
229	0x3e82696b	0.25471053
230	0x3deead19	0.116541095
231	0x3c24ae39	0.010051304
232	0x3dbca1a9	0.09210522
233	0x3dfb768d	0.12278471
234	0x3ecbafd7	0.39782593
235	0x3e94d612	0.29069573
236	0x3f1038a3	0.5633642
237	0xbd9584a1	-0.073006876
238	0xbe853d24	-0.2602321
239	0xbe08c4c4	-0.1335631
240	0x3e2409ca	0.16019359
241	0x3ebf0711	0.3731008
242	0x3f0bad08	0.545609
243	0xbf7bf339	-0.98418003
244	0x3dfa85f9	0.122325845
245	0x3ee8e0c9	0.45483997
246	0x3e8aa61a	0.2707985
247	0xbe115198	-0.14191282
248	0xbe474e5c	-0.19463485
249	0xbebc7ca7	-0.36813852
250	0xbc96841a	-0.018373538
251	0x3e8ce99a	0.27521974
252	0x3fcc181f	1.5944861
253	0xbd790887	-0.060799148
254	0xbd5425bf	-0.05179381
255	0xbfbcf354	-1.4761758

Linear2.bias f4 [16]
0	0x3d43e5d6	0.04782661
1	0x3d190b91	0.037364546
2	0xbe69f2c4	-0.22846514
3	0x3e993267	0.29921266
4	0x3e08766b	0.13326423
5	0x3e120cde	0.14262721
6	0x3e6a3539	0.22871865
7	0xbe303593	-0.17207937
8	0xbe7745c7	-0.24147712
9	0xbca4bda5	-0.02010996
10	0x3e41e5f2	0.18935373
11	0xbecd4779	-0.40093592
12	0xbdcc0360	-0.09961581
13	0x3d9792ac	0.07401022
14	0x3e88eadf	0.26741692
15	0xbd83082e	-0.063980445

Linear3.weight f4 [16, 16]
0	0x3da440ef	0.080201976
1	0xbf8fd305	-1.1236273
2	0xbd4276f0	-0.04747671
3	0x3ccb4bd1	0.024816426
4	0x3e419907	0.18906032
5	0xbe7e267c	-0.24819368
6	0xbf8634eb	-1.0484899
7	0x3fd4c781	1.6623384
8	0xbe8a2576	-0.26981705
9	0x3ddafea7	0.10693102
10	0x3ea01476	0.3126561
11	0x3f9edfa2	1.2411997
12	0x3fd9226c	1.696363
13	0xbc90d55d	-0.017679865
14	0x3d9061e9	0.07049925
15	0x3e73ea29	0.23819794
16	0xbe0f2f62	-0.13982919
17	0xbe100382	-0.14063838
18	0x3d80fdc4	0.06298402
19	0x3cd64570	0.026156157
20	0xbe02acc0	-0.12761211
21	0xbe3471ac	-0.17621487
22	0xbe541a6c	-0.20713204
23	0x3e7ae584	0.24501616
24	0xbd2e8940	-0.04261136
25	0xbd6cc8f0	-0.057808816
26	0xbdbc4588	-0.091929495
27	0xbe000ade	-0.12504146
28	0xbe6a1d78	-0.22862804
29	0xbe164980	-0.14676476
30	0x3e1c7978	0.15280712
31	0x3d606fa0	0.054793954
32	0xbe151eab	-0.1456248
33	0xbd31792d	-0.043328453
34	0x3e23894e	0.15970346
35	0x3db41b2a	0.08794244
36	0x3e8fa2cb	0.2805389
37	0xbdcb7335	-0.09934083
38	0x3dce4026	0.10070829
39	0x3d5f2091	0.054474417
40	0xbe76d333	-0.24104004
41	0xbe98e5a2	-0.29862696
42	0x3db7ab67	0.08968239
43	0xbddb9fe4	-0.10723856
44	0x3dd81fb6	0.105529234
45	0xbe1fb940	-0.15598011
46	0xbe9bd466	-0.30435485
47	0x3e19f835	0.1503609
48	0x3dc01a0d	0.09379969
49	0xbf00bd2e	-0.50288665
50	0xbe7735a8	-0.24141562
51	0x3dd7a99b	0.105303966
52	0x3dc23625	0.094829835
53	0xbdd7f6fd	-0.10545156
54	0xbe86f21e	-0.26356596
55	0x3fc5e3ba	1.5460122
56	0x3d861404	0.065467864
57	0x3e94743f	0.2899494
58	0x3e6cebfe	0.23136899
59	0x3f59bb96	0.8505186
60	0x3fa83a32	1.314276
61	0xbe6d3044	-0.23162943
62	0x3e853969	0.26020363
63	0x3ea52658	0.32255816
64	0x3df185bc	0.11793086
65	0xbd94b711	-0.0726148
66	0x3db5d65c	0.088787764
67	0x3e9574d6	0.291907
68	0x3dc44e2a	0.09585221
69	0xbbcae191	-0.0061914404
70	0xbde10528	-0.109873116
71	0x3feaf61b	1.8356355
72	0xbbb9b73a	-0.0056675943
73	0x3e4f8100	0.20264053
74	0x3f13a0f9	0.576675
75	0x3f88199c	1.0632815
76	0x3fd8a737	1.692603
77	0x3dec61c4	0.11542085
78	0x3ee55f4b	0.44799265
79	0x3ef8b1d6	0.48573178
80	0xbe0f8456	-0.14015326
81	0x3e268f92	0.16265705
82	0x3ad2cd00	0.0016082823
83	0xbe5e22c3	-0.21692948
84	0xbd846541	-0.06464625
85	0xbe7457b8	-0.23861587
86	0xbe1217c1	-0.14266874
87	0xbe355c0e	-0.17710897
88	0x3e2f1774	0.1709879
89	0xbd8b153a	-0.06791158
90	0xbd649881	-0.0558095
91	0x3df081b9	0.11743493
92	0x3dba4c13	0.09096541
93	0xbe1aa6cc	-0.1510269
94	0x3da28043	0.0793462
95	0x3dd98258	0.10620564
96	0xbe3a5f6c	-0.18200463
97	0x3ee8de8c	0.4548229
98	0xbe1bc568	-0.15212023
99	0xbdcb30b4	-0.09921399
100	0xbd709009	-0.058731113
101	0x3eb8ab36	0.36068124
102	0x3e830b0e	0.25594372
103	0x3e807c16	0.2509467
104	0x3e0add56	0.13560995
105	0x3e0d907d	0.13824649
106	0xbd1b775f	-0.037955638
107	0xbef8b530	-0.48575735
108	0xbd528322	-0.05139459
109	0x3e35b8d9	0.17746295
110	0x3d4070ef	0.046982702
111	0x3f2b48e4	0.669081
112	0x3e84a5ac	0.25907648
113	0xbe3b7828	-0.18307555
114	0x3db8b3f4	0.09018698
115	0xba900024	-0.001098637
116	0x3e7874af	0.24263261
117	0x3d6e75fc	0.058217987
118	0xbb64f214	-0.003493433
119	0x3fdc74d1	1.722315
120	0xbe286bc3	-0.16447358
121	0x3f05920c	0.52175975
122	0x3d458b98	0.04822883
123	0x3f71b8d7	0.9442267
124	0x3fb4ab90	1.4114857
125	0x3e1f35b7	0.15547834
126	0x3d82c50b	0.06385239
127	0x3ee612ac	0.4493612
128	0x3e0df13e	0.13861558
129	0xbea84d2a	-0.32871372
130	0x3dab8978	0.083758295
131	0x3eb11d3a	0.3459261
132	0x3ec0e937	0.3767793
133	0x3d80d9a5	0.062915124
134	0x3e7e3cf5	0.24827941
135	0x3fdbfbd4	1.7186227
136	0xbdff5401	-0.12467194
137	0x3dcd13c8	0.100135386
138	0x3ee3b402	0.44473273
139	0x3f3a8331	0.7285643
140	0x3fc418c2	1.5320055
141	0xbe1016a0	-0.14071131
142	0x3ec92089	0.39282635
143	0x3ece353d	0.40274993
144	0xbea3ed71	-0.3201709
145	0xc023a879	-2.5571578
146	0xbe364222	-0.17798665
147	0xbeb0a9f2	-0.34504658
148	0xbe3bbbf6	-0.1833342
149	0xbff81feb	-1.938474
150	0xc00b63cd	-2.1779664
151	0x401fbb13	2.495793
152	0x3ee876fb	0.45403275
153	0x3dd2e8c6	0.10298304
154	0x3d941814	0.07231155
155	0x40492797	3.1430414
156	0x400eab46	2.2292037
157	0xc0034c6b	-2.0515392
158	0xbe35d83a	-0.17758265
159	0x405b87bf	3.4301603
160	0x3e2fcc05	0.17167671
161	0xbf3cea51	-0.7379504
162	0x3d22d548	0.039754182
163	0x3e1b755e	0.15181491
164	0x3eaf7019	0.3426521
165	0xbe4c9c11	-0.1998141
166	0xbf299f72	-0.6625892
167	0x3fe088e6	1.7541778
168	0x3ebc6a62	0.36799914
169	0x3e6c9022	0.23101857
170	0x3e4683f8	0.1938628
171	0x3f6107d4	0.8790257
172	0x3fc46ce3	1.534573
173	0xbe4d7b43	-0.20066552
174	0x3df663c4	0.120307475
175	0x3ef9d665	0.48796383
176	0x3ea2eea5	0.31822696
177	0xbf68f2f6	-0.9099573
178	0xbe2d071a	-0.1689724
179	0x3e630540	0.22169971
180	0xbc5c2d30	-0.013438508
181	0xbed825ab	-0.42216238
182	0xbf6221e6	-0.88332975
183	0x3fc91338	1.570899
184	0x3dae0c4f	0.084984414
185	0x3d466f98	0.048446268
186	0x3dd24ecb	0.10268935
187	0x3f7f0332	0.9961425
188	0x3fd41e8b	1.6571821
189	0xbe0f30ed	-0.13983507
190	0xbcfbafdb	-0.030723503
191	0x3ef78f73	0.4835163
192	0xbe15f65a	-0.14644757
193	0x3e2f1c87	0.17100726
194	0x3e133438	0.14375389
195	0xbe780ccd	-0.24223633
196	0xbba10959	-0.0049144444
197	0xbe46a824	-0.19400078
198	0xbe27a2ff	-0.16370772
199	0x3d5484e6	0.051884554
200	0xbe89e14f	-0.2692971
201	0xbe0626e5	-0.13100775
202	0x3e024493	0.12721471
203	0xbea28115	-0.31739107
204	0xbdd5ce55	-0.10439745
205	0xbe624f0b	-0.22100465
206	0x3e03e360	0.12879705
207	0x3e6f3ff8	0.23364246
208	0xbe30d148	-0.17267334
209	0xbe0bdb16	-0.13657793
210	0x3d59c6c8	0.05316809
211	0xbe022e08	-0.12712872
212	0x3e2417e2	0.16024736
213	0x3ca10238	0.019654378
214	0xbd20564b	-0.039144795
215	0xbe6cbc8c	-0.231188
216	0x3f1463d7	0.57964844
217	0xbe17b0ba	-0.1481351
218	0xbe90a51c	-0.28250968
219	0x3e41cdb4	0.18926126
220	0x3dae7f30	0.08520353
221	0xbf31f5a0	-0.6951542
222	0xbade5c31	-0.0016964731
223	0xbd9ffb34	-0.07811585
224	0xbe060f4b	-0.13091771
225	0xbd575e59	-0.05258021
226	0xbe36a102	-0.17834857
227	0x3e81ef4f	0.2537789
228	0xbd9b0dab	-0.07570966
229	0x3e29937c	0.16560167
230	0xbe0ae372	-0.13563326
231	0xbe4a04e3	-0.19728427
232	0x3d85d654	0.065350205
233	0xbe271e82	-0.16320232
234	0xbdddeba9	-0.10835964
235	0x3d658696	0.056036554
236	0x3e4b140c	0.19831866
237	0xbdaeb1e5	-0.085300244
238	0xbe2419b5	-0.16025431
239	0xbe2b8873	-0.1675127
240	0xbc083a9c	-0.008314755
241	0xbf38b423	-0.72149867
242	0xbd6e82e8	-0.05823031
243	0xbd8a5565	-0.06754569
244	0x3e576e78	0.21038234
245	0xbdeaa5b2	-0.11457385
246	0xbf683136	-0.9070009
247	0x3fb311dd	1.3989826
248	0xbbca7d59	-0.0061794934
249	0x3dffd0f9	0.1249103
250	0x3ea93fa2	0.3305636
251	0x3f48b461	0.78400236
252	0x3f9810f8	1.1880178
253	0xbe7793a7	-0.24177419
254	0x3ccce2f3	0.025010562
255	0x3e90038a	0.281277

Linear3.bias f4 [16]
0	0x3d33ada2	0.04386676
1	0xbd65a728	-0.056067616
2	0xbd59f519	-0.05321226
3	0xbd95d84b	-0.07316645
4	0x3ebe771e	0.37200254
5	0x3d3626f5	0.044470746
6	0xbd857730	-0.06516874
7	0x3ebfe50b	0.37479433
8	0x3e7a6d7c	0.24455827
9	0xbf54988f	-0.83045286
10	0xbdf35414	-0.11881271
11	0x3e3c903a	0.18414393
12	0x3d8071d8	0.06271714
13	0x3dd9e9ab	0.10640272
14	0xb981fdea	-0.00024793978
15	0x3e48f215	0.19623597

Linear_last.weight f4 [1, 16]
0	0x3ec7f2dc	0.39052474
1	0x3d9e56f4	0.07731429
2	0xbc63c54b	-0.013902019
3	0x3e9c07c3	0.30474672
4	0x3e80fb4c	0.25191724
5	0xbd505417	-0.050861444
6	0xbe605ad0	-0.21909642
7	0x3ec6ba03	0.3881379
8	0x3eb341f5	0.3501126
9	0x40bbba65	5.8665032
10	0x3ea34fbe	0.31896776
11	0x3ea3a7dd	0.31964007
12	0xbca2eebd	-0.01988923
13	0xbdb4d8da	-0.08830424
14	0x3e25ee31	0.16204144
15	0x3e63fd49	0.2226459
