method_max_utility/save/model/Phi_h_Model_32X32.pt (torch, 11827 bytes, 7 tensors)

Linear1.weight f4 [32, 2]
000000 b8 2d 2b 3e 6b 6c f3 be 0a 69 82 be 43 f1 1a 3f
       0.16716659 -0.47543654 -0.25470763 0.60524386
000010 27 70 46 be 8e 2d df 3d 85 53 a0 bd 21 f2 26 3f
       -0.1937872 0.10897361 -0.0782843 0.6521321
000020 62 49 8f 3d 4b 86 af bd 68 46 33 3e 74 cd 91 3e
       0.069964185 -0.08570536 0.17507327 0.2847706
000030 02 f5 22 3d 3a d4 0d bf d2 ea bb bc e7 58 02 bf
       0.03978444 -0.5540196 -0.02293912 -0.50916904
000040 e0 54 0f bb 0d 0d 99 bc e8 e0 88 3e 17 91 e3 3e
       -0.0021870658 -0.01868298 0.2673409 0.44446632
000050 10 8f cc bd 91 a2 37 bf 85 c8 fe bc 42 51 1b bf
       -0.099882245 -0.7173243 -0.031101475 -0.60670865
000060 04 75 21 be f3 e8 4e be e9 96 ef 3d 1c de 0e 3f
       -0.15767294 -0.2020605 0.11698706 0.5580766
000070 72 ad 0e bf 57 c4 8b 3f 5f ad 76 3c c1 49 a2 3f
       -0.55733407 1.0919293 0.015055983 1.2678758
000080 b9 85 c0 3e 8b df 6a bf d4 3e fb be e9 6f 6c bf
       0.37602022 -0.9174735 -0.49071372 -0.9235826
000090 dc 4f 36 3e 80 c4 de bc 25 05 8b 3d eb e9 29 bf
       0.17803901 -0.027193308 0.067880906 -0.66372555
0000a0 ca a4 da 3e 4a 8c 31 bf c9 9e 80 3e 79 30 00 3f
       0.4270385 -0.6935469 0.25121143 0.50073963
0000b0 b5 4e d2 be 7c 77 3c 3f 67 10 1e be 61 b3 27 3e
       -0.41075674 0.7361982 -0.15435944 0.16377021
0000c0 81 a6 35 be 1e 39 01 bf 22 f0 e3 be 87 76 27 bf
       -0.17739297 -0.5047778 -0.44519144 -0.65415233
0000d0 fb b0 80 3e 58 22 ef be 1b fc 17 3f f2 a9 61 3f
       0.25135025 -0.4670589 0.5936906 0.8814994
0000e0 ae 4c 3c bd f7 ea 43 bf f7 93 9f 3e 34 6c 1b 3f
       -0.045971565 -0.765304 0.31167576 0.6071198
0000f0 83 a6 c9 be 2b 1a 80 3f 74 3c c1 3e 4d fa 8a 3f
       -0.3938485 1.0007986 0.37741435 1.0857636

Linear1.bias f4 [32]
000000 86 4d f4 be eb d6 af 3e 93 9b 4f be e5 31 fb 3e
       -0.47715396 0.34343657 -0.2027419 0.49061504
000010 ab ac 0b bf 05 f0 1c bf fa 56 a2 3e 53 23 46 be
       -0.54560345 -0.6130374 0.31706983 -0.19349413
000020 da 3c c8 bc 66 5a 33 3e 27 c2 2b 3e 4e 28 ae bd
       -0.024443079 0.17514953 0.16773282 -0.08503781
000030 73 05 f0 3d 12 c8 ea 3e 55 3b e0 be ab 59 41 3f
       0.11719789 0.45855767 -0.43795267 0.7552745
000040 54 3e 03 bf 8b 6b c4 be 7d ff 2d bc 9b 44 c4 bd
       -0.5126698 -0.383633 -0.010619995 -0.09583398
000050 ae 4e c4 3e 17 f7 e8 be a8 ff d4 be 7d cf ae 3e
       0.38341278 -0.45501015 -0.416013 0.34142676
000060 91 b4 c3 3c 4c e1 cc 3e 8c b9 27 3e b4 d0 06 bf
       0.023889812 0.40015638 0.16379374 -0.52662206
000070 b8 f9 72 3b 55 8d 83 3e 1c 57 1f be 3a d7 33 bd
       0.0037075114 0.25693765 -0.15560573 -0.043906428

Linear2.weight f4 [32, 32]
000000 80 9d 0d 3d 74 24 8f be 1a 65 fb bd 54 f2 5c be
       0.03457403 -0.279575 -0.12275143 -0.21576816
000010 4a bc 25 3e b4 67 65 be 25 4f 3d 3e e6 fa d0 3e
       0.16185108 -0.22402841 0.18487222 0.4081642
000020 7f 3e d3 bd 15 eb d1 bd 07 a1 a1 3e 31 6a 74 3e
       -0.103146546 -0.102499165 0.31568167 0.23868634
000030 86 eb 18 3e 19 b3 56 bc 18 ba 41 bd bc 79 40 be
       0.14933595 -0.013104224 -0.047296613 -0.18796438
000040 d4 a0 65 3e ef e6 d3 bc 20 da a8 bb 8a a8 85 3e
       0.22424632 -0.025866954 -0.0051529557 0.26105148
000050 3c 64 4d 3e 55 b6 5e 3e 21 82 af 3d 17 4b 09 be
       0.20057768 0.21749242 0.08569742 -0.13407551
000060 73 52 05 3e d8 f2 ed 3d 0f d1 7b 3e 54 b4 f5 bd
       0.13019733 0.116185844 0.24591468 -0.119972855
000070 6c a3 a1 3e cb e8 1b be 12 70 30 be 31 a4 a4 3c
       0.31569993 -0.15225522 -0.17230251 0.020097824
000080 5c 07 a3 3d 04 7b e7 bd a2 52 db bd e2 13 9b bd
       0.07960388 -0.1130276 -0.1070912 -0.07572152
000090 96 25 1c 3e 84 07 b5 be c7 d3 57 3e ae b3 96 3e
       0.15248713 -0.35357296 0.2107688 0.2943396
0000a0 78 f7 17 3e 4c 5f 48 3d 86 57 6d bc b3 f5 a4 3c
       0.14840496 0.048919007 -0.014486199 0.02013669
0000b0 99 da 9b bd 1e 6d 12 bd 11 5c 18 be 40 c8 3d be
       -0.076100536 -0.035748594 -0.1487887 -0.1853342
0000c0 3f 7c a1 3d 62 fa 93 3b 2e 1c 88 3d 33 ba 39 3e
       0.07885026 0.004515932 0.06646 0.18137436
0000d0 2c af 59 3e bb f1 e2 bd e1 ca b8 bc 53 4b 3b 3e
       0.21258229 -0.11081263 -0.022557678 0.18290453
0000e0 ea bd 09 3e a4 7d 89 3d 7d 19 74 bd 26 d1 98 be
       0.13451353 0.06713417 -0.05959462 -0.29847068
0000f0 b1 96 c0 3d 11 cf db bd 30 4e 94 3d c9 02 39 be
       0.09403742 -0.10732854 0.072414756 -0.18067469
000100 14 48 65 bd 8a 77 2c be 9e 8d bd 3c 23 39 2a 3d
       -0.055976942 -0.16842476 0.023138817 0.041558396
000110 4d 58 bb bd 9e 21 9e bd b3 5c 15 3e fc 76 40 3e
       -0.091477014 -0.07721256 0.14586143 0.18795389
000120 ec 19 81 bd a6 93 8b bb d1 62 29 3e 61 96 c2 3e
       -0.06303772 -0.0042595444 0.16541602 0.38005355
000130 8f f2 ad 3d 07 cc ca 3d 8a 01 ac bc 9c bf 7d bc
       0.0849353 0.099021964 -0.020996828 -0.015487578
000140 ab af 6a 3e 61 bd be 3c ec e6 16 bd 46 5c c2 3e
       0.22918575 0.023283662 -0.036841318 0.37961024
000150 0a e3 29 3e 12 8b 3f bb b1 6d 9e be 66 8d cd bb
       0.16590515 -0.002922718 -0.30943063 -0.0062729595
000160 8a 8c 18 3e ae 79 9c 3e a9 87 82 3d 8e ec 59 be
       0.14897361 0.30561584 0.06373531 -0.21281645
000170 ea b5 a3 3e 67 d0 b5 bd 33 7d cb bd 08 c4 31 be
       0.31974727 -0.0887764 -0.09935989 -0.17359936
000180 33 1c d5 bd 21 0c b0 be 05 75 64 3d 63 49 ea be
       -0.10405769 -0.34384254 0.05577566 -0.45759115
000190 a0 e5 a9 3d 7e 98 8d 3d 75 73 69 3e f4 15 49 3e
       0.082957506 0.06913851 0.2279795 0.1963728
0001a0 60 5a 85 3d 14 58 1c be e1 42 6f 3e 71 63 8e 3d
       0.06511378 -0.15267974 0.23365356 0.06952561
0001b0 1d b3 ef 3d 97 e5 a2 bd b2 01 0b bf 0f e3 0e bf
       0.11704085 -0.07953947 -0.5429946 -0.55815214
0001c0 f9 4a 7b 3e 79 9d a4 3d 47 b9 a3 3d 72 7f 51 3e
       0.24540319 0.08037848 0.07994323 0.20458773
0001d0 e4 f0 cf bd 83 42 52 bd 1e 76 1a 3d 14 2c b6 3d
       -0.10153368 -0.05133296 0.0377103 0.08895126
0001e0 87 a0 86 3e dc 7e c9 bd ea 1b 01 bc ba b7 7c 3d
       0.26294348 -0.0983865 -0.00788019 0.061698653
0001f0 59 48 f2 3b af d2 95 3d 7d 32 64 bf 2e fa 96 be
       0.0073938784 0.07315575 -0.8913954 -0.29487747
000200 f7 71 0c 3e 8a e1 da be db dd 35 bd d3 67 e3 bd
       0.13715349 -0.42750198 -0.04440103 -0.11103787
000210 27 62 0f 3e 80 c8 d4 3d 75 83 b8 3d 10 a2 71 3e
       0.14002286 0.10389805 0.090094484 0.23596978
000220 26 39 7a 3e 70 fb b1 bd 9f 39 dc 3d 8c c8 92 3e
       0.24435863 -0.08690536 0.10753178 0.2866863
000230 a7 40 ea 39 fe de 8b 3d c6 2f 2c 3d 2b 49 26 bf
       0.00044680128 0.06829642 0.042037748 -0.64955395
000240 41 8a d4 3d 1d 32 03 3c d3 0d e2 3d 17 55 54 3e
       0.10377932 0.008007553 0.11037793 0.20735584
000250 29 20 a6 3c 37 c3 a3 bc b9 d6 cd bb 87 19 a2 bd
       0.020279007 -0.019990547 -0.0062817005 -0.07915025
000260 59 0e 13 3e 4a 06 98 3e 9f 15 86 3e c4 3e 0a 3b
       0.14360942 0.29692298 0.2618837 0.002109454
000270 f2 a3 7e 3e b7 9c da bc 42 6a 01 be df b5 42 be
       0.24867228 -0.026686056 -0.1263819 -0.19014691
000280 9d 00 1f 3e 82 a6 85 be 47 90 48 3c b6 03 9b be
       0.15527578 -0.26103598 0.01224143 -0.3027627
000290 27 76 24 3e 4c bb e2 3c 08 bc 06 3d eb b3 0d 3f
       0.16060697 0.0276772 0.032894164 0.5535266
0002a0 48 c5 e5 3d d3 e6 2a be 5f dd 84 3e d5 ce c3 3d
       0.11219269 -0.16689615 0.25950143 0.095609345
0002b0 3e 09 66 3e 85 7b 16 be a3 75 91 bc d6 88 fd be
       0.22464463 -0.14695556 -0.017756289 -0.4951846
0002c0 50 5f 9f 3e 86 4d 7d 3e 5b 91 37 3d 90 8a 24 3e
       0.31127405 0.24736604 0.044816356 0.16068482
0002d0 3d 8a 7c bc 81 4a 3a bc 9e ad 2b 3c 86 61 9e 3c
       -0.015413818 -0.011370302 0.010478405 0.019333612
0002e0 98 2c 28 3e 4a 3c 26 3e c5 1b 94 3e cc dd 25 bd
       0.16423261 0.16233936 0.28927436 -0.040494725
0002f0 89 bd 31 3e 81 fb 2c be c8 04 8b be 80 99 bd bd
       0.17357458 -0.16892816 -0.27152085 -0.092577934
000300 e1 0c 7d bd 02 ce 2b bf 33 36 9d bd ae aa 76 bf
       -0.06177986 -0.6711122 -0.07676353 -0.96354187
000310 c4 a6 cb 3d 10 98 36 3d 59 24 ff 3d cc 2c 46 3f
       0.099439174 0.04457861 0.12458105 0.77412105
000320 e6 65 bd 3b fc 1a d0 bd 18 af 58 3e bb 9b cf 3e
       0.0057799695 -0.10161397 0.21160543 0.405485
000330 e6 6e 81 3d d1 38 92 be 53 51 43 bc cd ab c5 bf
       0.0631998 -0.28558972 -0.011921245 -1.5443054
000340 8d ed d1 3e 66 c6 cc 3e 80 1b d5 bd 7b ab 0c 3f
       0.4100155 0.39995116 -0.10405636 0.5494916
000350 af f8 ef 3d 33 67 ca 3d 2f 3a 91 3c 8b 4c 06 be
       0.117173545 0.09882965 0.01772794 -0.13115136
000360 d8 06 b3 3e 3b 4f 16 3e 9c 75 5c 3e ce c6 9b bd
       0.3496616 0.14678662 0.2152924 -0.07606278
000370 5d 3a c6 3e f4 d8 50 be 2a aa 0c be 44 e0 58 bd
       0.38716403 -0.20395261 -0.13736787 -0.05294825
000380 dc 53 0f bd 03 15 eb bc 1b d2 6a bd ce 3a be bd
       -0.034992084 -0.028696543 -0.05732928 -0.0928856
000390 6e 16 97 3d 72 9f 76 bd c1 84 f3 bd bc 16 d6 3c
       0.07377325 -0.060210653 -0.11890555 0.026133887
0003a0 50 3f 1a be 60 87 1a bd 17 2a 8f 3d 19 6c 3d 3d
       -0.15063214 -0.03772676 0.0699045 0.046245668
0003b0 e9 19 03 3e ee cb 0e be 1e 6f 90 bc de 35 9c bd
       0.12802853 -0.1394498 -0.01763111 -0.07627462
0003c0 8a 7e ca bd c1 8b f2 bd d4 6b 36 3d 08 a1 4d 3c
       -0.09887417 -0.11843062 0.044536427 0.0125506
0003d0 9d 4b d5 bd b8 2f ff bd 08 24 24 be 16 19 1a 3e
       -0.10414813 -0.124602735 -0.1602937 0.15048632
0003e0 04 c7 4a bd ad 03 7f bd a4 f6 9d bd 51 14 b5 bd
       -0.049506202 -0.062259365 -0.077130586 -0.08841766
0003f0 ee f4 38 be cf 2f c9 bd 5c 0a b7 3d 44 b3 1e 3d
       -0.18062183 -0.09823572 0.08937523 0.03874518

Linear2.bias f4 [32]
000000 30 01 23 3e 6e fe 52 3e dc 13 81 3e d1 f7 2d 3d
       0.15918422 0.2060487 0.25210464 0.042472664
000010 a2 29 04 3c c4 f2 c6 3b 68 4a 63 be f4 21 4b 3c
       0.008066567 0.0060714204 -0.22196352 0.012398232
000020 9e 47 aa be 7a 2b 16 3e 29 77 52 3e ba 3f 37 3e
       -0.33257765 0.14665022 0.20553268 0.17895404
000030 84 6c 32 be dc 28 13 3e 17 6e e3 bd 5f f8 50 3c
       -0.17424208 0.14371055 -0.11104982 0.012754529
000040 f3 cc f8 bc 0d 16 9c bd 61 36 f0 3d cd 15 55 3e
       -0.030371165 -0.07621393 0.11729122 0.20809098
000050 ad b1 60 be a6 6f 11 3d 58 71 76 3e c0 86 03 bc
       -0.21942778 0.035506867 0.24066675 -0.008027732
000060 de 6f f6 3d 3a 20 c0 3c d1 5a 47 be 32 07 2b be
       0.12033056 0.023452867 -0.19468237 -0.16701964
000070 47 08 23 3d a1 2a 1d be e6 a3 3e be ab fd 89 bd
       0.039802816 -0.15348293 -0.1861721 -0.067378365

Linear3.weight f4 [32, 32]
000000 25 c7 02 be 0c f8 e9 bd 6c b7 dd bc 16 b3 ea bd
       -0.1277128 -0.11424264 -0.027065001 -0.11459939
000010 6b ca 1b 3e 4a 0d 8a bd ee 4d c9 bd 30 e6 40 bd
       0.15213935 -0.06740816 -0.09829317 -0.047094524
000020 42 4f 16 be 21 cc 96 3d e1 98 09 3e 45 32 e7 bd
       -0.14678672 0.07363153 0.13437225 -0.11288885
000030 f1 95 86 bd 79 7a 24 3e c6 f2 02 be 0d b2 a7 3c
       -0.06571568 0.16062345 -0.12787923 0.020470643
000040 1a ef 27 be e8 06 26 be de 0b cc bd ac 2d 2b be
       -0.16399804 -0.16213572 -0.09963201 -0.16716641
000050 8b 46 9b 3d f1 ea 8c bd 4d 17 4e bd 37 03 bd bd
       0.075818144 -0.06880749 -0.05031519 -0.09229129
000060 e3 ad 55 3d 76 e7 9c 3d 3c c8 9f bd 8b ea 03 be
       0.052167784 0.07661335 -0.078018636 -0.1288244
000070 ca a6 80 be dd fc 2a 3e 42 97 98 3d 69 b6 44 3d
       -0.2512725 0.16698022 0.07450725 0.048025522
000080 c3 79 2d 3e e6 b3 22 3e d1 e1 2f 3e 71 09 f7 3d
       0.1694098 0.15888938 0.17175986 0.12062348
000090 ed aa 95 3e 3a 0f 38 3e 54 a1 fe 3e 54 95 06 3e
       0.2923197 0.17974558 0.4973246 0.13142902
0000a0 61 1c b9 be 08 67 13 3d 52 12 cc 3d 86 50 97 3e
       -0.36154464 0.03598693 0.09964432 0.29553622
0000b0 fe 57 e5 3d eb b8 25 3e ac 2a 17 bd a3 c6 0a 3e
       0.11198424 0.16183822 -0.03690593 0.13552336
0000c0 61 33 cf be f9 04 67 3f e5 d2 0c be 07 00 22 3e
       -0.40468886 0.9024196 -0.13752325 0.15820323
0000d0 a5 ce 0e 3e e2 59 2b bd 8e e7 c3 3b 70 44 99 3c
       0.13946016 -0.041833766 0.005978531 0.018709391
0000e0 fd dd 0e 3d cc 0b 86 be 64 72 25 be ec b7 a9 be
       0.034879673 -0.26180875 -0.16156918 -0.33148134
0000f0 f0 9c 91 bd b8 20 90 3e 7a 36 d5 3d 76 20 b5 3d
       -0.071100116 0.28149962 0.10410781 0.08844082
000100 59 39 07 3e f1 89 04 be c2 fe 9e 3d 99 98 e5 bd
       0.1320547 -0.12943245 0.07763435 -0.11210746
000110 ee e4 a4 3d 6d 2f b5 3d 4e 13 86 3f 9e 89 a5 3d
       0.080514774 0.088469364 1.0474641 0.08082889
000120 fb 20 9e 3d 76 95 1a bd 56 0e 35 bd 59 d2 01 3d
       0.07721134 -0.037740193 -0.044203125 0.031694744
000130 ad ba 89 bd 94 71 65 3d 15 ec 04 3e b1 84 16 3e
       -0.06725059 0.05601652 0.12980683 0.14699055
000140 e9 33 3a be f3 0e 5c 3f 1e f7 44 bf de 63 b4 bd
       -0.18183865 0.8596031 -0.7693957 -0.08808111
000150 04 2b c0 bd 7f c8 1d 3e b2 95 83 bd 44 89 9e bd
       -0.093832046 0.15408514 -0.064250365 -0.07741025
000160 9f 43 db 3b c7 d2 30 bf 9b 87 50 bd c8 31 d6 be
       0.0066914107 -0.6907162 -0.050910573 -0.41834855
000170 a2 0c b6 be a9 4e 13 3e 5a 38 f4 3d 3a 3d e4 3d
       -0.35556513 0.14385475 0.11924811 0.111444905
000180 a4 9a 88 3c 5e 1a 5c bc ae 61 89 3e 92 0c c5 3d
       0.0166753 -0.013434021 0.26832336 0.09621538
000190 ed 8f 98 3e 13 32 d7 3c 3c d1 dc 3e a4 d4 0e 3e
       0.29797307 0.026268994 0.43128383 0.13948303
0001a0 2c 8e fa bd 1a ed 12 3e 4c 68 80 3e 0f df 5c 3e
       -0.122341484 0.1434826 0.25079572 0.21569465
0001b0 e8 c2 4f 3d c6 f9 78 3e 7b 25 97 bd 22 d8 fa bc
       0.050722986 0.24314031 -0.07380196 -0.030620638
0001c0 3c bc 1b be 50 11 56 3f d7 b2 63 bd 2f 94 80 3e
       -0.15208524 0.83620167 -0.055590477 0.25113055
0001d0 2c 02 15 3d 2e a3 40 3e 42 74 33 3d 80 5b 52 bb
       0.036379024 0.18812248 0.043812044 -0.0032097995
0001e0 e3 4b 8e 3e 4a 5b 54 bd e6 dc 7a be 29 20 c6 be
       0.27792272 -0.051844873 -0.24498329 -0.3869641
0001f0 14 77 e4 bd cf ee 15 3e 68 52 bb 3d 90 03 ce bd
       -0.11155525 0.1464188 0.09146577 -0.10059273
000200 42 b9 18 3e 28 c4 bc 3d 45 53 36 3e e6 78 44 3d
       0.1491442 0.09217101 0.17805202 0.04796686
000210 3d f2 82 3e 2b 1a 49 3e 24 83 f8 3e b1 81 78 3d
       0.25575438 0.19638889 0.48537552 0.06067056
000220 6c 4e 44 be 61 b7 2f 3e 80 f5 63 3e 6c 78 63 3e
       -0.1917054 0.17159797 0.2226162 0.22213906
000230 56 0c ff 3d e6 93 6f 3e 80 e7 c8 3a 82 14 80 3e
       0.12453525 0.23396263 0.0015327781 0.25015646
000240 cd a6 11 bf 7e 21 44 3f 20 73 56 bd 08 9d 1b 3b
       -0.5689514 0.76613605 -0.052355886 0.002374472
000250 05 62 8e 3d e8 a3 29 3e 40 ab 1a 3e 8e d6 88 3d
       0.069522895 0.16566432 0.15104389 0.06681548
000260 40 e3 69 3e 96 17 24 be 13 3f 33 be 79 6f a1 be
       0.22840595 -0.16024622 -0.1750453 -0.3153036
000270 61 6a 11 3a af 14 d2 3e a2 81 54 bd 45 91 0c be
       0.0005547163 0.41031405 -0.05188144 -0.13727291
000280 3e 4d 99 3b 3c 95 a2 3c ac 05 aa bd 9f c1 95 bc
       0.0046783974 0.019846551 -0.08301863 -0.018280802
000290 fa dc 2b 3d 1f a0 22 3e da ef 94 3f 93 68 38 be
       0.041958787 0.15881394 1.1635697 -0.18008642
0002a0 e2 3a 39 be 2f 70 8f bc 5f d8 6b bd 4e fe 29 3e
       -0.18088868 -0.017509548 -0.057579394 0.16600916
0002b0 cc 36 2a bd b9 c2 77 3e 68 aa 18 be 71 76 44 be
       -0.041556165 0.24195375 -0.14908755 -0.19185807
0002c0 d6 e7 b4 be 06 fc 46 3f 9a 53 80 bf d3 6d 56 3b
       -0.35333127 0.7772831 -1.0025513 0.003271927
0002d0 33 bb 90 3c 41 e6 82 3e 83 a3 3e be 33 e4 0a 3e
       0.017667389 0.25566295 -0.18617062 0.13563614
0002e0 24 7e 65 3d 1f 63 39 bf 37 8a 56 be 1d c3 91 be
       0.0560285 -0.7241687 -0.20951162 -0.28469172
0002f0 c3 48 07 bf 7c b9 a3 3e 60 48 18 be c7 42 18 bd
       -0.528454 0.3197745 -0.14871359 -0.03717306
000300 2a e2 b1 bc bc 25 f2 bd f3 12 98 bd c8 2f 31 bc
       -0.021714289 -0.118236035 -0.07425489 -0.010814615
000310 73 e0 2b 3e ea 94 17 3e 7d 48 d9 3e e3 95 4f bd
       0.1678484 0.148029 0.42438117 -0.050680052
000320 2e 26 e8 be ac 3e b1 bc 0c 87 40 3e de 7c 65 3d
       -0.4534163 -0.02163633 0.18801516 0.056027286
000330 b6 64 18 be 44 a2 b3 3e 30 2e 30 3d 5c d7 3f 3d
       -0.14882168 0.35084736 0.043012798 0.046836242
000340 81 26 d7 be 46 aa 54 3f d8 3e ff be be 2a 18 3e
       -0.42021564 0.83072317 -0.49852633 0.14860055
000350 17 8b 7f 3e e9 c4 75 3d bf 38 d1 3d 4a be c7 3d
       0.24955402 0.06000224 0.102159016 0.09753092
000360 7c cb 73 3e c9 a0 b9 be a1 d0 8d be 7f 08 e1 be
       0.23808092 -0.36255482 -0.27698234 -0.43951795
000370 e1 b4 0f be 06 ed 83 3e 3d 87 2e 3e d3 0a 15 3e
       -0.14033844 0.25766772 0.17043777 0.1455491
000380 f3 6c ec 3d 70 9f 7d bb 29 84 9b bc 39 d5 be 3d
       0.11544218 -0.0038699768 -0.018983917 0.09318013
000390 60 7e c6 3d ec 05 2a bd 7c 21 37 bd c9 0f 4e 3d
       0.09692073 -0.041509554 -0.044709668 0.050308023
0003a0 31 d7 d5 bc 43 1c 15 be 37 8c d6 bd e8 b9 fa 3d
       -0.026103588 -0.14561562 -0.104759626 0.1224249
0003b0 c1 c0 16 3e 18 1b af bd c8 62 1b bd 4f bc df bd
       0.14721967 -0.085500896 -0.037936002 -0.10924589
0003c0 0d d8 9d bd 7d 02 25 3e ca ff 20 be 97 b3 83 3d
       -0.07707224 0.1611423 -0.15722576 0.064307384
0003d0 53 4b 32 be 78 b1 d3 bd 5a 44 6a bd 20 b1 48 3c
       -0.17411546 -0.10336584 -0.05719409 0.012249261
0003e0 c4 06 45 bd 42 16 bf bd 92 aa c1 bd e5 7d f6 bd
       -0.048102155 -0.09330417 -0.09456362 -0.12035731
0003f0 30 bf 0b be 0c 58 01 be b5 95 2d 3e 83 8e d4 bd
       -0.13647151 -0.12631243 0.1695164 -0.103787445

Linear3.bias f4 [32]
000000 17 fe c5 bd 13 26 44 3e bc 14 3e be 17 5a 93 3e
       -0.096676044 0.19155149 -0.18562597 0.2877967
000010 29 4e 06 3d e5 e8 74 be dc 7b 32 3d d0 0f b4 3d
       0.032789383 -0.23916967 0.043575153 0.087920785
000020 97 4d 11 3e 70 19 0e be 20 bb 64 bd b2 5b 87 bd
       0.14189754 -0.13876891 -0.05584252 -0.06609286
000030 74 f8 0c be 98 e9 06 be 03 ae 3d be 46 bd e4 bd
       -0.13766652 -0.13175046 -0.18523411 -0.111689135
000040 82 6f 21 be b1 56 2e be c8 bd 47 be e9 a1 4a be
       -0.15765193 -0.17025258 -0.1950599 -0.19788326
000050 9c 55 aa 3d f7 e9 1f bd 31 5d 52 3e 07 90 0f bd
       0.0831711 -0.039041486 0.20543362 -0.035049465
000060 fa 0b d9 bd e1 ea f5 be 88 46 0d be dc c9 aa 3d
       -0.105979875 -0.4803076 -0.13796437 0.08339283
000070 7b ba 8d 3e 79 55 dc bd f7 90 44 be 77 43 17 be
       0.27681336 -0.1075849 -0.19195925 -0.1477183

Linear_last.weight f4 [1, 32]
000000 60 2e c4 3d 3f 33 64 3e c7 67 81 3e d8 12 f7 3d
       0.09579158 0.22285174 0.25274488 0.12064141
000010 b4 79 89 3e 6b ec e1 3e cc c0 03 3e 92 45 d0 bd
       0.26850665 0.44125685 0.12866515 -0.101695195
000020 41 db a5 3d a1 01 24 3e 69 d7 db bd 4b 6e 4a 3e
       0.0809846 0.16016246 -0.107344456 0.19768636
000030 ed 6d 49 be e0 58 88 bb 90 23 8a 3f d3 fa e8 3a
       -0.1967084 -0.0041609854 1.0792103 0.0017774947
000040 c7 ac d5 3b 99 6d 8b be 3f 80 17 3d c0 95 a1 3d
       0.006520841 -0.27232054 0.03698754 0.07889891
000050 a1 99 78 3d fe cb 15 be b8 a7 62 3e 23 a7 22 be
       0.060693387 -0.14628598 0.22134292 -0.1588407
000060 c2 02 a1 bd f9 cf ed 40 2e 87 e0 bb cd 0e 01 3e
       -0.07861854 7.4316373 -0.006852052 0.12603302
000070 7c 93 43 3e 92 34 ea bd cc d6 0e be ab 73 7c be
       0.1909923 -0.11435808 -0.13949126 -0.24653499
