method_min_bellman_r/save/model/Phi_h_V_Model_32X32.pt (torch, 12103 bytes, 8 tensors)

Linear1.weight f4 [32, 2]
0	0x3d0aa05b	0.033844333
1	0xbf15200a	-0.5825201
2	0xbe96df42	-0.29467207
3	0x3ed5a244	0.4172536
4	0xbe85a07f	-0.2609901
5	0x3f33982f	0.7015409
6	0xbd026d1f	-0.031842347
7	0x3efea0ad	0.4973196
8	0x3d8aba07	0.06773763
9	0xbd657a1d	-0.05602466
10	0x3e81e23e	0.25367922
11	0xbeac46bc	-0.33647716
12	0x3c4a959b	0.01236477
13	0xbd40c5ad	-0.04706352
14	0x3c5fc0b8	0.013656788
15	0xbea8953c	-0.32926357
16	0x3d3efaab	0.046625774
17	0x3e719298	0.23591077
18	0x3ee3f4ff	0.44522855
19	0x3ef67e90	0.48143435
20	0xbe32e9ad	-0.17471953
21	0xbf0f85bb	-0.5606343
22	0xbd0ea87f	-0.03482866
23	0xbe99ff20	-0.30077457
24	0x3c9f8aca	0.01947536
25	0x3e873ddd	0.26414385
26	0x3e1739e9	0.14768185
27	0x3f00da2e	0.50332916
28	0xbef7bbd9	-0.48385504
29	0x3ef54f12	0.47911888
30	0x3cf0f5cb	0.029414078
31	0x3f363674	0.7117684
32	0x3c8ecc58	0.017431423
33	0xbf5e37da	-0.8680397
34	0xbf158205	-0.5840152
35	0xbf204f2c	-0.62620807
36	0x3e1be928	0.15225661
37	0x3d9d1b54	0.07671228
38	0x3df0b3ad	0.117530204
39	0xbf0a61df	-0.5405559
40	0x3f0b1323	0.54326075
41	0xbec34925	-0.38141742
42	0x3eff67ea	0.49883968
43	0xbe01c276	-0.12671837
44	0xbeabe511	-0.335732
45	0x3f6b438c	0.91899943
46	0xbd7abe38	-0.061216563
47	0x3edfaced	0.4368662
48	0xbcb1fa01	-0.021725656
49	0xbe834b96	-0.25643605
50	0xbede9644	-0.4347402
51	0xbe800a31	-0.25007775
52	0x3ab01d75	0.0013436513
53	0xbd81b1b2	-0.06332721
54	0x3f16b379	0.58867604
55	0x3f57ca02	0.84292614
56	0xbde569d7	-0.11201828
57	0xbf24d084	-0.6438067
58	0x3e034978	0.12820995
59	0x3ef77222	0.48329264
60	0xbf0f1fa3	-0.5590765
61	0x3f3a6f4d	0.7282608
62	0x3f17323a	0.59061015
63	0x3f382ff1	0.7194815

Linear1.bias f4 [32]
0	0xbee57614	-0.4481665
1	0x3ed0cea2	0.40782648
2	0x3c9b72d8	0.01897566
3	0x3f15bd4e	0.5849198
4	0xbf11338f	-0.567193
5	0xbefd7bcd	-0.49508515
6	0xbdcca3e3	-0.099921964
7	0xbe96a19f	-0.29420182
8	0x3e14a580	0.14516258
9	0x3e9c38dc	0.3051213
10	0x3c7dbdac	0.015487116
11	0xbe80779f	-0.25091264
12	0x3e726c52	0.23674133
13	0x3f0589fd	0.5216368
14	0xbf6ca2d0	-0.9243593
15	0x3f5a1a42	0.85196316
16	0xbf24d575	-0.6438821
17	0xbf0f677e	-0.5601729
18	0xbea69937	-0.3253877
19	0xbe7c427b	-0.24634735
20	0x3e3d4519	0.1848339
21	0xbf132367	-0.57475895
22	0x3d5a3a2b	0.05327813
23	0x3f0c55e8	0.5481858
24	0xbe89d90d	-0.2692341
25	0x3b46b020	0.003031738
26	0xbd993927	-0.07481604
27	0xbecbc27a	-0.3979681
28	0xbe09aea6	-0.1344553
29	0x3e38a2de	0.18030879
30	0x3dc8c058	0.09802312
31	0x3e3c493e	0.18387315

Linear2.weight f4 [32, 32]
0	0x3e918517	0.28421852
1	0xbe745a62	-0.23862603
2	0x3dc1e83b	0.094681226
3	0xbf7ac513	-0.9795696
4	0x3e44fdcf	0.19237445
5	0xbd98946d	-0.07450185
6	0x3dcc439a	0.099738315
7	0x3e9c917a	0.3057974
8	0xbcbedae9	-0.023297744
9	0xbec038e4	-0.37543404
10	0x3e92681d	0.28595057
11	0x3db70580	0.08936596
12	0x3e8a096e	0.2696032
13	0xbe54a301	-0.20765306
14	0x3e4ee3d2	0.20204094
15	0xbf74dfc5	-0.95653945
16	0x3f231f4b	0.63719624
17	0x3e122b27	0.14274274
18	0x3cbc227c	0.022965662
19	0x3e859a30	0.26094198
20	0x3dbd2705	0.09235958
21	0x3d1dfb12	0.038569517
22	0xbe5bba8c	-0.2145788
23	0xbe4d7667	-0.20064698
24	0xbd141950	-0.036156952
25	0x3de34df7	0.11098855
26	0x3e33f07d	0.17572208
27	0xbec63135	-0.38709417
28	0x3e7c833c	0.24659437
29	0xbe57e0ee	-0.21081898
30	0xbd58382b	-0.05278794
31	0xbea2bbc8	-0.3178389
32	0xbdb3cfcb	-0.08779868
33	0x3e049e3e	0.1295099
34	0xbe9d9623	-0.30778608
35	0x3e6f96ba	0.23397341
36	0x3dfc42e8	0.12317449
37	0xbe2255c3	-0.15853028
38	0x3e292ef3	0.16521816
39	0x3d65abde	0.05607211
40	0xbefc7f70	-0.49315977
41	0xbebc2718	-0.36748576
42	0xbdeab367	-0.114599995
43	0xbe4b938a	-0.198805
44	0xbe888d45	-0.2667028
45	0xbe502901	-0.20328142
46	0x3e06a661	0.13149406
47	0x3e0596f5	0.13045867
48	0x3e06e5fa	0.13173667
49	0xbe71d473	-0.23616199
50	0x3d1574a1	0.03648818
51	0x3ce4b2c7	0.027917279
52	0x3e049142	0.12946036
53	0xbe4a8f49	-0.19781221
54	0xbfab9d41	-1.3407365
55	0x3dff9b6c	0.12480816
56	0xbe1621d9	-0.1466135
57	0x3d1a528e	0.037676387
58	0xbd850c4a	-0.064964846
59	0xbee6d029	-0.4508069
60	0xbdef9a30	-0.11699331
61	0xbf0c9da6	-0.5492805
62	0xbee0a3e6	-0.43875045
63	0xbf0183af	-0.5059156
64	0xbe1b1fc7	-0.15148841
65	0xbe8feee0	-0.28111935
66	0xbe3033c8	-0.17207253
67	0x3d325fba	0.043548323
68	0xbd7a147d	-0.061054695
69	0xbeb0ffb7	-0.34570095
70	0xbdd3f6ce	-0.10349809
71	0x3d0adf31	0.03390426
72	0xbe51d377	-0.20490824
73	0xbdf76323	-0.12079456
74	0xbdf001d3	-0.11719098
75	0x3bce5803	0.006297113
76	0xbd91d329	-0.07120354
77	0x3e16af3f	0.14715289
78	0x3dce9745	0.10087446
79	0x3e00b68a	0.12569633
80	0x3e2c49fc	0.16825098
81	0xbe32d285	-0.1746312
82	0xbe419b64	-0.18906933
83	0x3e26e274	0.16297323
84	0xbd50e268	-0.050997168
85	0xbe15b231	-0.14618756
86	0xbe73cf9e	-0.23809668
87	0xbe520973	-0.20511417
88	0xbe438aaa	-0.19095865
89	0xbc2855e3	-0.010274383
90	0xbe3965c5	-0.18105228
91	0xbeffeda0	-0.4998598
92	0xbd36d7a5	-0.04463925
93	0xbd94777e	-0.07249354
94	0xbe39f8a2	-0.18161252
95	0xbd161f7e	-0.036651127
96	0x3e707a5c	0.23484176
97	0xbf08b280	-0.5339737
98	0xbd5cb886	-0.053886913
99	0xbf643981	-0.89150244
100	0x3de8260a	0.113353804
101	0x3e0ba821	0.13638355
102	0x3e40c972	0.18826845
103	0x3e1c868a	0.15285698
104	0xbd3ebdf7	-0.046567883
105	0xbe8693e7	-0.26284716
106	0x3e69ace8	0.22819865
107	0xbad4617b	-0.0016203368
108	0x3e29d2ff	0.16584395
109	0xbdf3cb42	-0.11904003
110	0xbe2a944c	-0.16658133
111	0xbf6d124b	-0.9260604
112	0x3ee765fe	0.45195
113	0x3e47a6ef	0.19497274
114	0x3cd17543	0.02556861
115	0x3e7779a1	0.24167491
116	0xbdd09ec4	-0.10186532
117	0xbcafd648	-0.021464482
118	0xbe15f535	-0.1464432
119	0x3d1116a2	0.035421975
120	0x3e284da2	0.16435865
121	0xbe04ef4d	-0.12981911
122	0xbd5e430e	-0.054263167
123	0x3d843815	0.06456009
124	0xbc1ab898	-0.009443425
125	0x3db33f23	0.08752277
126	0xbf1fa496	-0.62360513
127	0xbf2008f1	-0.62513644
128	0x3ee1de98	0.44115138
129	0xbf242579	-0.6411968
130	0xbe2475aa	-0.1606051
131	0xbf323231	-0.69607836
132	0x3e2e8846	0.17044172
133	0x3e914f3a	0.28380758
134	0x3c28f14b	0.010311435
135	0x3e225c0a	0.15855423
136	0x3e055d1f	0.13023804
137	0xbde16de7	-0.1100729
138	0x3d475fa2	0.048675187
139	0x3e21eed0	0.15813756
140	0xbd4bfc7d	-0.04980134
141	0xbc5b5659	-0.013387286
142	0x3de173e4	0.110084325
143	0xbf8ecbe8	-1.1155977
144	0x3eb3dea1	0.3513079
145	0x3e48fe1c	0.19628185
146	0x3d5928e4	0.053017512
147	0x3e6786b7	0.22609983
148	0xbc1e7b6e	-0.009672983
149	0x3d60944b	0.054828923
150	0xbecab7dc	-0.395934
151	0xbe5b17f8	-0.21395862
152	0xbcf5a5a3	-0.029986208
153	0x3e47b042	0.19500831
154	0x3e452044	0.1925059
155	0xbe83d28f	-0.2574658
156	0x3e392151	0.18079115
157	0xbd78f774	-0.060782865
158	0xbe5fcc05	-0.21855171
159	0xbed82d57	-0.42222092
160	0x3e729aca	0.2369186
161	0x3cdacb14	0.026708163
162	0xbda127c4	-0.07868913
163	0xbb819697	-0.0039547193
164	0x3e438c8e	0.19096586
165	0xbd5b7a9a	-0.05358372
166	0xbd86e89e	-0.06587337
167	0x3e88a1cd	0.26685944
168	0x3ddc0bb5	0.107444204
169	0xbe1dc8ca	-0.15408626
170	0x3e074de7	0.13213311
171	0xbe268776	-0.16262612
172	0x3eda503a	0.42639333
173	0x3ea5d18f	0.32386443
174	0xbdf979ff	-0.12181472
175	0xbe111d72	-0.14171389
176	0x3ef33367	0.47500154
177	0x3e06ce91	0.13164736
178	0x3c0bebc3	0.008540097
179	0x3c9feee3	0.01952309
180	0xbdc07c89	-0.09398753
181	0xbe551a7e	-0.20810887
182	0xbe0467c2	-0.12930205
183	0x3e4ffcc1	0.20311262
184	0xbe018252	-0.1264737
185	0x3d00faaa	0.031489052
186	0x3e5db275	0.21650107
187	0xbf1cee2e	-0.61300933
188	0x3c1c17e7	0.009527183
189	0x3d6617ab	0.056174915
190	0xbe90393d	-0.2816867
191	0x3df9269c	0.12165567
192	0xbd5c1b6e	-0.053737096
193	0xbdbeb190	-0.09311211
194	0xbcbbd33d	-0.022927875
195	0xbe543b6f	-0.20725797
196	0x3dcbe4ba	0.099557355
197	0x3dbbc010	0.091674924
198	0xbd003c8e	-0.03130775
199	0xbe4df2c2	-0.20112136
200	0xbee2df50	-0.44311
201	0xbd626fb0	-0.055282295
202	0xbe1014b2	-0.14070395
203	0xbe1dd546	-0.15413389
204	0xbe2a2185	-0.16614349
205	0xbdf7b5e1	-0.120952375
206	0x3d31bf40	0.04339528
207	0xbe09cc45	-0.13456829
208	0xbe0162b0	-0.12635303
209	0xbdcb3a49	-0.099232264
210	0xbdfea7a4	-0.12434319
211	0x3ddf9abc	0.10918185
212	0xbd1ff505	-0.03905203
213	0x3e202e3c	0.15642637
214	0xbd4f24f9	-0.05057237
215	0xbe1845d3	-0.14870386
216	0xbe2ccc66	-0.16874847
217	0xbd95efbb	-0.073211156
218	0x3dd9bf23	0.106321596
219	0xbe749056	-0.23883185
220	0xbde3cb1b	-0.11122724
221	0x3d6446dd	0.055731643
222	0x3d911201	0.07083512
223	0x3d05e98e	0.03269344
224	0xbecbf65b	-0.39836392
225	0x3e9e580a	0.30926543
226	0xbc619345	-0.013768022
227	0x3f3c43d3	0.7354099
228	0x3d313b98	0.043269724
229	0xbe015550	-0.126302
230	0xbdd67864	-0.104721814
231	0xbe6ef1b7	-0.23334394
232	0xbe2fb7c5	-0.17159946
233	0x3e1a4348	0.15064728
234	0xbb6e47de	-0.0036358754
235	0xbc158db5	-0.009128024
236	0x3d9dcafd	0.077047326
237	0x3ddd2ad1	0.10799182
238	0xbaff85e6	-0.0019494861
239	0x3f7fdda1	0.99947554
240	0xbf2ab2d7	-0.6667914
241	0xbe94eb3c	-0.2908572
242	0x3e741af6	0.2383841
243	0xbe1cd316	-0.15314898
244	0xbdb6f313	-0.089330815
245	0xbe081037	-0.13287435
246	0xbd9017ee	-0.07035814
247	0x3eca0f10	0.39464617
248	0xbd82c3ca	-0.06385
249	0xbca3567f	-0.019938705
250	0x3c739752	0.014867621
251	0xbc15af9d	-0.009136108
252	0xbea748da	-0.3267277
253	0xbcc771d7	-0.024346275
254	0x3e2e43bb	0.17018025
255	0x3d1f6580	0.038915157

Linear2.bias f4 [32]
0	0x3d2d6417	0.04233178
1	0x3de0a8cc	0.109696954
2	0xbbb89c41	-0.0056338613
3	0x3b3c985f	0.0028777344
4	0xbdb863fb	-0.09003445
5	0xbd2a799e	-0.04161989
6	0xbe44c2e2	-0.19214967
7	0x3e5be2c3	0.21473221
8	0xbd230bef	-0.039806303
9	0xbd725cc6	-0.059170507
10	0x3e40beed	0.18822832
11	0x3e8e607d	0.2780799
12	0xbe326c84	-0.17424208
13	0x3df10514	0.11768547
14	0xbde36e17	-0.11104982
15	0xbd10cad7	-0.035349693
16	0x3d2b00f0	0.04174894
17	0x3d9f6ea4	0.07784775
18	0x3e95750a	0.29190856
19	0x3e04e57d	0.12978168
20	0xbe5b84f9	-0.21437444
21	0xbca8775a	-0.020564724
22	0xbc1fcaf1	-0.009752975
23	0xbc0386c0	-0.008027732
24	0xbcd789e8	-0.026310876
25	0xbe054652	-0.13015106
26	0xbea4d583	-0.32194147
27	0xbddd1389	-0.10794742
28	0xbd23d0ed	-0.03999417
29	0xbe743a23	-0.23850302
30	0xbe27f3dd	-0.1640162
31	0xbd614c61	-0.05500448

Linear3.weight f4 [32, 32]
0	0x3d035eef	0.032072958
1	0xbdfc9c14	-0.12334457
2	0x3be0063b	0.00683668
3	0xbc337f15	-0.010955592
4	0x3e96d9e1	0.29463103
5	0xbd087d37	-0.03332254
6	0xbd8b419f	-0.067996256
7	0xbf2fed4d	-0.6872147
8	0xbebb6179	-0.36597803
9	0x3e0c76f5	0.13717254
10	0x3e784d6e	0.24248287
11	0xbdfa75c7	-0.122294955
12	0xbd8695f1	-0.06571568
13	0x3f198e3b	0.5998265
14	0xbe02f2c6	-0.12787923
15	0x3d9a83da	0.0754468
16	0x3e7dce34	0.24785691
17	0xbe201055	-0.1563123
18	0xbf4ab41d	-0.7918108
19	0xbe0355c3	-0.12825684
20	0x3eaf1536	0.3419587
21	0x3d7cee93	0.06175096
22	0x3bd762fe	0.00657308
23	0xbdbd0337	-0.09229129
24	0x3ebe14be	0.371252
25	0x3ee890cd	0.45422974
26	0xbc68ef20	-0.014217168
27	0xbdebea2b	-0.11519273
28	0xbe20d740	-0.15707111
29	0x3ee552cb	0.4478973
30	0x3d989742	0.07450725
31	0x3befbd9b	0.007316304
32	0x3a253b58	0.00063030934
33	0xbe9430fd	-0.28943625
34	0x3dc46f8b	0.09591588
35	0x3d97b9f6	0.07408516
36	0x3e303b72	0.17210177
37	0x3e002371	0.1251352
38	0x3ee84d50	0.45371485
39	0x3de0d50e	0.10978137
40	0x3d449a96	0.047998987
41	0x3b3da4e1	0.0028937387
42	0x3e26fdc1	0.16307737
43	0x3ec60335	0.38674322
44	0x3de557fe	0.11198424
45	0x3d090290	0.03344971
46	0xbd172aac	-0.03690593
47	0xbe99f810	-0.3007207
48	0x3dede130	0.11615217
49	0x3e377de6	0.1791912
50	0x3dee53ab	0.11637052
51	0x3dc25075	0.09488002
52	0x3de3be9c	0.1112034
53	0xbe18e3a4	-0.14930588
54	0x3d64ba43	0.055841696
55	0x3c994470	0.018709391
56	0xbd7ff4c2	-0.06248928
57	0xbd6b204e	-0.057403855
58	0x3d353d42	0.044247873
59	0x3eae3ed9	0.34032324
60	0xbdf8a6fe	-0.12141226
61	0x3daa5b71	0.08318222
62	0x3e065047	0.13116561
63	0x3f4caf50	0.79955006
64	0x3e93d843	0.28875932
65	0x3e8eaf9d	0.27868357
66	0x3e124944	0.14285761
67	0xbdb86e4f	-0.09005415
68	0x3dbf54be	0.09342335
69	0xbc983ce7	-0.018583728
70	0xbd8fa9cf	-0.0701481
71	0x3e12ff88	0.1435529
72	0x3e8151c0	0.25257683
73	0xbda560eb	-0.08075126
74	0x3b6ceded	0.0036152557
75	0x3ea11e40	0.3146839
76	0xbd89baad	-0.06725059
77	0x3eab17b2	0.33416516
78	0x3e04ec15	0.12980683
79	0x3e5335d8	0.20626009
80	0x3f0aa9a7	0.5416512
81	0xbdb726d4	-0.08942953
82	0x3dd4e6d3	0.10395589
83	0xbd60879c	-0.054816827
84	0x3e28ab6e	0.16471645
85	0x3cf52464	0.029924579
86	0x3bdb2d0a	0.0066887187
87	0xbd9e8944	-0.07741025
88	0x3e961742	0.2931462
89	0x3e1b9420	0.15193224
90	0x3c79b858	0.015241705
91	0xbdb65151	-0.089022286
92	0xbd33c7ce	-0.04389172
93	0x3df7dd99	0.12102813
94	0x3e198f52	0.14996079
95	0x3da8d94d	0.08244572
96	0x3e0cd559	0.1375326
97	0x3db07b03	0.086172126
98	0x3e5116fc	0.20418924
99	0x3e42561d	0.18978162
100	0x3eb1e4e0	0.3474493
101	0x3d9786bd	0.07398746
102	0x3d66743e	0.0562632
103	0xbe6211d1	-0.22077109
104	0xbdd7b5c7	-0.10532718
105	0x3db2db99	0.08733291
106	0x3eb8abd8	0.36068606
107	0x3dde44b1	0.108529456
108	0x3d4fc2e8	0.050722986
109	0x3f18a84a	0.5963179
110	0xbd97257b	-0.07380196
111	0xbd657ca4	-0.05602707
112	0x3f3b05a6	0.73055494
113	0xbcd355c4	-0.025797732
114	0xbe87cb03	-0.26522073
115	0x3ea03665	0.312915
116	0x3e802feb	0.25036559
117	0x3e5ecdb6	0.2175816
118	0x3c3db632	0.011579083
119	0xbb525b80	-0.0032097995
120	0x3f0885c1	0.5332909
121	0x3ef6a22b	0.481706
122	0xbdb46b6a	-0.0880955
123	0x3d0751b3	0.0330369
124	0xbdc102e2	-0.09424378
125	0x3e5f50a4	0.21808106
126	0x3de83ef6	0.11340134
127	0xbbcd63a4	-0.0062679816
128	0xbcf4a226	-0.029862475
129	0xbd93767c	-0.072003335
130	0xb992a4b5	-0.00027970006
131	0xbd4128d1	-0.047158066
132	0x3d591d9d	0.053006757
133	0xbd1d7113	-0.038437914
134	0x3dc3e6ae	0.09565483
135	0xbdb589b3	-0.08864155
136	0xbd6dcb94	-0.058055475
137	0x3b1b5575	0.002370206
138	0x3d447d05	0.04797079
139	0xbd5c301e	-0.053756826
140	0x3dff0c56	0.12453525
141	0xbd15af48	-0.036544114
142	0x3ac8e780	0.0015327781
143	0x3dba0c4f	0.09084379
144	0xbe39cffb	-0.18145745
145	0x3c6ce0bc	0.014457878
146	0x3d29c5fc	0.04144858
147	0xbe0658a1	-0.13119747
148	0xbd7d03bc	-0.06177114
149	0xbc8e42ea	-0.017365891
150	0x3c60b56b	0.013715128
151	0x3d88d68e	0.06681548
152	0x3c3ba237	0.011452249
153	0x3cf15b70	0.029462546
154	0xbe012775	-0.12612708
155	0x3b6cf806	0.0036158576
156	0xbd65978e	-0.056052737
157	0x3dbb0b4a	0.091330126
158	0xbd5481a2	-0.05188144
159	0xbe66de79	-0.22545804
160	0x3e46d35a	0.19416562
161	0x3ed5c966	0.41755217
162	0x3d959a80	0.07304859
163	0x3d8598d4	0.0652329
164	0x3dffcbd1	0.12490047
165	0x3e4eedce	0.20207903
166	0xbc95bb77	-0.018277867
167	0xbe3921e4	-0.18079334
168	0xbc146da1	-0.009059341
169	0x3d2f3058	0.042770714
170	0x3db943c7	0.090461306
171	0x3eef3d07	0.46726248
172	0xbd2a36cc	-0.041556165
173	0x3f14b474	0.5808785
174	0xbe18aa68	-0.14908755
175	0xbed6b8e0	-0.41937923
176	0x3ed17e2b	0.4091657
177	0xbdd15e94	-0.102231175
178	0xbdc7b9c2	-0.09752227
179	0x3d8b4e0b	0.06801995
180	0x3dd97f01	0.10619927
181	0x3e6f7df7	0.23387896
182	0xbd2a169d	-0.041525472
183	0x3e0ae433	0.13563614
184	0x3ebb6836	0.36602944
185	0x3e839ca1	0.25705436
186	0xbe00b77d	-0.12569995
187	0x3e021d0c	0.12706393
188	0xbdb26f73	-0.087126635
189	0x3ed298ad	0.41132107
190	0xbe184860	-0.14871359
191	0x3de2361a	0.11045475
192	0x3de5c79d	0.11219714
193	0x3bc710a0	0.00607498
194	0xbcc19b79	-0.023633705
195	0x3d95db22	0.07317187
196	0x3e42d97a	0.19028273
197	0x3e590370	0.21192718
198	0x3d86a3db	0.06574222
199	0xbe866eef	-0.2625651
200	0xbcf5bf14	-0.02999834
201	0x3cd2e83c	0.025745504
202	0x3ebe17cf	0.3712754
203	0x3e51359d	0.20430608
204	0xbe1864b6	-0.14882168
205	0x3f2a13f7	0.66436714
206	0x3d302e30	0.043012798
207	0x3e18a73a	0.14907542
208	0x3eff5051	0.49865964
209	0x3de6a1a7	0.112613015
210	0xbea600ac	-0.32422388
211	0x3e7d1994	0.24716789
212	0x3ee64ea8	0.44981885
213	0x3d9791b8	0.074008405
214	0x3e2c0cfc	0.16801828
215	0x3dc7be4a	0.09753092
216	0x3f003ead	0.50095636
217	0x3e9979fa	0.29975873
218	0xbddc7a38	-0.10765499
219	0x3d28c438	0.041202754
220	0xbdc4ca5c	-0.096089095
221	0x3ea4775e	0.3212232
222	0x3e2e873d	0.17043777
223	0x3e8c0949	0.27350834
224	0x3ea3f551	0.320231
225	0x3dacc2e0	0.08435607
226	0x3d4decee	0.050274782
227	0x3d66d54a	0.056355752
228	0x3da06475	0.07831661
229	0x3d3eaf97	0.046554174
230	0xbd79967f	-0.06093454
231	0xbe67b30d	-0.22626896
232	0xbd355a7f	-0.044275757
233	0xbd7c9c3b	-0.06167243
234	0x3d9b5b0b	0.075857244
235	0x3e34b6ac	0.17647809
236	0x3e16c0c1	0.14721967
237	0x3e21ba70	0.15793777
238	0xbd1b62c8	-0.037936002
239	0xbd46defd	-0.048552502
240	0x3e508f7c	0.20367235
241	0x3e232dd7	0.15935455
242	0xbf169e5e	-0.588354
243	0x3e0c9a44	0.13730723
244	0x3c234644	0.009965483
245	0xbd441c9f	-0.047878858
246	0x3cd9ea3f	0.026600955
247	0x3c48b120	0.012249261
248	0x3defc747	0.11707931
249	0x3dac199c	0.08403322
250	0xbb9db3ab	-0.004812678
251	0xbda75fe3	-0.08172586
252	0xbe08d78f	-0.13363479
253	0x3be5dbf5	0.0070147463
254	0x3e2d95b5	0.1695164
255	0xbdc52e23	-0.096279405

Linear3.bias f4 [32]
0	0xbd53b401	-0.051685337
1	0x3eb8fc20	0.36129856
2	0x3eafcd9e	0.3433656
3	0x3efe69ba	0.49690038
4	0xbe4825b7	-0.19545637
5	0x3ef9f29f	0.48817918
6	0x3f074cde	0.52851665
7	0x3e54a6d1	0.2076676
8	0x3e74c759	0.2390417
9	0x3f0b892e	0.54506195
10	0xbd790579	-0.060796235
11	0xbd3a9f50	-0.04556209
12	0xbdc04e3d	-0.09389923
13	0xbed47a6e	-0.41499656
14	0x3eed269c	0.4631852
15	0x3e3f2416	0.1866611
16	0xbe097ace	-0.13425753
17	0xbe27b0cd	-0.16376038
18	0xbe0912c0	-0.13386059
19	0xbe144cdc	-0.14482445
20	0x3e70c838	0.23513877
21	0x3d868859	0.06568975
22	0x3dd769aa	0.10518201
23	0x3e55497d	0.20828815
24	0xbd94e9a1	-0.07271124
25	0xbe2001d7	-0.15625702
26	0x3e402028	0.18762267
27	0x3e04c90f	0.12967323
28	0x3ed5be90	0.4174695
29	0xbdc45b56	-0.095877334
30	0xbe5a272f	-0.2130401
31	0xbe48c8ac	-0.196078

Linear_last.weight f4 [3, 32]
0	0x3f3501a7	0.70705646
1	0x3eb7ea64	0.35921013
2	0x3ec6af2a	0.38805515
3	0x3fb466ab	1.4093832
4	0x3da9f87a	0.08299346
5	0x3fbfcb57	1.4983929
6	0x3fba8956	1.4573162
7	0x3f45fb4f	0.7733659
8	0x3f86f4b6	1.054343
9	0x400199f8	2.0250225
10	0x3c8db903	0.017300135
11	0x3f351454	0.70734143
12	0xbe0594a6	-0.13044986
13	0xbeb2e716	-0.3494193
14	0x3fcb5c00	1.5887451
15	0x3f920774	1.1408525
16	0x3dcb2bb2	0.099204436
17	0xbdc91dd9	-0.09820146
18	0x3f26d29b	0.6516511
19	0x3f69edbb	0.9137837
20	0x3cb2fa41	0.021847846
21	0xbe26d17c	-0.1629085
22	0x3f066e54	0.525121
23	0xbdf3b4fb	-0.11899754
24	0xbdc0f962	-0.09422566
25	0x3e2653be	0.16242883
26	0xbe38e85f	-0.18057393
27	0xbeeb6bcb	-0.45980677
28	0x3ec085c6	0.3760206
29	0xbdeba564	-0.11506155
30	0xbddb73d8	-0.10715455
31	0x3ee7b1fb	0.45252976
32	0x3d629f9c	0.055327997
33	0x3e2ac1d9	0.1667551
34	0xbc20c700	-0.00981307
35	0xbd5843b8	-0.052798957
36	0xbd504e74	-0.05085607
37	0xbdfc2298	-0.12311286
38	0x3e34e6c9	0.17666163
39	0xbafb4c00	-0.001917243
40	0xbe0f3fb8	-0.1398915
41	0xbdf75544	-0.1207681
42	0x3de13ba2	0.10997702
43	0x3daf1c7a	0.08550353
44	0x3de99142	0.11404659
45	0xbc98ab60	-0.018636405
46	0xbd0f100c	-0.034927413
47	0x3d6d3dd8	0.057920307
48	0xbae2dd00	-0.0017308295
49	0xbd691ae8	-0.056910425
50	0x3d2cacb8	0.042156905
51	0xbdce54a8	-0.10074741
52	0xbdfaac32	-0.12239875
53	0xbd200ebc	-0.03907655
54	0xbe010a7a	-0.12601653
55	0x3b9312c0	0.004488319
56	0x3ce3e7c8	0.027820483
57	0x3e313f63	0.17309336
58	0x3d50ada8	0.05094686
59	0xba879a00	-0.0010345578
60	0xbe038f98	-0.12847745
61	0xbd91854d	-0.07105503
62	0xbcec1518	-0.028818652
63	0xbe0257ae	-0.1272876
64	0xbe9e208a	-0.308842
65	0xbb4ee140	-0.0031567365
66	0xbe140e80	-0.14458656
67	0xbee90f4b	-0.4551948
68	0xbd1652ff	-0.036700245
69	0xbe3000d2	-0.17187813
70	0xbebfaa52	-0.37434632
71	0xbe8a135b	-0.26967892
72	0xbe8e2091	-0.2775922
73	0xbe84135f	-0.2579603
74	0xbc4a7a6a	-0.012358287
75	0xbf0d0884	-0.5509112
76	0xbddfad3e	-0.10921715
77	0xbe58679e	-0.21133277
78	0xbefcbe05	-0.49363723
79	0xbe8074d1	-0.25089124
80	0x3e10050d	0.14064427
81	0xbd59cab7	-0.05317184
82	0xbf0d0517	-0.5508589
83	0xbe9c4584	-0.30521786
84	0x3ec8f088	0.3924601
85	0x3d3b2983	0.045693886
86	0xbec3bfe6	-0.38232344
87	0x3ee36154	0.44410193
88	0xbd4825ec	-0.04886429
89	0x3da35059	0.079743095
90	0x3e8e1d16	0.27756566
91	0xbeeb8d02	-0.46006018
92	0xbba763e5	-0.005108344
93	0xbd146348	-0.036227494
94	0x3ddf05c5	0.10889772
95	0x3bd5a4c2	0.006519885

Linear_last.bias f4 [3]
0	0x3ede2b42	0.43392378
1	0x3da3966a	0.079876736
2	0xbe6bbdaf	-0.23021577
