method_min_bellman_r/save/model/Phi_h_V_Model_8X8.pt (torch, 3507 bytes, 8 tensors)

Linear1.weight f4 [8, 2]
000000 14 6f 8d bd 37 81 b8 3d 23 6d e5 3b d9 71 41 3f
       -0.06905952 0.09009021 0.0070015355 0.7556434
000010 5c 55 ae bd 4a 5d de 3e 87 91 9d 3d 38 fc b9 3e
       -0.08512375 0.4343055 0.07693773 0.3632524
000020 e7 75 62 3d 1e 97 55 3d ae 3c 46 bb c3 45 64 be
       0.05528822 0.05214607 -0.003024857 -0.22292237
000030 06 ae 6f 3c 9f 07 4c bf e1 27 a2 bc 28 ca 02 bd
       0.014628893 -0.7969913 -0.019794406 -0.031931072

Linear1.bias f4 [8]
000000 74 2f 95 bd fa 23 4e 3f 7a a2 62 3f 5d f1 02 3f
       -0.072844416 0.80523646 0.8852917 0.5114954
000010 24 e8 b9 be 13 92 84 be a4 b7 ac bd 36 69 ac be
       -0.36309922 -0.25892696 -0.08433464 -0.3367402

Linear2.weight f4 [8, 8]
000000 7f 58 18 3e 65 ff 25 c0 60 b0 b1 3e a6 80 ce 3e
       0.14877509 -2.593713 0.34704876 0.40332526
000010 f0 dd 5d be cf 05 eb 3e 10 95 13 3f f0 a0 a5 3e
       -0.21666694 0.4590287 0.57649326 0.32349348
000020 0f 29 c6 3e 16 64 29 c0 cc 60 7d be 62 85 ad 3c
       0.387032 -2.6467338 -0.24743956 0.021181766
000030 db 74 e1 3e 45 61 a3 3d fa 10 f1 3e 56 3e 28 be
       0.44034466 0.07977537 0.47083265 -0.1643003
000040 27 a6 56 3d fd a4 65 bf 5b 15 66 3e 9f 03 96 3e
       0.05240455 -0.8970488 0.22469084 0.29299638
000050 ee e0 13 be a6 d2 f1 3d 6d 47 51 bd cc 0b d1 3d
       -0.14441273 0.11807756 -0.051093508 0.10207328
000060 2d 82 f4 bd 80 c4 1e bd a3 07 ae be 09 9d 2c be
       -0.119388916 -0.038761616 -0.339902 -0.16856779
000070 a5 d8 34 3e 94 5a e1 bd c2 2d ab 3e 5f 1a 91 3e
       0.17660768 -0.110036045 0.33433348 0.28340432
000080 b5 f2 12 3e d9 a8 3d c0 fc 04 77 3e 8f de 9b 3e
       0.14350398 -2.9634306 0.24122995 0.30443236
000090 2b 7e e9 bd d1 ab 17 3f 99 3d 11 3f c1 1d 9d 3e
       -0.11401018 0.59246546 0.56734616 0.30686763
0000a0 5d 06 48 3d 4b 43 e3 bf 7c b4 47 3e 2b b0 e2 3e
       0.048834193 -1.7754911 0.19502443 0.4427503
0000b0 06 eb ca bd 0f 82 31 3e 9d b6 20 3f b6 cb b9 bd
       -0.099081084 0.1733477 0.62778646 -0.09072058
0000c0 94 18 84 3e bb 4a 3f 40 df 73 d7 3e 95 85 db 3e
       0.25800002 2.9889362 0.4208059 0.42875353
0000d0 99 2b 00 3e eb da bb 3e 61 b0 20 bf 4a 98 3e 3e
       0.12516631 0.3669046 -0.6276913 0.18612781
0000e0 cc 8e 7e be aa 94 88 be 20 23 b0 3c a8 c6 76 bd
       -0.2485916 -0.26675922 0.021501124 -0.060248047
0000f0 4e a2 54 3e 64 ab 51 be 44 ec a0 be 7f bd 83 3e
       0.2076504 -0.20475537 -0.31430256 0.25730512

Linear2.bias f4 [8]
000000 cd 6d c7 3d 2b 7b 4f 3e aa 74 5c 3e b8 06 90 be
       0.0973774 0.20261829 0.21528879 -0.28130126
000010 78 6e ff 3d c7 a7 8d 3e 53 80 33 3e fe c6 2b be
       0.12472242 0.27667066 0.1752942 -0.16775128

Linear3.weight f4 [8, 8]
000000 a9 aa 9e 3e ba 2c 8e be 61 82 a0 3d 92 30 db bd
       0.30989578 -0.277685 0.07837368 -0.107026234
000010 f5 6a fd 3e 96 7c 2b 3e e0 f0 f6 3e 8e c3 1c 3e
       0.49495664 0.16746745 0.48230648 0.15308973
000020 41 d8 f9 be d7 11 10 bf 93 19 51 3e 60 3c 97 3c
       -0.487978 -0.5627722 0.20419912 0.018461406
000030 63 33 7b 3c 15 55 2f be a5 df 7c 3f c5 36 87 3e
       0.015332076 -0.171223 0.98778754 0.26408973
000040 e6 9a 2c 3f bb 91 c4 3e 2f 49 24 bd 45 16 87 3e
       0.67423856 0.38392434 -0.040108856 0.26384178
000050 02 8c 1d 3f c4 72 04 3f bf 8c ec bf 50 5a 82 be
       0.6154176 0.5173762 -1.8480452 -0.25459528
000060 6d 29 2b 3e 4a ec 0b 3f db ab a1 3e 1c 39 57 be
       0.16715021 0.54657423 0.31576428 -0.21017879
000070 f0 d1 0c 3f d1 f9 2f 3e a7 dd 0a c0 28 e5 99 bd
       0.5500784 0.17185141 -2.1697786 -0.07514411
000080 fd c6 41 3f d2 43 79 3f 70 95 9b 3d 0c 0d b9 3d
       0.7569426 0.9736911 0.07596862 0.090356916
000090 14 0d 68 3f 64 8a 47 3f c4 70 80 bf 63 a3 80 3e
       0.90644956 0.7794554 -1.0034413 0.25124654
0000a0 56 c1 20 3f 9b d9 2e 3f db aa 4f be 9f 1c 91 be
       0.6279501 0.6830079 -0.2028002 -0.2834215
0000b0 3a 41 8d 3e 15 da bf 3e 19 86 09 c0 04 74 04 3e
       0.27588826 0.3747107 -2.1488097 0.12934881
0000c0 60 71 47 3f 0d fb 13 3f fc 94 9d 3f 60 65 01 3e
       0.7790737 0.5780495 1.2311091 0.12636328
0000d0 13 2d 5b 3f 9b 17 75 3f 2d 10 38 3e 4b dc b0 3e
       0.8561565 0.95739144 0.1797492 0.3454307
0000e0 1b 50 c2 3e f3 15 a3 3e b8 5d 60 3e 92 03 69 be
       0.3795174 0.31852683 0.21910751 -0.22755268
0000f0 87 0f 56 3e f2 21 76 3e dc 67 b2 3e 60 9d ec bd
       0.2090436 0.24036387 0.34844863 -0.115534544

Linear3.bias f4 [8]
000000 c9 57 79 be a3 1d 83 3e ad 6d d8 bc d8 5e 44 3d
       -0.24349894 0.2560855 -0.026419485 0.047942013
000010 dd c0 b5 bc b8 4b 7a bc 82 29 89 3f c6 3b 02 3f
       -0.022186691 -0.015276842 1.0715792 0.5087246

Linear_last.weight f4 [3, 8]
000000 28 e8 c7 bf 41 fe e3 be 76 9d 4d 3f a7 ce 4c 3f
       -1.5617723 -0.44529918 0.8031839 0.80002826
000010 56 0f a4 3f 7c 16 7a 3f 4c 37 fb 3f d7 79 28 3e
       1.281718 0.9769056 1.962625 0.16452728
000020 6e ed 76 3e 20 75 38 3c 8a 74 7a be e7 77 8d 3e
       0.2411401 0.0112583935 -0.24458519 0.2763054
000030 b4 10 b5 bd 30 27 ea bc ae f2 9b be a8 06 8f bd
       -0.088410765 -0.02858314 -0.30458587 -0.069836915
000040 f7 14 e0 be 34 99 6a 3f fd f9 d2 bf 40 66 b1 bf
       -0.43765995 0.9164002 -1.648254 -1.3859329
000050 21 53 54 bf de 87 dc bf c4 6f ec be d9 b8 17 bf
       -0.82939345 -1.7228963 -0.4617902 -0.5926643

Linear_last.bias f4 [3]
000000 c0 2d 9e 3f 40 0a a4 3c ca 78 4e be
       1.2357712 0.020024419 -0.20163265
