method_min_bellman_r/save/model/Phi_h_V_Model_16X16.pt (torch, 5447 bytes, 8 tensors)

Linear1.weight f4 [16, 2]
000000 bb 34 8c 3e 47 08 14 bf 5b bd d9 bc 88 34 a4 3f
       0.2738398 -0.5782513 -0.02657955 1.2828531
000010 33 ad 13 bf 1d 48 6a 3e 87 b9 b3 be e2 d3 e9 3e
       -0.57686156 0.22879072 -0.35102484 0.45669466
000020 c7 b3 5b 3d fa 12 93 3e 50 d3 74 3e 05 59 80 be
       0.053638246 0.28725415 0.23908734 -0.25067917
000030 cf 19 3b 3e 7f c4 ee be 90 2a 53 bd a0 5f 82 bd
       0.18271564 -0.4663429 -0.051554263 -0.06365895
000040 9c 43 16 be ba 5d 9d 3e a6 df a6 3e 66 99 51 3f
       -0.14674228 0.3073557 0.32592505 0.8187469
000050 fd e8 6c be 7b 5e 23 bf 37 27 16 be 82 b8 22 bf
       -0.23135753 -0.6381604 -0.14663397 -0.63562787
000060 dd 58 97 be be 2e ad be ac 51 bf 3d 04 a1 e8 3e
       -0.29559985 -0.33824724 0.093417495 0.45435345
000070 79 ed d7 be 24 c9 58 3f b5 30 85 3b dc 58 54 3f
       -0.42173365 0.84681916 0.004064644 0.8294809

Linear1.bias f4 [16]
000000 41 61 98 3e 46 ab d8 3d e9 94 62 bf 7d 53 cf 3e
       0.297617 0.10579543 -0.8850847 0.40493384
000010 87 a2 97 3e 8b 7b 80 be 3c a4 f9 3d 56 3e a8 be
       0.29616186 -0.25094256 0.12189528 -0.3286006
000020 df b4 30 3f 3e 71 37 3e 75 7f c1 3e fa a0 e5 bd
       0.6902599 0.17914292 0.37792554 -0.112123445
000030 e0 bc c1 be 02 f0 1f 3f 1a 93 26 be ba 33 59 3f
       -0.37839413 0.624756 -0.16267052 0.84844553

Linear2.weight f4 [16, 16]
000000 b2 50 13 3a 80 37 c6 be 17 a3 1e be 55 02 d4 be
       0.00056196295 -0.38714218 -0.15491901 -0.4140803
000010 6e 89 36 3f da 62 94 bc 80 3c a5 3e e6 34 4d 3e
       0.7130345 -0.018113542 0.3227272 0.2003971
000020 3f 98 01 3d c9 4e 21 be 99 3d 79 3e 48 63 87 3e
       0.031639334 -0.1575271 0.24339904 0.26442933
000030 af 4e ef 3d 50 ce 85 3d 34 0d 7c 3e 54 18 b9 bf
       0.116849296 0.065334916 0.24614412 -1.4460549
000040 ad e5 85 be ba c0 67 bf c1 71 a0 bd 69 1d 33 3e
       -0.2615179 -0.9052845 -0.07834197 0.17491688
000050 a5 35 8d bd 2b e7 7a be 39 f0 c5 bb a8 1e 70 bd
       -0.068949975 -0.24502246 -0.0060405997 -0.058622986
000060 71 40 75 3e 70 02 02 3e df 2a 0d bd 79 58 92 be
       0.23950364 0.12696242 -0.034464713 -0.28583124
000070 c1 90 86 be ef fc 1f 3f 3c 0b 42 be 28 0d 37 40
       -0.26282313 0.6249532 -0.18949598 2.860178
000080 e2 ff 33 be 80 27 41 be 80 18 79 3c 38 7f 2e bd
       -0.1757808 -0.18862724 0.015203595 -0.042601794
000090 de 5a 16 3e 3c 42 14 be 52 94 63 be 0e 4f 3a 3e
       0.146831 -0.14478391 -0.22224548 0.1819422
0000a0 30 d7 17 bd 32 fd 0f 3e a0 99 a4 3d d4 f7 3f be
       -0.037070453 0.1406143 0.08037114 -0.18746883
0000b0 48 b8 4d 3d 18 f6 75 3d 32 68 2b be 08 ee f2 bd
       0.050224572 0.060049146 -0.16738966 -0.11861807
0000c0 f9 ba e6 bb 4b 88 87 be 7a 67 2d be 53 f5 1e bf
       -0.007041332 -0.2647117 -0.16934004 -0.62093085
0000d0 bb be ca 3c d0 5d 74 bd 57 c1 60 3d 98 b2 dd 3d
       0.02474915 -0.05965978 0.054871883 0.1082508
0000e0 ca ab b2 be c7 d7 05 bf be 3a 10 3e 2f a9 c4 3c
       -0.3489669 -0.52282375 0.14084908 0.024006454
0000f0 43 1b a3 3e e0 8e 86 be d7 09 f8 3b 4a 00 a7 bf
       0.31856737 -0.2628088 0.0075695324 -1.3046963
000100 c4 2f d6 3e 72 17 b3 bd 28 96 00 3c f9 c9 e4 bc
       0.41833317 -0.08744706 0.0078483 -0.02792834
000110 05 77 3b 3f 5c 40 78 3e ef 67 84 bb c0 58 38 be
       0.73228484 0.24243301 -0.00404071 -0.18002605
000120 c3 04 bc bb 7d 50 db 3e 33 15 d9 3e 82 8e bd 3d
       -0.0057378723 0.42834845 0.42398986 0.09255697
000130 1e a7 e3 3e 78 a0 7c bd 93 08 a6 be c0 10 e7 bf
       0.44463438 -0.061676472 -0.32428417 -1.8051987
000140 bc 85 19 3d 67 b4 79 bf a6 68 81 3e 71 28 ad 3c
       0.037481055 -0.975409 0.25275153 0.021137448
000150 50 9f fb bb 82 b2 ae ba a2 e3 4d 3d 04 ec 35 3e
       -0.0076789036 -0.0013328346 0.050265916 0.17765814
000160 d8 d6 33 3e fd 8b a4 be e4 97 6b be 5c b1 c9 be
       0.17562425 -0.32138053 -0.2300716 -0.39393127
000170 19 21 c4 3c a3 e7 92 3d b3 67 9e be 31 a5 fc 3f
       0.023941563 0.071730874 -0.3093849 1.9737912
000180 06 c7 ef bd 30 9e 82 bf b8 1d eb 3d 0d a8 cc 3e
       -0.117078826 -1.0204525 0.11480278 0.39971963
000190 85 59 c1 3e c5 4c db bd 1c 7a 96 be 5a 1e 7a 3e
       0.3776361 -0.10708002 -0.29390037 0.2442564
0001a0 50 2a a5 3e b1 49 ae 3b 0d 61 41 be 91 c4 08 bf
       0.32258844 0.0053188433 -0.18884678 -0.53424937
0001b0 0f e2 a5 be a4 0a c3 3e 98 a3 54 3e 95 7c 1d 40
       -0.32399032 0.38094056 0.20765531 2.460729
0001c0 78 60 e5 bd 1c 43 cc be 9a 8e 8c 3d cc 41 e6 bd
       -0.112000406 -0.3989495 0.068631366 -0.112430185
0001d0 e9 b1 fc 3d b8 d3 4d 3e 2f 6a c6 bd 20 11 66 bd
       0.12338621 0.20100296 -0.09688222 -0.056168675
0001e0 c4 24 b5 bd 54 7c 14 3e 36 9f 99 bc 87 9f 04 3d
       -0.08844903 0.14500552 -0.018752676 0.0323787
0001f0 73 e2 4a 3e ce ce e5 3d cd 7a 74 3e 76 3f 91 3d
       0.19812946 0.112210855 0.2387497 0.07092182
000200 f4 22 0e 3e 60 6e 02 3c 3e 19 31 be 04 11 48 3e
       0.13880521 0.007960886 -0.17294785 0.19537741
000210 4c e1 bf bd af 7e 54 bd 79 fa 7c be f0 44 4a bd
       -0.09369144 -0.051878627 -0.24704923 -0.04938215
000220 ec 1d 25 be 32 c4 4a 3e 40 51 5d be 2e 8c 47 be
       -0.16124696 0.19801405 -0.21613026 -0.19487068
000230 c0 15 0b bc 0a da 2a be 18 33 b7 3d 79 eb 02 be
       -0.008489072 -0.16684738 0.08945292 -0.12785138
000240 d9 dd 9a bd 1e 1e 20 bf 58 ad 53 3e 9a 8e 0f bf
       -0.07561845 -0.62545955 0.20671594 -0.5607697
000250 dc 65 c9 3d 6f 83 67 3e 36 32 94 3e ac 2e 33 be
       0.09833881 0.22608732 0.28944558 -0.17498273
000260 90 c7 af 3c 72 cf 66 be c2 8e 7e 3e 98 4f 31 3d
       0.021457464 -0.22540072 0.24859145 0.043288797
000270 b9 7e d3 3e 95 e8 14 be 15 61 1e be c8 f4 e0 bf
       0.4130762 -0.14541848 -0.15466721 -1.7574701
000280 35 cb 60 3e c7 20 7f be b5 1e d8 3d ec 16 b2 be
       0.21952517 -0.24914847 0.10552732 -0.34783113
000290 90 4c 36 3e f5 79 a2 3e 2a 6d ca 3e 70 9c 53 3e
       0.17802644 0.3173367 0.3953641 0.20665145
0002a0 c6 3d a0 3e d6 c4 b7 3d 8e 32 ab 3d ff b7 f9 3e
       0.3129713 0.0897309 0.08359252 0.4877319
0002b0 47 be 1c 3e 5e 3e 7d 3e 9c d2 93 be fd ee fc bf
       0.1530696 0.24730822 -0.2887162 -1.9760433
0002c0 b2 ad 76 3e 0e db eb be 90 30 e0 3d 0b f7 a0 be
       0.24089697 -0.46065563 0.109467626 -0.3143848
0002d0 0d 7b 03 3e bb 04 d5 3e c5 a9 a8 3d 90 fa 46 be
       0.12839909 0.41605172 0.08235506 -0.1943152
0002e0 e0 40 55 3e 90 12 7b be 54 a1 29 3d 29 0c b8 3e
       0.20825529 -0.245188 0.04141362 0.35946777
0002f0 c7 3d 56 3e 37 d7 95 be 11 7e 0f 3e bd d7 ef bf
       0.20922004 -0.29265758 0.14012934 -1.8737713
000300 1f a0 aa 3d 2a 36 9d be 38 09 87 3d 12 ce 15 bf
       0.08331322 -0.30705386 0.06593555 -0.58517563
000310 c3 50 52 be d6 fb 54 3e d3 67 5a 3d 4a ee 34 be
       -0.2053862 0.20799193 0.05332167 -0.17669025
000320 4c 4d 3c bd 90 e9 9b 3d 64 7b e1 3e 07 ea 85 3e
       -0.045972154 0.07612908 0.44039452 0.2615511
000330 0c b9 a5 3e 56 aa b2 bd f2 6f 60 bd 91 03 0d c0
       0.32367742 -0.08723895 -0.05479426 -2.2033427
000340 3c 30 3a 3d 04 79 01 bf d5 ef ab be 68 bd d8 3e
       0.045456156 -0.5057528 -0.33581415 0.42332006
000350 45 9a f3 3d ee b4 21 3e 5a c2 7b be 9c 77 7a 3e
       0.11894659 0.15791675 -0.24585858 0.2445969
000360 53 79 b7 3c 2b dc 16 be 52 1f 7d 3c 7b 81 d3 be
       0.02239672 -0.14732425 0.015449362 -0.41309723
000370 47 ff 3c be 6d 35 d0 bc 6e c1 08 be df 34 09 40
       -0.18456756 -0.0254161 -0.13355038 2.143852
000380 5d 5c 14 3e 30 3e 39 be 70 27 34 be 8d 75 c6 be
       0.14488359 -0.18090129 -0.17593169 -0.3876156
000390 27 e1 a9 3e 4f 45 ab bd ea f9 ff bc a0 1f 24 3c
       0.3317959 -0.08362829 -0.031247098 0.010017306
0003a0 0b 68 50 3d d9 09 79 be 70 44 ab 3e da 04 88 3e
       0.050880473 -0.24320163 0.3345065 0.265662
0003b0 f5 26 13 3e c8 7a 2a be b3 b9 67 be fe 93 92 bf
       0.1437033 -0.166484 -0.22629432 -1.1451414
0003c0 d6 19 7a 3d e0 da 5f be 43 d5 f8 3d 9f 90 5b bf
       0.061059795 -0.21860838 0.121500514 -0.8576755
0003d0 f6 27 0c 3e ff 79 91 3e 25 54 05 3e 62 7b 11 be
       0.13687119 0.28413388 0.1302038 -0.14207223
0003e0 e6 b2 d6 bd 5f ed 72 be db 2a cd bc b1 e2 c5 3d
       -0.10483341 -0.23723362 -0.02504485 0.096623786
0003f0 b1 51 b6 3e 87 cd 90 be 7e 16 11 3e 0e 1b 01 c0
       0.356092 -0.28281805 0.14168736 -2.0172763

Linear2.bias f4 [16]
000000 a1 1c 95 bd 25 68 1d 3e c4 f2 69 be 5c ca 25 bc
       -0.07280851 0.15371759 -0.22846514 -0.010119047
000010 a8 fb ff 3d 10 c0 92 3e 05 bd f8 3e a3 a5 f9 bc
       0.124991715 0.28662157 0.4858171 -0.03047449
000020 40 8a 88 be 60 7d 36 be 1f e4 65 3e 51 17 be be
       -0.26667976 -0.17821264 0.22450303 -0.37127164
000030 08 71 1c bd af 9c 28 3e ca 56 1c 3e e0 94 41 3d
       -0.038193733 0.1646602 0.15267482 0.04726112

Linear3.weight f4 [16, 16]
000000 b1 30 04 3e 58 89 2e be f0 76 42 bd e3 6b 0e 3c
       0.129092 -0.1704458 -0.04747671 0.008692714
000010 39 51 85 3e bf 05 80 3e 99 8d ae be e2 40 eb 3e
       0.2603853 0.25004384 -0.34092405 0.4594794
000020 d8 e9 18 be c2 71 a4 3d 3a 8c ac 3e 0b e9 24 3f
       -0.14932954 0.0802951 0.33700734 0.64418095
000030 7d c9 3f 3f f2 e9 cc bd 76 bf 5a 3e 82 89 8a 3e
       0.7491682 -0.10005559 0.21362099 0.27058035
000040 62 2f 0f be 82 03 10 be c4 fd 80 3d 70 45 d6 3c
       -0.13982919 -0.14063838 0.06298402 0.026156157
000050 c0 ac 02 be ac 71 34 be 6c 1a 54 be 84 e5 7a 3e
       -0.12761211 -0.17621487 -0.20713204 0.24501616
000060 40 89 2e bd f0 c8 6c bd 88 45 bc bd de 0a 00 be
       -0.04261136 -0.057808816 -0.091929495 -0.12504146
000070 78 1d 6a be 80 49 16 be 78 79 1c 3e a0 6f 60 3d
       -0.22862804 -0.14676476 0.15280712 0.054793954
000080 dd 9e 07 be 7b 19 f4 bd 4e 89 23 3e 5f 60 39 3e
       -0.13244195 -0.119189225 0.15970346 0.18103169
000090 60 d5 3a 3e 3d 25 d7 3d 96 d1 ef 3d a6 73 36 be
       0.18245459 0.105051495 0.11709897 -0.17817554
0000a0 e4 05 0b be b9 b7 7c be 0e 5e bb 3d 46 53 ce bc
       -0.13576466 -0.2467946 0.09148799 -0.025186192
0000b0 77 e6 20 3e 7e 29 2f 3d 1d 6c 7f be 30 1b 02 be
       0.15712915 0.04276418 -0.24943586 -0.12705684
0000c0 c1 10 19 3e 38 99 81 3e a8 35 77 be 42 df 87 3d
       0.14947797 0.2531221 -0.24141562 0.0663438
0000d0 3f 0c 33 3d 73 c3 5f 3e 1e 65 bc 3e 35 09 00 3f
       0.04371285 0.21851902 0.36795896 0.5001405
0000e0 66 c1 f5 bd 76 f1 62 3e 93 82 35 3e ce ed fe 3e
       -0.119997784 0.22162423 0.17725591 0.49790806
0000f0 9f 62 c7 3e ec a3 01 be 8e 57 8c 3e bb 21 65 3e
       0.3894243 -0.12660187 0.2741055 0.22376148
000100 29 88 43 bd 28 ea 34 be 5c d6 b5 3d 72 89 8e 3d
       -0.047737274 -0.17667449 0.088787764 0.06959809
000110 48 25 6a 3d c5 16 a2 3d 15 b4 af be 1d 8d a5 3e
       0.05716446 0.07914499 -0.3431708 0.32334223
000120 3c d4 89 3d ba 85 3c bd 2a 83 ce 3e 3a 36 05 3f
       0.067299336 -0.04602597 0.40334445 0.5203587
000130 f1 5a 3d 3f 4f 05 e7 3d a8 5b c1 3e 9d 3f 08 3f
       0.7396689 0.112803094 0.3776524 0.53222066
000140 31 0b 23 be d5 4d 13 3e 00 cd d2 3a 48 ff 6d be
       -0.15922238 0.1438516 0.0016082823 -0.23241913
000150 f3 57 ac bd d8 cb 83 be 7a 21 25 be 0e 5c 35 be
       -0.084152125 -0.25741458 -0.16126052 -0.17710897
000160 74 17 2f 3e db 9e ac bd 92 84 99 bd fe 4d b4 3d
       0.1709879 -0.08428737 -0.07495989 0.08803938
000170 2b 50 8f 3d d6 78 49 be 82 44 77 3d c7 74 98 3d
       0.06997713 -0.19675002 0.06036807 0.074441485
000180 45 0d 7f bb a1 23 01 3f 68 c5 1b be 40 48 18 3e
       -0.0038917821 0.5044499 -0.15212023 0.14871311
000190 cd 41 13 be a7 c3 d7 3e a3 a4 d1 3e e4 18 08 3f
       -0.1438057 0.42141458 0.4094592 0.5316298
0001a0 73 1f 7a bc a4 fb 8d 3e 21 4c 37 bc 2b c4 20 bf
       -0.015266287 0.2773105 -0.011187584 -0.6279933
0001b0 a5 83 9d be 9f b1 0e 3e bc bb 9f 3d f5 c1 8e be
       -0.307645 0.13934945 0.07799479 -0.27882352
0001c0 55 23 c5 3d 9e 25 dc be f4 b3 b8 3d 3c 25 5a be
       0.0962588 -0.4299745 0.09018698 -0.21303266
0001d0 2f 84 4e 3e 77 9a 38 3d 0d f0 8d be cf 6f 1b 3e
       0.20167612 0.045069184 -0.27722207 0.1517937
0001e0 90 9a 49 be 91 61 98 3e 46 f8 0b be 25 f3 20 3f
       -0.19687867 0.29761937 -0.13668928 0.6287101
0001f0 7b e3 0c 3f dc 68 00 3e bd ec c0 bc ad d7 06 3f
       0.5503461 0.1254 -0.023550386 0.52672845
000200 b2 a9 a8 3d 6e e6 61 bf 78 89 ab 3d 4c be 1b 3e
       0.08235492 -0.8824223 0.083758295 0.15209311
000210 68 2a 01 3f 26 1b 58 3d fd 65 0b bf 6a d5 45 3e
       0.5045533 0.052760266 -0.54452497 0.19319692
000220 00 ef fd bd 66 b2 1d bd 5d 4a d8 3e 30 66 b9 3e
       -0.12399101 -0.038500212 0.42244235 0.36210775
000230 98 02 29 3f 76 21 c0 be cf 06 c1 3e 73 cb eb 3e
       0.6601958 -0.3752553 0.37700507 0.46053657
000240 cd e0 06 3e 3d cb 80 bf 22 42 36 be b7 ed 1d 3d
       0.13171692 -1.0062023 -0.17798665 0.03855678
000250 df 8c 8d 3e f9 14 26 bf a2 f3 ba bf 3f 8b 91 be
       0.2764654 -0.6487575 -1.4605601 -0.2842655
000260 2e fa 73 3e 4d 79 d4 3e 65 9f f6 3e 0f b6 54 3f
       0.23825905 0.41498795 0.48168483 0.830903
000270 0e 18 93 3e 70 fc 56 bf 80 c5 83 3e 1c 96 91 3e
       0.2872929 -0.8397894 0.25736618 0.28434837
000280 17 d7 12 3e 41 dd b3 bf 48 d5 22 3d 25 f5 6e 3d
       0.14339863 -1.4051896 0.039754182 0.058339257
000290 1c 63 af 3e 1d 36 e2 be 0d 44 dc bf f4 75 38 3e
       0.34255302 -0.4418191 -1.7208267 0.18013746
0002a0 d0 eb d6 3d 40 a2 41 3e 6b 0a 63 3e ae 87 f1 3e
       0.104941964 0.1890955 0.22171943 0.47173828
0002b0 e5 a3 18 3f 03 d6 84 bf cd 98 9b 3d 1c 9b f2 3e
       0.59625083 -1.0377811 0.07597504 0.47383964
0002c0 08 32 9d 3e 64 1c af bf 1a 07 2d be 4b 20 14 3e
       0.30702233 -1.3680539 -0.1689724 0.14465444
0002d0 77 2d b0 3c fc d8 cd be 70 f7 dc bf a5 1b 90 bd
       0.021506054 -0.40204608 -1.7263012 -0.07036523
0002e0 78 75 43 bd 4b eb 74 3c 2b 1c 00 3e 08 e7 c6 3e
       -0.04771945 0.014948676 0.12510745 0.38848138
0002f0 f2 cd 2a 3f 71 c6 5b bf 60 ff 15 bd 9d 46 f4 3e
       0.667205 -0.8584967 -0.036620498 0.47710124
000300 ca 69 3f be 90 32 33 3e 38 34 13 3e fc 92 7b be
       -0.18692699 0.17499757 0.14375389 -0.24567789
000310 3a f2 48 be e6 cc 28 be ae 94 0a be 90 b7 ff 3c
       -0.19623652 -0.16484413 -0.1353328 0.03121546
000320 b8 25 7d be 38 ca 3d be a0 d2 e9 3d b8 af a7 bd
       -0.2472142 -0.18534172 0.11417127 -0.081878126
000330 7c bc cb bd b4 c8 53 be fc 84 cf 3d 30 9f 90 3c
       -0.0994806 -0.20682031 0.10132787 0.017654032
000340 c3 a7 03 be fc 23 80 be c8 c6 59 3d 3b b3 37 3d
       -0.12856965 -0.25027454 0.05316809 0.044848662
000350 d9 34 84 3d 61 59 97 bc a7 5e db bd 7f 94 80 be
       0.064553924 -0.018475236 -0.10711413 -0.25113294
000360 c4 f8 22 3e df 5d 13 bd 84 a3 51 be 95 d9 42 3e
       0.15915209 -0.035978194 -0.20472533 0.19028313
000370 8f 20 d8 3d 56 72 92 be 58 8d 26 be f1 03 19 be
       0.10553085 -0.28602856 -0.16264856 -0.1494291
000380 ed 45 18 bf 21 63 59 3e 02 a1 36 be c3 19 94 3d
       -0.594817 0.21229221 -0.17834857 0.07231476
000390 70 cf 65 3e 72 0b 11 3c 00 ae 25 3e 04 a6 b2 bc
       0.22442412 0.008852826 0.16179657 -0.021807678
0003a0 d0 f3 2a 3e ec 1f 2b be c2 c7 c0 bf 87 9c 25 3c
       0.1669457 -0.16711396 -1.5060961 0.01010812
0003b0 9f 70 00 3e ca 42 87 3d 1b d7 2c be 11 30 3f be
       0.12542962 0.06604536 -0.16878931 -0.1867068
0003c0 bb 9a b7 3d 39 56 8d bf e8 82 6e bd e2 af b3 bd
       0.08965059 -1.1041938 -0.05823031 -0.08773781
0003d0 72 a8 bb 3e 16 fd 5c bd 06 2f af bf a7 db e5 bd
       0.3665195 -0.0539523 -1.3686225 -0.11223536
0003e0 88 d5 58 3d 46 d3 54 3e 25 70 f0 3e e5 c3 05 3f
       0.052938014 0.2078372 0.4696056 0.52252036
0003f0 5d e1 d1 3e ab 65 28 bf 7e 16 00 3e 76 8c d0 3e
       0.4099225 -0.65780133 0.1250858 0.40732163

Linear3.bias f4 [16]
000000 cf fa 16 3f 28 a7 65 bd 28 c2 71 3d b0 2c 0a 3f
       0.58976454 -0.056067616 0.059023052 0.5397444
000010 0d 81 14 3f ff 2c d2 3c d6 3d 1f 3e a4 11 d1 3e
       0.58009416 0.025656221 0.15550932 0.4083377
000020 cf 20 44 3e b8 d7 6f be e6 9c 70 be f6 fa 1b 3e
       0.1915314 -0.23422134 -0.23497352 0.15232453
000030 54 d7 e9 3d f6 8b 17 3e 4d 13 19 bf 94 60 8a 3e
       0.11418024 0.14799485 -0.59795076 0.27026808

Linear_last.weight f4 [3, 16]
000000 a4 0c 0b 40 f4 56 9e 3d 19 25 12 3e 07 c4 58 3f
       2.1726465 0.07731429 0.14271964 0.84674114
000010 fb 4e f0 3f 7d 14 84 bd e4 82 86 3e 34 cd 09 40
       1.8774103 -0.0644922 0.26271737 2.1531496
000020 03 c5 dd 3f 11 e2 57 3f 18 8b 82 3f f2 a9 6e 3f
       1.7325748 0.84329325 1.0198698 0.93228066
000030 7c 4c 08 be a7 7b 6a be da 86 ec bf 5a 79 9f 3f
       -0.13310426 -0.22898732 -1.8478653 1.2458909
000040 e8 26 15 be 44 4a d2 3d 40 5f 2e 3c f8 f2 5a bd
       -0.14565623 0.10268071 0.010642827 -0.05345437
000050 d8 37 8b bd 70 70 8e 3d 48 bf 61 3d 96 e7 2c 3e
       -0.06797761 0.069550395 0.05511406 0.16885218
000060 14 6e bb 3d 44 fd e8 3d 0a d5 61 3e e4 6d 9f 3d
       0.09151855 0.113764316 0.22053924 0.07784632
000070 50 01 18 3d a8 66 ba bd 68 bf 3b 3e c8 39 17 3d
       0.037110627 -0.091016114 0.18334734 0.03692034
000080 39 0b 5f be 9c 34 77 3e a0 54 09 3b 75 15 fd 3b
       -0.21781625 0.24141163 0.0020954981 0.007723505
000090 0c 85 a7 be 7c 82 46 3e bb 88 02 3f 75 e2 ac be
       -0.32718694 0.19385713 0.50989884 -0.33766523
0000a0 fa 5c e2 be 41 ec 47 bf 0e 52 3f bf a5 04 59 bf
       -0.4421156 -0.7809487 -0.7473458 -0.8477271
0000b0 00 67 df ba 10 5f 9f bd 4b 6d 5a bf 56 03 86 bf
       -0.0017044246 -0.077818036 -0.8532302 -1.0469768

Linear_last.bias f4 [3]
000000 4b 0f 66 3f 28 72 a3 bd 89 ac 6d bd
       0.89867085 -0.07980758 -0.05802587
