method_min_bellman_r/save/model/Phi_h_V_Model_64X64.pt (torch, 37703 bytes, 8 tensors)

Linear1.weight f4 [64, 2]
0.007574677 -0.07344873 -0.04143884 0.5526884 -0.5398423 0.77268744 0.0060256207 0.38805774
0.011326184 0.25379378 -0.012963393 0.3860199 0.096449085 0.0042441124 -0.009503605 0.3832265
-0.018010262 0.28955045 0.4041641 0.4521699 0.0055442452 -0.65459716 -0.0004985652 -0.6275853
0.06383048 0.7631938 0.46891892 0.530031 -0.21972284 1.0946525 0.27689654 0.55674124
0.18537419 -0.67507726 -0.36756828 -0.42649418 -0.005985242 0.3472797 0.010404182 -0.14784788
0.018707542 0.042011123 -0.032771036 0.38667098 -0.38370916 0.52626705 -0.050404824 0.47829407
-0.011397526 -0.12917624 -0.28124398 -0.24546675 0.34848046 -0.419269 0.5875317 0.78442097
0.0068523805 -0.6303077 0.1938957 0.8092041 -0.26636106 0.5530716 0.5020376 0.70851743
-0.26655614 -0.23092209 -0.01440008 0.27007893 -0.005453216 -0.22645856 -0.026045144 0.11887504
0.21262856 0.087807335 0.021557711 0.34317374 0.2479989 0.5128335 -0.31544805 0.90168875
-0.07783618 -0.7942643 0.043002248 -0.120496094 0.08886556 -0.52079463 -0.57049334 0.61609
0.004442554 0.40615693 0.08799557 -0.5510753 0.06304345 0.46585163 -0.0074735265 0.17787823
0.012992382 0.39641514 -0.0020604425 -0.16878305 0.35279733 0.023591893 0.04317528 0.49066204
-0.18914968 -0.72602963 0.15983501 0.8699714 0.33901918 0.46075842 0.290069 0.5639363
0.44075003 -0.64938986 0.019744039 0.7317813 0.44583032 0.81103814 -0.30618784 -0.6115059
-0.19734134 0.5123616 0.43093386 -0.5242004 0.1394153 -0.33421212 -0.22602157 0.05140859
00000000: ff34 f83b 4a6c 96bd c6bb 29bd fd7c 0d3f
00000010: 1b33 0abf d8ce 453f 9272 c53b 81af c63e
00000020: 7591 393c 42f1 813e 6964 54bc 66a4 c53e
00000030: 1987 c53d 3212 8b3b 02b5 1bbc 4436 c43e
00000040: 428a 93bc f53f 943e 99ee ce3e d082 e73e
00000050: 80ac b53b ae93 27bf 25b2 02ba 6ea9 20bf
00000060: 8eb9 823d ab60 433f 2416 f03e 1db0 073f
00000070: 06ff 60be 931d 8c3f 62c5 8d3e 9886 0e3f
00000080: bbd2 3d3e ddd1 2cbf e931 bcbe 725d dabe
00000090: d91f c4bb a5ce b13e 4d76 2a3c 6f65 17be
000000a0: 8f40 993c db13 2c3d ec3a 06bd bdf9 c53e
000000b0: 8775 c4be 70b9 063f 4a75 4ebd f6e2 f43e
000000c0: b0bc 3abc c746 04be 36ff 8fbe a35b 7bbe
000000d0: 086c b23e 6daa d6be 7a68 163f d0cf 483f
000000e0: ef89 e03b d85b 21bf 988c 463e 0028 4f3f
000000f0: 7a60 88be 1a96 0d3f 8985 003f 6661 353f
00000100: 0c7a 88be d776 6cbe 50ee 6bbc c947 8a3e
00000110: e4b0 b2bb c1e4 67be a05c d5bc c274 f33d
00000120: 4dbb 593e 55d4 b33d cc99 b03c 78b4 af3e
00000130: 6cf3 7d3e 0e49 033f 6882 a1be 13d5 663f
00000140: 9368 9fbd e854 4bbf 2023 303d a8c6 f6bd
00000150: 26ff b53d cc52 05bf da0b 12bf 13b8 1d3f
00000160: d892 913b cdf3 cf3e 0537 b43d 4513 0dbf
00000170: ed1c 813d 1b84 ee3e 7ce4 f4bb b625 363e
00000180: 00de 543c edf6 ca3e 7d08 07bb 77d5 2cbe
00000190: daa1 b43e c943 c13c 90d8 303d 0e38 fb3e
000001a0: 74b0 41be 14dd 39bf caab 233e 72b6 5e3f
000001b0: ec93 ad3e 87e8 eb3e ed83 943e 215e 103f
000001c0: fda9 e13e 6a3e 26bf 40be a13c 0556 3b3f
000001d0: df43 e43e 32a0 4f3f a7c4 9cbe a78b 1cbf
000001e0: d913 4abe 212a 033f 5da3 dc3e ff31 06bf
000001f0: e2c2 0e3e da1d abbe 3372 67be d091 523d

Linear1.bias f4 [64]
-0.100906275 0.7240294 -0.3743481 0.4187332 0.12776732 0.2177945 0.024844402 0.23809649
0.2525759 0.26145983 -0.53857297 -0.5281384 0.3571478 0.22659422 -0.48390627 0.6134698
-0.03639236 -0.3196571 0.10858196 -0.18110046 -0.16726089 0.3242936 -0.057639513 0.61968774
-0.19004686 -0.34031117 -0.70815873 -0.47498536 -0.51921 -0.25980327 0.6913089 -0.005422016
-0.71299005 0.25270727 -0.26717138 0.025755005 -0.58560914 0.34658712 -0.06471025 -0.014599588
-0.56500834 -0.32227165 -0.33999228 0.4285533 0.448344 -0.056391332 0.6285147 0.08266257
0.40447247 -0.20244396 -0.84280574 0.581902 -0.31291384 0.17949793 -0.77038395 0.12604184
-0.5436949 0.7898943 -0.5292059 -0.71648854 0.16385263 -0.53206766 -0.07167457 -0.68138856
00000000: f3a7 cebd fe59 393f 8eaa bfbe 3364 d63e
00000010: 70d5 023e 8505 5f3e 7d86 cb3c 91cf 733e
00000020: a151 813e 10de 853e ebdf 09bf 1434 07bf
00000030: 14dc b63e 5108 683e 90c2 f7be 5b0c 1d3f
00000040: 2810 15bd 18aa a3be 3860 de3d 6672 39be
00000050: 7046 2bbe d009 a63e 6917 6cbd dba3 1e3f
00000060: a59b 42be 443d aebe e449 35bf 4831 f3be
00000070: f2ea 04bf ef04 85be 9ff9 303f 2bab b1bb
00000080: 8486 36bf d962 813e b0ca 88be 29fc d23c
00000090: 7bea 15bf de73 b13e cf86 84bd 1c33 6fbc
000000a0: 63a4 10bf ca00 a5be 7813 aebe 576b db3e
000000b0: 588d e53e 99fa 66bd 57e6 203f fe4a a93d
000000c0: 0417 cf3e 784d 4fbe 1ec2 57bf 88f7 143f
000000d0: 3e36 a0be 4ece 373e e237 45bf 1d11 013e
000000e0: 972f 0bbf 8336 4a3f 0a7a 07bf cb6b 37bf
000000f0: fcc8 273e 9635 08bf 1eca 92bd 7b6f 2ebf

Linear2.weight f4 [64, 64]
-0.058421504 -0.05720543 -0.034193948 -0.16856802 -0.14162564 -0.10657475 0.094850756 -0.10943267
-0.08494218 -0.1993551 0.13063599 -0.026291309 -0.00060634484 -0.104307495 -0.075004004 -0.11679913
0.029354895 0.06783874 -0.12360019 0.02906575 -0.12524731 -0.039367452 0.063914105 0.062768914
0.09240283 -0.090196155 -0.014778569 -0.0037049914 -0.07860587 0.027697382 -0.12633698 -0.21245827
-0.04097877 -0.2305994 -0.025438659 0.074313104 0.049456406 0.023177704 -0.1360012 -0.14297308
0.09865234 -0.02662827 -0.037637107 -0.02336445 -0.17529908 0.08415699 0.021848563 -0.06410067
-0.1937314 -0.017587898 0.027689883 -0.088825144 -0.08470643 -0.017279098 -0.18146437 -0.21497735
-0.09782411 -0.12514511 -0.014299667 -0.0883631 -0.04616224 0.0377287 0.01733091 -0.14222667
0.06107629 0.041430708 -0.041653708 -0.08045643 0.091314726 0.10810611 -0.08649284 0.10556681
0.040170833 -0.10540277 0.064139746 -0.029805465 -0.014347212 -0.15790193 0.0070672818 -0.058300816
0.02250609 0.08374423 -0.058212873 -0.06260134 -0.11513031 0.0016144658 -0.14479715 -0.020254953
-0.048855286 0.022454845 0.15517114 -0.029223898 0.025518408 -0.11149968 -0.15131344 -0.003403816
-0.045280244 0.0113893105 -0.010638053 -0.08895832 0.068858825 0.03625923 -0.094895616 -0.099187
-0.062723584 0.0017213821 -0.07369715 -0.1117626 -0.15168424 -0.04881195 0.010092169 -0.050946422
-0.0243844 -0.07071421 -0.11316172 0.09229844 0.009385726 0.11333034 -0.06442405 -0.15862918
-0.11641312 -0.10101577 -0.04893049 -0.13766347 -0.045149956 0.07463033 0.064507835 0.018020967
-0.04937585 -0.05426288 -0.08168694 -0.0957077 0.019756328 -0.061223388 -0.09616116 0.010572092
-0.11204625 -0.07976983 0.028856104 0.015388124 0.10644097 -0.13043891 -0.05182259 -0.07247137
-0.08810722 -0.09414828 -0.0062045897 -0.011367975 -0.08933356 -0.11297759 -0.17093077 0.08159176
-0.0569107 -0.052864578 -0.045964748 -0.102161005 -0.11431402 -0.10914642 0.031604193 -0.020556945
-0.08048821 -0.09313291 0.05708055 0.059010167 0.12042929 -0.0065004155 0.015599268 -0.061623294
-0.107207924 -0.12246022 0.060579002 -0.06277495 0.0003248785 -0.012508163 -0.15808697 -0.08884204
-0.009310256 -0.056288578 -0.12070781 -0.0026070392 -0.01832534 -0.049012963 0.05049643 -0.019036556
-0.07775142 0.071844034 0.032703348 -0.019078063 -0.031791326 -0.1375658 0.073918365 -0.068223275
-0.046853866 -0.17785448 -0.13113835 -0.24102502 -0.072446465 -0.07116741 -0.024029424 0.061226152
-0.07962703 -0.38407964 0.47556558 0.412944 -0.1933104 -0.35284033 -0.050673507 -0.38703588
0.072820954 0.062654205 0.030498687 -0.045799624 -0.014764168 -0.17930904 -0.36609942 -0.24256504
0.07136328 -0.07996109 -0.32454976 -0.023624927 0.66609114 -0.16293162 -0.18781734 -0.2226439
-0.19583234 0.11891418 -0.08639592 -0.024179928 -0.20151967 -0.14730781 -0.32800734 -0.075277
0.16810992 0.06794296 0.15497269 -0.3817309 -0.3119144 0.0775259 -0.17331342 -0.14499375
-0.17402683 0.016568433 -0.20579964 -0.3739384 0.13734409 -0.13621499 0.06521782 -0.31950966
-0.10279599 -0.79542077 -0.17963204 0.15792924 -0.06519091 0.036846038 0.006378071 0.014471285
00000000: 634b 6fbd 3e50 6abd f40e 0cbd 189d 2cbe
00000010: 5006 11be dd43 dabd 1d41 c23d 3c1e e0bd
00000020: 2af6 adbd be23 4cbe 71c5 053e df60 d7bc
00000030: 1df3 1eba 2b9f d5bd b39b 99bd 6234 efbd
00000040: ad79 f03c 0aef 8a3d 1922 fdbd 4c1b ee3c
00000050: d540 00be c43f 21bd 66e5 823d fd8c 803d
00000060: b23d bd3d c3b8 b8bd d021 72bc 71cf 72bb
00000070: 1dfc a0bd 9fe5 e23c 7b5e 01be a98e 59be
00000080: 5bd9 27bd 4022 6cbe bc64 d0bc 7831 983d
00000090: cd92 4a3d 2bdf bd3c e643 0bbe 8967 12be
000000a0: 3d0a ca3d 8823 dabc 5e29 1abd ce66 bfbc
000000b0: 9a81 33be 805a ac3d c2fb b23c 3647 83bd
000000c0: 8661 46be 7f14 90bc e5d5 e23c f5e9 b5bd
000000d0: 917a adbd e58c 8dbc ccd1 39be 0623 5cbe
000000e0: 0258 c8bd 0a26 00be 2749 6abc b7f7 b4bd
000000f0: 9e14 3dbd 6989 1a3d 8df9 8d3c dea3 11be
00000100: 222b 7a3d 3fb3 293d 149d 2abd 57c6 a4bd
00000110: 3703 bb3d bc66 dd3d 2823 b1bd 6933 d83d
00000120: 2c8a 243d 68dd d7bd b35b 833d 972a f4bc
00000130: 9210 6bbc 0bb1 21be a894 e73b d6cc 6ebd
00000140: b15e b83c 1882 ab3d 9f70 6ebd 2235 80bd
00000150: 71c9 ebbd 7c9c d33a b445 14be b7ed a5bc
00000160: 7b1c 48bd 39f3 b73c 2fe5 1e3e f566 efbc
00000170: fb0b d13c f259 e4bd e9f1 1abe 8e12 5fbb
00000180: c777 39bd 3b9a 3a3c 3a4b 2ebc c82f b6bd
00000190: db05 8d3d 8f84 143d a258 c2bd 8e22 cbbd
000001a0: 3975 80bd 00a0 e13a 88ee 96bd cae3 e4bd
000001b0: 1d53 1bbe 0aef 47bd a059 253c 32ad 50bd
000001c0: cbc1 c7bc 9dd2 90bd 55c1 e7bd f706 bd3d
000001d0: 97c6 193c bd19 e83d c2f0 83bd b06f 22be
000001e0: 006a eebd 5be1 cebd 566b 48bd a7f7 0cbe
000001f0: 29ef 38bd c9d7 983d af1c 843d b5a0 933c
00000200: 553e 4abd c142 5ebd 7b4b a7bd 6602 c4bd
00000210: 06d8 a13c 60c5 7abd 24f0 c4bd 9136 2d3c
00000220: 8178 e5bd 5d5e a3bd a363 ec3c 781e 7c3c
00000230: b9fd d93d c791 05be ed43 54bd df6b 94bd
00000240: 8f71 b4bd d0d0 c0bd df4f cbbb be40 3abc
00000250: 83f4 b6bd cb60 e7bd 7a08 2fbe 9519 a73d
00000260: 321b 69bd 8788 58bd 8845 3cbd ca39 d1bd
00000270: 781d eabd 2988 dfbd 6673 013d 0a67 a8bc
00000280: 01d7 a4bd 78bc bebd 4bcd 693d a5b4 713d
00000290: a2a3 f63d 7001 d5bb 1294 7f3c b568 7cbd
000002a0: d48f dbbd 6ccc fabd b021 783d 2790 80bd
000002b0: 7454 aa39 0aef 4cbc 8de1 21be d1f2 b5bd
000002c0: 0b8a 18bc da8e 66bd a835 f7bd dcda 2abb
000002d0: 061f 96bc d1c1 48bd 58d5 4e3d 8df2 9bbc
000002e0: 233c 9fbd f722 933d f2f3 053d 9949 9cbc
000002f0: 9f37 02bd 0dde 0cbe 8362 973d a5b8 8bbd
00000300: d7e9 3fbd 7c1f 36be 2249 06be 43cf 76be
00000310: d05e 94bd 38c0 91bd 5bd9 c4bc 46c8 7a3d
00000320: 7f13 a3bd 16a6 c4be 557d f33e 656d d33e
00000330: 29f3 45be 7da7 b4be 068f 4fbd 9129 c6be
00000340: 2723 953d d950 803d 62d8 f93c 6398 3bbd
00000350: 69e5 71bc ca9c 37be 6271 bbbe f862 78be
00000360: e926 923d a4c2 a3bd 632b a6be 1089 c1bc
00000370: f384 2a3f 8cd7 26be 3053 40be c3fc 63be
00000380: 4688 48be 4789 f33d 58f0 b0bd fc14 c6bc
00000390: 2c5b 4ebe dcd7 16be 94f0 a7be d42a 9abd
000003a0: 0225 2c3e ae25 8b3d 29b1 1e3e 3c72 c3be
000003b0: 3fb3 9fbe e6c5 9e3d 1379 31be 3e79 14be
000003c0: 1734 32be 86ba 873c 24bd 52be db74 bfbe
000003d0: eea3 0c3e f17b 0bbe ec90 853d c596 a3be
000003e0: b486 d2bd b2a0 4bbf 76f1 37be 34b8 213e
000003f0: d082 85bd dfeb 163d 23ff d03b f818 6d3c

Linear2.bias f4 [64]
-0.0969074 0.0021052975 0.004134656 -0.19574192 -0.13308369 0.0007070899 0.005235552 -0.02443133
0.005312744 0.037480276 -0.00016540513 -0.14498326 -0.10378867 -0.15161365 -0.02221832 -0.08606315
-0.1314229 -0.021137858 -0.1262325 0.21448785 -0.18736818 -0.053338908 -0.101582274 -0.073982984
-0.103327826 0.043107897 -0.15024124 -0.014983953 -0.046713084 0.0680527 0.042345818 0.12265655
-0.14767128 -0.101846114 -0.14379892 0.044338834 0.013478545 0.06668247 -0.13547215 -0.03214186
-0.078992024 -0.17945106 0.039355345 0.017629474 0.048383318 -0.06575543 -0.2189924 -0.101859495
-0.1556265 -0.14614981 -0.16557045 -0.07948138 0.24682625 -0.121875785 -0.18524477 -0.014454544
-0.066272184 -0.10217604 -0.07082007 -0.025489392 -0.12040348 -0.00652103 -0.13834853 0.003179154
00000000: 6377 c6bd 08f9 093b 027c 873b 9270 48be
00000010: 1747 08be 005c 393a fe8e ab3b 3624 c8bc
00000020: 8716 ae3b eb84 193d 9a70 2db9 7e76 14be
00000030: 278f d4bd 9c40 1bbe 3203 b6bc e041 b0bd
00000040: ba93 06be 4d29 adbc 1843 01be b4a2 5b3e
00000050: 72dd 3fbe e679 5abd 5e0a d0bd 6484 97bd
00000060: 8a9d d3bd e891 303d d7d8 19be 417f 75bc
00000070: 3856 3fbd 375f 8b3d cf72 2d3d 5b33 fb3d
00000080: 2437 17be b294 d0bd 0640 13be a39c 353d
00000090: 1dd5 5c3c d290 883d 36b9 0abe 2fa7 03bd
000000a0: 92c6 a1bd 05c2 37be 1233 213d b06b 903c
000000b0: 962d 463d c8aa 86bd 8b3f 60be b69b d0bd
000000c0: 8e5c 1fbe 4ca8 15be 4d8b 29be 22c7 a2bd
000000d0: 05c0 7c3e 039a f9bd ceb0 3dbe c0d2 6cbc
000000e0: b6b9 87bd ac41 d1bd 1d0a 91bd 21cf d0bc
000000f0: 1a96 f6bd 5dae d5bb 3dab 0dbe 5a59 503b

Linear3.weight f4 [64, 64]
0.019457554 -0.009077623 0.039815813 0.01900199 -0.0837899 0.08306272 -0.039906528 0.061853584
-0.10252727 -0.09646733 0.0032644619 -0.055651676 0.4824695 0.10367867 -0.037335757 -0.07167943
0.11077184 -0.07368212 0.045789454 -0.67027897 0.10965092 0.1229156 0.10013138 0.06697624
0.07481684 0.10853936 -0.16774362 -0.045305416 0.13182563 -0.74337786 0.13211572 -0.6850778
0.04962176 0.007491506 0.011460158 0.10174004 -0.02532429 0.18257114 0.108953334 -0.010808026
-0.0015841722 0.2289649 0.08866819 -0.06474523 -0.54243463 0.080237135 0.33539915 0.124244176
0.04059124 -0.117155194 0.10419563 -0.060174495 -0.6886413 -0.07053396 -0.02979275 0.26597255
0.24861307 -0.03632301 0.025147827 -0.1739391 0.23291646 -0.09722493 0.058682594 0.21156937
-0.07763109 0.024115212 -0.050081596 -0.09450941 -0.052330814 0.00080262125 0.12747002 -0.087550014
0.010647946 -0.054181974 -0.10779819 -0.011419235 0.20682004 0.120459266 0.092540294 -0.031615715
-0.04912466 -0.09602329 0.12305607 0.10764572 0.046631467 0.03078871 -0.09267203 0.09841346
-0.24840455 0.069947995 -0.07527566 0.093096726 -0.2583983 0.13496725 -0.018704645 0.084103234
0.3169859 0.03634344 -0.009067529 -0.09203047 0.09577487 0.02265673 0.09889733 0.05539459
-0.1138097 -0.46896374 -0.23179276 -0.07083298 0.06760958 0.089384146 -0.2805412 -0.11513889
-0.15066622 0.021332 0.13432041 0.009452462 0.0048184576 0.09416569 0.21084638 -0.18475412
-0.33390045 0.033333093 -0.18990926 -0.16036406 -0.19838168 0.07610868 0.0865393 -0.19219553
-0.07589581 -0.033296514 -0.055765692 0.010163322 -0.095901206 0.078683555 -0.13330792 -0.039988726
0.01612663 0.021147551 0.06219107 -0.047875106 -0.009453525 -0.13054812 -0.056221247 -0.00061742146
-0.114661224 -0.06761277 0.03802216 -0.15290816 0.084840044 -0.06616338 -0.06545829 0.06246096
-0.053546347 0.03468481 0.10950039 0.096015066 0.08483936 -0.13964449 0.07356677 0.0062342105
0.022632983 -0.024968805 -0.08896441 -0.08432394 0.0043016966 -0.10946611 -0.13581973 0.07385671
-0.04655619 -0.10782391 -0.15766485 0.026199952 -0.09252231 -0.05254556 -0.0872785 -0.07483439
0.055766307 0.113495894 0.05444209 0.007890925 -0.014926094 -0.13761266 -0.045348156 0.057936486
-0.10016042 0.06849031 -0.09194914 -0.15054321 0.032342713 0.10378474 0.116710216 -0.095881745
-0.10103931 0.13912782 -0.07425656 0.02363322 0.059316166 -0.001219973 0.14301804 -0.14236614
0.037303396 0.089080304 0.09111737 0.035262156 0.15268742 0.124657854 0.017185 0.09010881
0.059342742 0.1341031 0.09415816 0.1352845 -0.15501656 0.12755264 -0.050587498 -0.16124497
-0.0033929422 -0.078674436 0.015993923 -0.100170806 -0.0014908129 -0.007354947 -0.11430206 -0.010244285
-0.08433126 -0.07907064 -0.11339007 0.044813704 0.13009563 0.060395233 0.06206691 -0.01142114
-0.031083608 0.16940139 -0.0713616 -0.10863392 0.2368678 0.06880298 0.09212632 -0.015892742
-0.15605725 -0.22408341 -0.10543848 0.06018983 -0.12785074 -0.19411041 -0.33903852 -0.11129893
-0.051887978 -0.12084474 -0.09714465 0.15680869 -0.0065016276 -0.047606207 0.0845611 0.08100195
00000000: 7365 9f3c 4fba 14bc e815 233d 10aa 9b3c
00000010: 0a9a abbd ca1c aa3d 0775 23bd 2f5a 7d3d
00000020: d1f9 d1bd aa90 c5bd 95f0 553b 03f3 63bd
00000030: 3e06 f73e 7c55 d43d 61ed 18bd aacc 92bd
00000040: 59dc e23d a7e6 96bd b98d 3b3d 6797 2bbf
00000050: a990 e03d 2dbb fb3d ae11 cd3d d72a 893d
00000060: 9239 993d e249 de3d fcc4 2bbe 2c92 39bd
00000070: 4cfd 063e 034e 3ebf 5849 073e 4261 2fbf
00000080: 3040 4b3d 4f7b f53b 63c3 3b3c 155d d03d
00000090: e374 cfbc eef3 3a3e ed22 df3d 2614 31bc
000000a0: 00a4 cfba c675 6a3e ab97 b53d 2699 84bd
000000b0: ffdc 0abf 5e53 a43d 70b9 ab3e bb73 fe3d
000000c0: 0043 263d 10ef efbd 8564 d53d 8879 76bd
000000d0: cc4a 30bf 1c74 90bd ed0f f4bc 8e2d 883e
000000e0: 6d94 7e3e 70c7 14bd d102 ce3c 171d 32be
000000f0: a781 6e3e dd1d c7bd 295d 703d a4a5 583e
00000100: 0dfd 9ebd 448d c53c 5c22 4dbd 268e c1bd
00000110: d658 56bd 0067 523a 8087 023e 6c4d b3bd
00000120: b974 2e3c ebed 5dbd 4cc5 dcbd be17 3bbc
00000130: a2c8 533e 59b3 f63d c485 bd3d 7b7f 01bd
00000140: f136 49bd dca7 c4bd d204 fc3d 5c75 dc3d
00000150: a300 3f3d 9b38 fc3c d5ca bdbd ff8c c93d
00000160: c35d 7ebe e540 8f3d 202a 9abd 7fa9 be3d
00000170: c84c 84be db34 0a3e 7c3a 99bc 513e ac3d
00000180: fa4b a23e dcdc 143d f98f 14bc 797a bcbd
00000190: 9d25 c43d 9b9a b93c af8a ca3d 70e5 623d
000001a0: 0f15 e9bd 041c f0be 155b 6dbe e210 91bd
000001b0: e476 8a3d 090f b73d 19a3 8fbe f0cd ebbd
000001c0: 3f48 1abe 72c0 ae3c 4a8b 093e 80de 1a3c
000001d0: 27e4 9d3b f1d9 c03d 1de8 573e 2f30 3dbe
000001e0: 00f5 aabe 4888 083d 9377 42be 7a36 24be
000001f0: 9124 4bbe dede 9b3d 843b b13d e8ce 44be
00000200: 436f 9bbd ed61 08bd 916a 64bd 1084 263c
00000210: da67 c4bd d824 a13d df81 08be 38cb 23bd
00000220: ff1b 843c a13d ad3c 10bc 7e3d b018 44bd
00000230: f5e2 1abc 68ae 05be 4048 66bd 74da 21ba
00000240: 81d3 eabd 9078 8abd 20bd 1b3d f593 1cbe
00000250: 9ec0 ad3d ab80 87bd ff0e 86bd 10d7 7f3d
00000260: 6a53 5bbd a911 0e3d be41 e03d 8ca3 c43d
00000270: 42c0 ad3d f7fe 0ebe 2daa 963d 5948 cc3b
00000280: ce68 b93c 618b ccbc f932 b6bd 08b2 acbd
00000290: 3ff5 8c3b c52f e0bd 5414 0bbe 3042 973d
000002a0: b4b1 3ebd c8d2 dcbd e572 21be 48a1 d63c
000002b0: 567c bdbd 033a 57bd 12bf b2bd c642 99bd
000002c0: 366b 643d 8970 e83d abfe 5e3d f048 013c
000002d0: 938c 74bc 55ea 0cbe fdbe 39bd cf4e 6d3d
000002e0: e820 cdbd a644 8c3d d54f bcbd 0028 1abe
000002f0: cb79 043d 188d d43d c405 ef3d a65d c4bd
00000300: b3ed cebd 8677 0e3e d313 98bd 749a c13c
00000310: 82f5 723d 80e7 9fba 5273 123e 6ec8 11be
00000320: 72cb 183d bc6f b63d be9b ba3d 0d6f 103d
00000330: 175a 1c3e 9e4c ff3d 8fc7 8c3c f88a b83d
00000340: 6011 733d 5352 093e fed5 c03d 0588 0a3e
00000350: a9bc 1ebe 299d 023e d634 4fbd 671d 25be
00000360: 205c 5ebb 1020 a1bd b005 833c 5a26 cdbd
00000370: 6167 c3ba c401 f1bb 3317 eabd a5d7 27bc
00000380: deb5 acbd caef a1bd 0e39 e8bd 938e 373d
00000390: ca37 053e fe60 773d df39 7e3d bc1f 3bbc
000003a0: 0da3 febc 8f77 2d3e 0826 92bd 767b debd
000003b0: 798d 723e 94e8 8c3d b9ac bc3d 7f31 82bc
000003c0: 79cd 1fbe 1f76 65be 21f0 d7bd 9c89 763d
000003d0: 4eeb 02be e1c4 46be 7596 adbe b2f0 e3bd
000003e0: 7d88 54bd 727d f7bd c6f3 c6bd 7592 203e
000003f0: 9b0b d5bb bafe 42bd 5f2e ad3d 5ae4 a53d

Linear3.bias f4 [64]
-0.13495435 -0.15701963 0.06748984 0.3435874 0.22021928 0.48496345 0.22651908 0.022568345
0.23280658 -0.24500032 -0.21750893 -0.08960966 0.13986985 0.2924907 0.015118068 0.52885634
0.24849667 -0.03531814 1.3030568 0.07899606 -0.19169056 0.057700705 0.19946074 0.43702242
-0.09617606 0.051935732 -0.128135 -0.20267859 0.0007091705 -0.10046348 0.023091758 -0.085647576
-0.12792751 -0.06872955 -0.010254164 -0.35769552 0.54023147 0.07478926 -0.20322812 -0.101639144
0.30483663 -0.0879965 0.09012632 -0.15603454 0.038586896 -0.10225299 -0.008589123 -0.50088334
0.14990947 -0.03647727 -0.0747005 0.119435005 -0.05840683 0.021015193 -0.024333589 0.10588291
0.5430708 0.31037605 0.26450285 -0.14880532 0.014040614 -0.004350375 -0.18332177 0.10901155
00000000: 7931 0abe c1c9 20be 1d38 8a3d b0ea af3e
00000010: 2a81 613e 214d f83e 9ef4 673e 40e1 b83c
00000020: d964 6e3e 5de1 7abe a9ba 5ebe 4585 b7bd
00000030: 0b3a 0f3e 57c1 953e c6b1 773c 2163 073f
00000040: e975 7e3e c1a9 10bd 91ca a63f b0c8 a13d
00000050: 884a 44be 9357 6c3d 703f 4c3e 67c1 df3e
00000060: f4f7 c4bd 90ba 543d d235 03be fa8a 4fbe
00000070: a0e7 393a ccbf cdbd ed2a bd3c ff67 afbd
00000080: 6eff 02be 14c2 8cbd 1501 28bc de23 b7be
00000090: 9c4c 0a3f 1d2b 993d 081b 50be 2f28 d0bd
000000a0: 8c13 9c3e 8237 b4bd 2694 b83d 85c7 1fbe
000000b0: 4b0d 1e3d 046a d1bd 65b9 0cbc e439 00bf
000000c0: de81 193e 3169 15bd 93fc 98bd 579a f43d
000000d0: 003c 6fbd 0e28 ac3c 3c57 c7bc 24d9 d83d
000000e0: b006 0b3f 9ce9 9e3e eb6c 873e 6c60 18be
000000f0: 9a0a 663c 978d 8ebb b4b8 3bbe 7341 df3d

Linear_last.weight f4 [3, 64]
0.3690444 -0.47521514 -0.07073515 0.37287894 1.8050638 2.456886 1.4321828 0.57347465
1.9155172 -0.17230362 0.19472913 -0.11422437 -0.036696225 0.34163946 0.16720393 0.2372844
-0.016348312 -0.090974405 0.7482684 0.30188084 -0.20535743 -0.028608484 2.1133707 0.20490685
-0.089834355 0.03505506 -0.026041104 0.04873716 0.22509831 0.00029600607 -0.04299244 0.0040622666
-0.05019812 0.22637317 0.21497825 -0.49308985 0.32459536 0.11458215 -0.08590509 0.05555852
0.37876946 -0.04393735 -0.040903106 -0.11839798 0.24643153 -0.037921313 0.06498119 -0.6151549
1.4980527 0.19739456 0.016183695 -0.056777008 1.1551847 -0.070458986 -0.002492109 1.2696031
2.6517773 2.6402318 0.19673103 -0.24422558 1.0846351 0.9700332 0.009210446 0.11699707
-0.05679956 0.0043205917 -0.028713718 0.113469675 0.10401064 0.04779643 -0.0053188354 0.100700706
-0.10765284 0.11293632 0.053512216 0.0848269 0.11500025 0.010278642 0.035117537 0.06399515
-0.08465816 0.12241174 -0.0073122233 0.045015693 -0.08127281 0.11074638 0.02354221 -0.09700003
0.085228965 0.04221274 0.060855925 -0.011743367 0.022346348 -0.08501837 0.10809347 0.08876315
-0.007873476 -0.10940617 -0.08421378 -0.060990557 0.08239968 -0.080432296 -0.06006883 -0.05199407
-0.09910995 0.04824546 0.04181178 -0.10805634 0.09154886 0.0049290657 -0.07455051 0.0078549385
0.027280003 0.037925318 -0.071832195 0.12318584 0.09815495 0.111059085 -0.006072268 -0.0017526895
-0.09633048 0.11606586 -0.019654423 -0.031888843 -0.032659397 -0.08124435 -0.10377523 -0.004196748
-0.3419712 0.04324458 0.05116101 -0.006983776 -0.3113038 -0.23756352 -0.25283328 -0.11774401
-0.2249679 0.0040019676 -0.054505706 0.34906167 0.1701852 -0.006361898 -0.44378272 -0.005657516
-0.031401906 0.042580105 -0.035364527 0.016993454 0.05144024 -0.02898073 -0.25916812 -0.001951882
-0.042068884 0.04902161 -0.075261414 0.008873849 -0.3467668 -0.011445118 0.1538524 0.031923316
0.020213133 -0.3024673 -0.3787488 0.0239296 -0.0049866927 -0.001648886 -0.19445936 0.0077655627
-0.0077537685 0.04438161 0.11909824 0.0022398643 -0.0034654783 -0.027389133 -0.03701579 -0.75081563
-0.14261746 0.019125948 0.011104364 0.121506 -0.022591995 -0.058885753 -0.005267948 -0.13070539
-0.31711462 -0.20708762 0.17670318 0.36968222 -0.12970038 -0.01318272 -0.044255067 0.18588895
00000000: 63f3 bc3e 664f f3be 97dd 90bd fde9 be3e
00000010: 550c e73f 9f3d 1d40 c451 b73f 3ccf 123f
00000020: ab2f f53f 5c70 30be 1367 473e 77ee e9bd
00000030: c84e 16bd 5eeb ae3e 8237 2b3e affa 723e
00000040: e5ec 85bc ca50 babd 858e 3f3f 2090 9a3e
00000050: 3849 52be 575c eabc 7741 0740 1ad3 513e
00000060: 13fb b7bd e595 0f3d 2754 d5bc 9ea0 473d
00000070: 2c80 663e 4331 9b39 d718 30bd c31c 853b
00000080: 8b9c 4dbd 5ece 673e 4223 5c3e 4676 fcbe
00000090: 5d31 a63e 0caa ea3d 02ef afbd 5591 633d
000000a0: 12ee c13e a7f7 33bd 048a 27bd a47a f2bd
000000b0: 8c58 7c3e 6153 1bbd dc14 853d cb7a 1dbf
000000c0: 31c0 bf3f cd21 4a3e ab93 843c 028f 68bd
000000d0: 18dd 933f cd4c 90bd a752 23bb 5b82 a23f
000000e0: b8b6 2940 8ff9 2840 dc73 493e 4516 7abe
000000f0: 53d5 8a3f 1954 783f 69e7 163c 299c ef3d
00000100: a8a6 68bd c093 8d3b 0839 ebbc ca62 e83d
00000110: 8803 d53d 30c6 433d a049 aebb 2c3c ce3d
00000120: 1879 dcbd 284b e73d a02f 5b3d bab9 ad3d
00000130: 4085 eb3d c067 283c 68d7 0f3d e40f 833d
00000140: 4261 adbd 02b3 fa3d 609b efbb 6062 383d
00000150: 5c72 a6bd 00cf e23d 98db c03c f4a7 c6bd
00000160: 868c ae3d 44e7 2c3d 1044 793d 4067 40bc
00000170: b00f b73c 1c1e aebd 1c60 dd3d 74c9 b53d
00000180: c0ff 00bc 5810 e0bd 4678 acbd 3cd1 79bd
00000190: 2ac1 a83d b0b9 a4bd bc0a 76bd bcf7 54bd
000001a0: 28fa cabd 089d 453d d442 2b3d a44c ddbd
000001b0: f87d bb3d 0084 a13b f0ad 98bd 00b2 003c
000001c0: 507a df3c 9457 1b3d c21c 93bd dc48 fc3d
000001d0: 7605 c93d f272 e33d e0f9 c6bb 80ba e5ba
000001e0: ea48 c5bd f0b3 ed3d 5002 a1bc e09d 02bd
000001f0: dcc5 05bd 7063 a6bd 1c88 d4bd e084 89bb
00000200: d916 afbe 3b21 313d 358e 513d 29d8 e4bb
00000210: 3663 9fbe da43 73be 5d73 81be c623 f1bd
00000220: fc5d 66be f022 833b 6041 5fbd 36b8 b23e
00000230: 0745 2e3e 7877 d0bb 7d37 e3be af62 b9bb
00000240: 499f 00bd 7a68 2e3d 65da 10bd db35 8b3c
00000250: 00b3 523d ff68 edbc afb1 84be 4bd6 ffba
00000260: 6c50 2cbd e2ca 483d a822 9abd 9f63 113c
00000270: 6b8b b1be 4e84 3bbc 7c8b 1d3e 06c2 023d
00000280: 0396 a53c fedc 9abe 5deb c1be 0208 c43c
00000290: 6967 a3bb 6f1f d8ba 5b20 47be 4376 fe3b
000002a0: 5313 febb 7ec9 353d c7e9 f33d b0ca 123b
000002b0: 141d 63bb 2d5f e0bc de9d 17bd 7435 40bf
000002c0: 500a 12be 05ae 9c3c 14ef 353c 23d8 f83d
000002d0: d912 b9bc 3032 71bd c09e acbb a2d7 05be
000002e0: d95c a2be c70e 54be aef1 343e fd46 bd3e
000002f0: 2dd0 04be 56fc 57bc cd44 35bd ac59 3e3e

Linear_last.bias f4 [3]
0.51178515 -0.0564968 -0.5255985
00000000: 5a04 033f 3069 67bd a08d 06bf
