method_min_euler_r/save/model/Phi_h_Model_8X8.pt (torch, 3487 bytes, 8 tensors)

Linear1.weight f4 [8, 2]
000000 fa 0b a5 3a 73 dd 3a bf 3e 14 68 3a 7e 30 3b 3f
       0.001259207 -0.72994155 0.0008853114 0.7312087
000010 7c 10 6f 3b b4 7f 03 3e 80 a5 32 ba 23 01 02 3f
       0.0036478331 0.12841684 -0.00068148226 0.50782984
000020 22 7a e0 3a 19 fe 1f bf 69 49 dd bb 02 8f 1e 3e
       0.0017126242 -0.624971 -0.006753136 0.1548424
000030 dd 1e 26 3a 6d db 23 bf aa 2e af bc b9 70 23 bd
       0.00063369964 -0.6400669 -0.021384556 -0.039902423

Linear1.bias f4 [8]
000000 96 79 ae bc 5b 38 3b 3f bd b8 bd 3e d4 27 03 3f
       -0.021298211 0.73132867 0.37055007 0.5123265
000010 43 43 85 be 80 30 ce 3d ba 12 5b 3e c6 0b a9 be
       -0.2602788 0.100678444 0.21393862 -0.33016795

Linear2.weight f4 [8, 8]
000000 a8 fa ed 3e 69 e8 a0 be 0b 1a 1e 3e 7d 4e 93 3d
       0.46480298 -0.31427315 0.15439622 0.07192705
000010 1e c1 97 3f 8d 7c bc 3d 19 d9 9d 3e a1 b4 ab 3e
       1.185581 0.09203444 0.30829695 0.33536246
000020 18 f7 fc 3e e8 a2 d7 bf 45 eb 94 3b 00 ab 3f bf
       0.49407268 -1.684659 0.004544648 -0.748703
000030 5e b9 87 3f 1b ab 68 bd 9a c9 18 3f e3 46 28 be
       1.0603445 -0.056803804 0.5968262 -0.16433291
000040 01 be 03 3f cd cc f6 bf 07 68 9a bd 76 0c 82 bf
       0.514618 -1.928125 -0.07539373 -1.0160053
000050 0e c2 14 3f 24 5e 3d be 37 5c 80 3d ac be d4 3d
       0.58108604 -0.18492943 0.062675886 0.1038793
000060 5b b8 4b 3e 2a 21 cf bf 85 be c3 bc 19 ac 03 bf
       0.19894545 -1.6181996 -0.023894558 -0.51434475
000070 13 40 64 3f 8a 75 06 3e ef 1f 36 3f 4d 13 91 3e
       0.8916027 0.13130775 0.71142477 0.28335038
000080 a5 27 0e 3f 4f b9 05 bf 10 06 47 3e 4f b1 a9 3d
       0.5552924 -0.52235883 0.19435906 0.08285772
000090 2f 64 ad 3f 9e bf 7d 3e a4 b2 a6 3e a3 8a a0 3e
       1.3546199 0.24780127 0.32558167 0.3135577
0000a0 fe 32 fe 3d 5f 06 26 bf 39 b3 02 3d 67 86 48 be
       0.1241207 -0.6485347 0.0319092 -0.1958252
0000b0 e8 5d 6b 3f 9f b3 5a 3c ab 4c 08 3f d0 d0 a9 bd
       0.91940165 0.013348489 0.53241986 -0.08291781
0000c0 31 e7 ad 3d 5e 80 dd 3e fb c1 86 3e 97 3a bf 3e
       0.08491362 0.43262 0.2631987 0.37349388
0000d0 b8 ca ab be ac 32 7d 3e e0 c2 47 be 92 3b 36 3e
       -0.335531 0.24726361 -0.19507933 0.17796162
0000e0 cc 8e 7e be aa 94 88 be 20 23 b0 3c a8 c6 76 bd
       -0.2485916 -0.26675922 0.021501124 -0.060248047
0000f0 4e a2 54 3e 64 ab 51 be 44 ec a0 be 7f bd 83 3e
       0.2076504 -0.20475537 -0.31430256 0.25730512

Linear2.bias f4 [8]
000000 7c cf e0 3d 0e f3 51 3e 43 04 b3 bd 02 71 0f be
       0.109770745 0.20502874 -0.08741047 -0.14007953
000010 e2 a3 d4 3e de 0a 11 3e 4a 8d 06 be fe c6 2b be
       0.41531283 0.14164302 -0.13139835 -0.16775128

Linear3.weight f4 [8, 8]
000000 00 5c b2 3e 50 df 0c be 73 55 aa bf 71 b5 cb be
       0.34835815 -0.13757062 -1.3307327 -0.39786866
000010 8f 86 fd 3e ce 9e 94 3e 6e 56 ba 3e 8e c3 1c 3e
       0.49516723 0.29027408 0.36394066 0.15308973
000020 e8 7d 29 be 52 b0 e3 bf e6 bd 90 3e 5b 33 46 be
       -0.16551936 -1.7788184 0.2826988 -0.19355528
000030 a8 fe cf 3d 81 3e 3e bf 75 75 68 3f c5 36 87 3e
       0.10155994 -0.74314123 0.90804225 0.26408973
000040 23 e6 b5 3e 8c 88 9c 3e d0 fe 8c 3f a0 ec 71 3f
       0.35527143 0.30572927 1.1015263 0.94501686
000050 05 03 93 3e 3e f0 92 3e 69 c6 e9 bc 50 5a 82 be
       0.2871324 0.28698915 -0.028536992 -0.25459528
000060 df 08 bd 3d bc 25 08 be 9a d9 1c be 6d ec 92 bf
       0.09230208 -0.13295645 -0.15317383 -1.1478401
000070 50 06 c7 3e e0 e3 cb 3e 4f d3 64 bf 28 e5 99 bd
       0.38872004 0.39822292 -0.8938493 -0.07514411
000080 18 b1 d9 3e e0 cc 9b 3f 31 9f af 3f ed 50 50 3f
       0.42517924 1.2171898 1.3720456 0.8137348
000090 20 fa 21 3f 05 6b 27 3f 63 1e a6 bd 63 a3 80 3e
       0.63272285 0.65397674 -0.081112646 0.25124654
0000a0 39 ee 07 3f fd 94 91 3f c1 ae 20 3f 65 9f a9 3d
       0.53097874 1.1373593 0.62766653 0.08282355
0000b0 87 a2 8f 3e 91 fc 8a 3f ea 88 e7 be 04 74 04 3e
       0.28053686 1.0858327 -0.45221645 0.12934881
0000c0 27 94 64 3d 94 d2 39 3f 43 3e c0 3f 9c c3 5d 3f
       0.05580535 0.7258694 1.5019001 0.866266
0000d0 a7 37 96 3e c0 c3 b2 3e 49 fb 09 bf 4b dc b0 3e
       0.29339334 0.3491497 -0.53899056 0.3454307
0000e0 68 2a 10 be e0 02 47 bc 4c dc aa be 92 03 69 be
       -0.14078677 -0.012146682 -0.33371198 -0.22755268
0000f0 3c 8e 84 be c8 62 2d be d8 6f 04 3e 60 9d ec bd
       -0.25889766 -0.16932213 0.1293329 -0.115534544

Linear3.bias f4 [8]
000000 9f df 3b be 0f 9f af 3e ca 88 3d 3e f2 4c 14 3e
       -0.18347023 0.3430104 0.18509212 0.14482477
000010 d6 55 e0 3d 54 f0 01 3f 59 74 69 be 8c 0b 3e be
       0.10953872 0.50757337 -0.2279829 -0.18559092

Linear_last.weight f4 [2, 8]
000000 c2 c4 b9 be 08 3e dc be 70 ec f7 3e 7e ef ae 3f
       -0.36282927 -0.43016076 0.48422575 1.3666837
000010 bb 47 8a 3f c7 de 8f 3f 7a db 49 40 78 52 74 3e
       1.080314 1.1239861 3.1540208 0.23859584
000020 a5 9d fd 3e 85 65 82 be c2 e4 83 be 10 6b 84 3c
       0.49534336 -0.25468078 -0.25760466 0.016164333
000030 30 3e 7e be 56 c1 ec bc 19 45 e5 be 0c da 42 be
       -0.2482841 -0.028900784 -0.4477928 -0.19028491

Linear_last.bias f4 [2]
000000 54 48 51 3d e5 8e 8e 3e
       0.051094368 0.27843395
