method_min_euler_r/save/model/Phi_h_Model_64X64.pt (torch, 37427 bytes, 8 tensors)

Linear1.weight f4 [64, 2]
0	0x3dbda685	0.09260277
1	0xbef45d76	-0.47727555
2	0xbc82e61a	-0.015978862
3	0x3f263c6e	0.6493596
4	0xbebeb679	-0.3724859
5	0x3f0fbcc3	0.561474
6	0xbad1e922	-0.0016014914
7	0x3ecc198d	0.39863244
8	0x3d2da6a0	0.042395234
9	0xbdf6f7cd	-0.12058983
10	0xbb8eff9d	-0.0043639676
11	0x3e09bba0	0.1345048
12	0x3cf1958b	0.029490253
13	0xbefaaae0	-0.48958492
14	0xbb8851d9	-0.0041601476
15	0x3d043a0c	0.03228192
16	0xbb890e0c	-0.0041825827
17	0x3e81c742	0.25347334
18	0x3e484974	0.1955927
19	0x3ef8ab89	0.4856837
20	0xbc017274	-0.007900823
21	0xbf68ea46	-0.9098247
22	0xbca1f8cc	-0.019771956
23	0xbf55d204	-0.83523583
24	0xbcb707d5	-0.022342602
25	0x3f0a9b37	0.5414309
26	0x3e83b90f	0.25727126
27	0x3f22d391	0.63604075
28	0xbe99fa66	-0.3007385
29	0x3e9b7752	0.30364472
30	0x3e20ecf6	0.15715393
31	0x3f41221e	0.75442684
32	0x3e298def	0.1655805
33	0xbf43fdf6	-0.7655939
34	0xbdbf8fa4	-0.09353569
35	0xbe49c9f0	-0.1970594
36	0x3c2bcda8	0.010486044
37	0xbcb260bd	-0.021774644
38	0x3d0908f5	0.033455808
39	0xbeba32ac	-0.36366785
40	0x3a6cbb7a	0.0009030622
41	0xbd1afd1e	-0.037839048
42	0xbb714e72	-0.0036820439
43	0x3d3726f7	0.044714894
44	0xbe4da6d0	-0.20083165
45	0x3f09c548	0.5381665
46	0xbd05e972	-0.032693334
47	0x3efbb056	0.4915797
48	0x3ce7b844	0.028286107
49	0xbece7c37	-0.40329143
50	0xbe7ecb7b	-0.24882309
51	0xbf229c85	-0.6352008
52	0x3e36cb9b	0.17851107
53	0xbf2e982b	-0.6820094
54	0x3ea93551	0.3304849
55	0x3f12f92f	0.57411474
56	0x3bbfc055	0.005851785
57	0xbf51b9d3	-0.8192417
58	0x3d93c876	0.07215969
59	0x3e295a91	0.16538455
60	0xbe0a5364	-0.13508373
61	0x3f1b2ce9	0.606154
62	0x3e8afaa1	0.2714434
63	0x3f6a27c3	0.9146692
64	0xbe2c1af8	-0.16807163
65	0xbeef588a	-0.46747237
66	0xbad79546	-0.0016447685
67	0x3ea3b1fa	0.31971723
68	0xbe638aea	-0.2222096
69	0xbf3de12b	-0.74171704
70	0x3da95076	0.082673
71	0xbee9e127	-0.4567959
72	0x3dfecb73	0.124411486
73	0xbdb47efd	-0.088132836
74	0x3c82c934	0.015965082
75	0x3e8c1bce	0.27364963
76	0x3e1e31e3	0.15448718
77	0x3f11b402	0.56915295
78	0xbe91f176	-0.28504533
79	0x3f03e442	0.5152017
80	0xbe1e3ecf	-0.15453647
81	0xbf7021d2	-0.93801606
82	0x3d302320	0.043002248
83	0xbdf6c6a8	-0.120496094
84	0x3d2c9981	0.04213858
85	0xbf39a668	-0.7251954
86	0xbea26861	-0.3172026
87	0x3f1e2243	0.6177103
88	0xbda631ec	-0.081149906
89	0x3edf23c9	0.4358199
90	0x3c7f6201	0.015587331
91	0xbf51ce8b	-0.81955785
92	0x3d16106c	0.036636755
93	0x3f0a93bf	0.5413169
94	0xbe3d02cf	-0.18458103
95	0xbf0064ae	-0.50153625
96	0xbb1b293c	-0.00236757
97	0x3ecb38e5	0.39691845
98	0x3cd1c88c	0.025608324
99	0xbee4dda5	-0.4470035
100	0x3ea1d84d	0.31610337
101	0x3cd9fa0b	0.026608488
102	0x3cb65e85	0.022261867
103	0x3f0adf41	0.5424691
104	0xbc03e90a	-0.008051166
105	0xbf6c7b4a	-0.92375624
106	0x3e00038d	0.12501355
107	0x3ead8377	0.33889362
108	0x3e540a4a	0.2070705
109	0x3e31fbb3	0.17381172
110	0x3cb96753	0.022632277
111	0x3f1ea385	0.6196826
112	0x3e745b8c	0.23863047
113	0xbf509f9b	-0.8149354
114	0xbb219c8a	-0.0024659955
115	0x3f4045b9	0.7510639
116	0x3eac0ba9	0.33602646
117	0x3f10a049	0.56494576
118	0xbe28fbe8	-0.16502345
119	0xbf5d5e63	-0.8647215
120	0xbc4e8905	-0.01260591
121	0x3dd7b04f	0.10531675
122	0x3ea4cd4f	0.32187888
123	0xbf2000a5	-0.62500983
124	0x3db07945	0.0861688
125	0xbedc2561	-0.42997268
126	0xbdd00b30	-0.10158384
127	0xbafd5e99	-0.001933056

Linear1.bias f4 [64]
0	0x3dc61a8d	0.09673033
1	0x3f24faa3	0.6444494
2	0xbf11f634	-0.570163
3	0x3ec7a61d	0.38993922
4	0x3decebc6	0.11568408
5	0xbc046f98	-0.008083247
6	0x3e8d35f9	0.2758024
7	0xbd602921	-0.054726724
8	0x3ddd12ab	0.10794576
9	0x3dce9b6f	0.1008824
10	0xbe9cdbcd	-0.30636445
11	0xbebe352f	-0.3714995
12	0xbed75fb2	-0.42065197
13	0x3dc5436b	0.096319996
14	0xbf57d327	-0.8430657
15	0x3ef92e3f	0.48668095
16	0xbdcdc900	-0.10048103
17	0xbf18b478	-0.59650373
18	0xbdbfadea	-0.09359343
19	0xbe48c9ca	-0.19608226
20	0xbd32255a	-0.043492652
21	0xbd842b06	-0.064535186
22	0x3d8661ae	0.065616
23	0x3f0cc084	0.54981256
24	0xbe5257cb	-0.20541303
25	0xbdf31f71	-0.11871231
26	0xbf3391bc	-0.7014425
27	0xbf170ed5	-0.59007007
28	0xbeadf120	-0.33973026
29	0xbf00c743	-0.5030405
30	0x3f0f4913	0.5597088
31	0xbd7bee6c	-0.061506674
32	0xbf32d754	-0.69859815
33	0x3e9ff3fa	0.31240827
34	0x3d4ab334	0.049487308
35	0x3e4e2a65	0.2013336
36	0xbf1749f6	-0.5909723
37	0x3d9afec6	0.075681254
38	0xbd10f8ad	-0.035393406
39	0xbe1d3121	-0.15350772
40	0xbf0b5130	-0.5442076
41	0xbea500ca	-0.32227165
42	0xbe85d927	-0.26142237
43	0x3ee1c4cf	0.44095466
44	0x3e9302bd	0.28713027
45	0xbe1a626b	-0.15076606
46	0x3f113f77	0.56737465
47	0x3ecfa3b7	0.40554592
48	0x3ec524bc	0.3850459
49	0xbe12f8de	-0.14352748
50	0xbf52e914	-0.823869
51	0x3f08e324	0.5347159
52	0xbe8d2ae1	-0.27571777
53	0xbefed755	-0.4977366
54	0xbf651b96	-0.8949522
55	0x3e2ee41f	0.17079209
56	0xbf18d789	-0.5970388
57	0x3f3cfcaa	0.73823035
58	0xbf3a44b0	-0.7276106
59	0xbf165a6d	-0.5873173
60	0xbe823200	-0.25428772
61	0xbefbfe76	-0.49217576
62	0x3c8b98b1	0.017040582
63	0xbf31367e	-0.69223773

Linear2.weight f4 [64, 64]
0	0xbd7018b0	-0.058617294
1	0xbc979f78	-0.018508658
2	0x3db95160	0.09048724
3	0xbe2d7180	-0.16937828
4	0x3d633327	0.055468705
5	0x3d88e3ba	0.066840604
6	0x3dfa7f04	0.122312576
7	0xbdbaf8a5	-0.091294564
8	0x3c6b251a	0.014352107
9	0xbdf15556	-0.11783855
10	0xbe43c02a	-0.19116274
11	0xbef351d3	-0.47523364
12	0x3d9a33ca	0.07529409
13	0xbce740aa	-0.028229076
14	0xbc1f80f0	-0.009735331
15	0xbd2a63f6	-0.041599236
16	0x3cef050b	0.02917721
17	0x3db3eb0b	0.08785065
18	0x3c3d6496	0.011559626
19	0x3d2f5f1f	0.042815324
20	0xbdf411b0	-0.11917436
21	0x3da40ef4	0.080106646
22	0x3deb4795	0.114882626
23	0x3da37c5c	0.07982704
24	0x3c9267d8	0.017871782
25	0xbd5127f4	-0.051063493
26	0xbe259179	-0.16168775
27	0x3da570c2	0.080781475
28	0xbec5b25b	-0.38612637
29	0x3da718c6	0.08159022
30	0xbe32ca5d	-0.17460008
31	0xbdf94923	-0.12172153
32	0x3d7a4e38	0.06110975
33	0xbdf1ff4d	-0.11816273
34	0xbc166cbd	-0.009181199
35	0x3db0d442	0.08634235
36	0x3d3a00f4	0.045411065
37	0x3db83d47	0.08996063
38	0xbd68106e	-0.056656294
39	0xbe6d173f	-0.23153399
40	0xbd05d332	-0.032672115
41	0xbcda2388	-0.02662827
42	0xbd79390e	-0.060845427
43	0xbdd56572	-0.1041974
44	0xbe18b11a	-0.14911309
45	0x3dcb426d	0.09924779
46	0x3d786080	0.060638905
47	0xbd9ebe9f	-0.07751202
48	0xbdf8ce6a	-0.12148745
49	0x3c7adc64	0.015311334
50	0x3cb0d89f	0.021587668
51	0xbcd88f44	-0.026435502
52	0xbe1005e0	-0.14064741
53	0xbc92e288	-0.017930284
54	0xbe2c2e35	-0.16814502
55	0xbdfa7b0a	-0.12230499
56	0xbdf4d0a3	-0.11953857
57	0x3d988ff0	0.07449329
58	0x3da1419b	0.078738414
59	0xbd80d494	-0.06290546
60	0xbd697108	-0.05699256
61	0x3d045919	0.032311533
62	0x3cac57f0	0.021038026
63	0xbe383932	-0.17990568
64	0x3daa852e	0.08326183
65	0x3d5bd5ea	0.0536708
66	0xbd839b48	-0.06426102
67	0xbdb1bc35	-0.08678476
68	0x3dff0593	0.12452235
69	0x3dcf72c8	0.10129315
70	0xbd78fcf9	-0.06078813
71	0x3e014389	0.12623419
72	0x3c64ee19	0.0139727825
73	0xbe0987d8	-0.13430727
74	0xbd72d47d	-0.059284676
75	0xbea6392b	-0.3246549
76	0xbcc4d7c5	-0.024028668
77	0xbe235b9a	-0.15952912
78	0xbc5425fa	-0.012948507
79	0xbd575589	-0.052571807
80	0x3d006b47	0.031352308
81	0x3dd6cc83	0.10488226
82	0xbd626fc8	-0.055282384
83	0xbd13a039	-0.036041472
84	0xbdeb1218	-0.114780605
85	0xbc0ddeb0	-0.00865905
86	0xbda2d695	-0.079510845
87	0xbaedeac9	-0.0018151636
88	0xbcde6644	-0.027148373
89	0x3d42578a	0.047446765
90	0x3b853460	0.0040650815
91	0xbd312c7b	-0.04325531
92	0xbeb09418	-0.34487987
93	0xbe1ad1e9	-0.15119137
94	0xbe11a103	-0.14221577
95	0x3cca2b5e	0.024678882
96	0xbe560fce	-0.20904467
97	0xbc45366b	-0.0120369
98	0x3c100855	0.008791049
99	0xbd9153ec	-0.07096085
100	0x3d4ae157	0.049531307
101	0x3c74bdbe	0.014937816
102	0xbdb3295f	-0.08748125
103	0xbdbe70c0	-0.09298849
104	0xbdeea6c5	-0.116529025
105	0x3ae1a000	0.0017213821
106	0xbdc29a23	-0.095020555
107	0xbdb2118d	-0.08694754
108	0xbdcc55df	-0.09977316
109	0xbca9a8ec	-0.020710431
110	0x3c87823f	0.016541598
111	0xbc4f2d33	-0.012645054
112	0xbd1d1db9	-0.038358424
113	0xbcf657b3	-0.030071115
114	0xbe133eab	-0.14379375
115	0x3d9d607f	0.07684421
116	0xbbe51251	-0.006990709
117	0x3da92a89	0.08260066
118	0xbd9dbcce	-0.07702027
119	0xbdbdbd73	-0.0926465
120	0xbe0d5b64	-0.13804394
121	0xbdac75a5	-0.084208764
122	0x3c9e7c6b	0.019346436
123	0xbe320275	-0.1738375
124	0xbd54222c	-0.0517904
125	0x3d8fd7c1	0.07023574
126	0x3dad34bb	0.08457323
127	0x3d720b76	0.05909296
128	0xbd4cf1b2	-0.050035186
129	0xbefdbdd5	-0.49558893
130	0xbe1639ba	-0.14670458
131	0xbf126dca	-0.57198775
132	0xbd50cf50	-0.05097896
133	0xbe0da34e	-0.13831827
134	0xbddd9b34	-0.10820618
135	0xbb3696e9	-0.0027860946
136	0xbe727568	-0.236776
137	0xbe83443d	-0.25638
138	0x3e948198	0.29005122
139	0x3eae37ce	0.3402695
140	0xbe0cc2e5	-0.13746221
141	0xbe9575ca	-0.29191428
142	0xbdcc381c	-0.099716395
143	0xbf027697	-0.50962204
144	0x3c164046	0.009170597
145	0xbe1407c2	-0.14456084
146	0xbcead6b8	-0.028666839
147	0x3da25300	0.07925987
148	0xbdf8ef88	-0.12155062
149	0xbe11557b	-0.14192764
150	0xbe467703	-0.19381337
151	0xbe1cfb7c	-0.15330309
152	0x3dd0e98e	0.10200797
153	0xbd487eca	-0.04894904
154	0x3e15d9a4	0.14633805
155	0xbd97dfaa	-0.074157074
156	0x3ebc213f	0.36744115
157	0xbe13430f	-0.1438105
158	0xbeac99c0	-0.33711052
159	0xbd857669	-0.065167256
160	0x3e1b0806	0.1513978
161	0xbf0351dd	-0.5129679
162	0x3da1740b	0.078834616
163	0x3c7ba0b6	0.015358141
164	0x3e465d3c	0.19371504
165	0xbe5d6e10	-0.21624017
166	0xbcefb84f	-0.02926269
167	0xbe161894	-0.14657813
168	0x3dbdfd91	0.092768796
169	0xbdfacc6c	-0.12246022
170	0x3e8422c4	0.25807774
171	0xbec471de	-0.38368124
172	0xbf066699	-0.525003
173	0x3de98a5f	0.11403345
174	0xbed98256	-0.4248225
175	0xbe10bd86	-0.14134797
176	0xbee7f0f4	-0.4530102
177	0x3b75417d	0.0037423067
178	0x3d6a351b	0.05717955
179	0xbebdbca9	-0.37058
180	0x3e07edaf	0.13274263
181	0xbdcf7195	-0.10129086
182	0x3daf7908	0.08568007
183	0xbc086856	-0.008325657
184	0x3e2b543b	0.1673135
185	0xbf10315b	-0.5632531
186	0x3caa0748	0.020755425
187	0x3e35123c	0.17682737
188	0xbddfbbc3	-0.109244846
189	0x3c7078ba	0.014677221
190	0x3df0c184	0.1175566
191	0xbdc20430	-0.09473455
192	0xbd2c3fd0	-0.042053044
193	0xbecc0bb8	-0.3985269
194	0x3ea2bfb2	0.31786877
195	0xbf10ef8d	-0.56615525
196	0xbda5a715	-0.08088509
197	0xbde9fa8c	-0.11424741
198	0xbabc8d77	-0.0014385422
199	0x3d1010af	0.03517216
200	0xbe0ae294	-0.13562995
201	0xbe14f7bd	-0.1454763
202	0x3eb7d450	0.3590417
203	0x3ebc20cb	0.3674377
204	0x3e26b751	0.16280867
205	0xbc4edd98	-0.012626074
206	0x3efcaf49	0.49352482
207	0xbe65f90a	-0.22458282
208	0x3e3d02d0	0.18458104
209	0x3e2e1a6c	0.17002267
210	0xbbb49fb9	-0.0055122045
211	0x3de93a1e	0.11388038
212	0xbd650ea2	-0.055922158
213	0xbe24841a	-0.16066018
214	0x3de15398	0.11002272
215	0xbeab531a	-0.3346184
216	0x3e728719	0.23684348
217	0x3d0f0b2d	0.034922767
218	0x3e1ef375	0.15522559
219	0x3d9fb0c1	0.07797385
220	0x3f0f8efd	0.5607756
221	0xbda988f2	-0.08278073
222	0xbebcac53	-0.36850223
223	0x3da66e27	0.08126479
224	0x3e52dc50	0.20591855
225	0xbed903e8	-0.42385793
226	0xbd54b00a	-0.051925696
227	0xbd7015ad	-0.05861442
228	0xbd19245c	-0.03738819
229	0xbda2273c	-0.079176396
230	0xbc558e78	-0.0130344555
231	0x3c21ec0e	0.00988294
232	0x3ec4297f	0.3831291
233	0x3d8b25ae	0.06794296
234	0x3e981d1c	0.2970971
235	0xbeced88f	-0.40399596
236	0xbf18b933	-0.5965759
237	0x3db29ec6	0.0872169
238	0xbe89d326	-0.26918906
239	0xbde8f9d9	-0.1137578
240	0xbecae03e	-0.39624208
241	0x3dd9d79c	0.10636827
242	0x3dc14133	0.09436264
243	0xbeddc933	-0.43317565
244	0x3e4e3cba	0.20140353
245	0x3ba7cbec	0.005120745
246	0x3e5446e9	0.20730175
247	0x3d0b85ab	0.034063023
248	0x3d5fa521	0.05460084
249	0xbf2b0b86	-0.6681446
250	0x3c1585a6	0.009126103
251	0x3ef1bad9	0.47212866
252	0xbdaf62e1	-0.085637815
253	0x3e1a5137	0.15070044
254	0x3daf46ca	0.08558424
255	0x3d8cbc2f	0.06871831

Linear2.bias f4 [64]
0	0xbdddae2d	-0.10824237
1	0x3ce9fc7a	0.028562773
2	0xbe07b614	-0.13253051
3	0xbe5e49b0	-0.21707797
4	0xbde58bba	-0.11208291
5	0x3a395c00	0.0007070899
6	0x3d95b020	0.07308984
7	0xba21ce00	-0.0006172359
8	0xbca4ec2b	-0.020132145
9	0xbc0b2dfe	-0.008494852
10	0x3d016f5c	0.03160034
11	0xbe00cf2a	-0.12579027
12	0xbdb8b050	-0.09018004
13	0xbdcc065a	-0.09962149
14	0xbce33009	-0.027732866
15	0xbe4440c2	-0.19165328
16	0xbe6c10d2	-0.23053291
17	0x3c1e5212	0.009663122
18	0xbe11887d	-0.14212222
19	0xbd15a321	-0.036532525
20	0xbdf6c468	-0.1204918
21	0x3d4e5813	0.050376963
22	0x3e706faa	0.23480096
23	0xbca50e04	-0.020148285
24	0xbd0b037d	-0.033938874
25	0xbba62810	-0.005070694
26	0xbd2be081	-0.04196215
27	0xbc06b1d7	-0.008221111
28	0xbd275ce9	-0.04086009
29	0x3cfdeabb	0.030995717
30	0xbd2a4911	-0.041573588
31	0xbd84a842	-0.06477405
32	0xbe0d4e77	-0.13799463
33	0xbe4f0639	-0.20217218
34	0x3dc19679	0.094525285
35	0x3dcede43	0.10100987
36	0x3cc93819	0.024562882
37	0xbd9b1ef1	-0.07574261
38	0xbe1678ef	-0.1469457
39	0xbd418e29	-0.047254715
40	0xbd36c83c	-0.044624552
41	0xbdeb0ebb	-0.11477419
42	0xbe6d5fa7	-0.2318102
43	0x3c906bb0	0.017629474
44	0xbdb91f42	-0.09039165
45	0xbdd680e5	-0.104738034
46	0xbe925d00	-0.28586578
47	0xbe522a13	-0.20523863
48	0xbe29e9c2	-0.16593078
49	0xbdd7ca78	-0.10536665
50	0xbdd9c843	-0.106339
51	0xbda2c722	-0.07948138
52	0x3dcc53f1	0.09976948
53	0xbdd4e754	-0.10395685
54	0xbdbcf1aa	-0.09225781
55	0x3e180279	0.14844693
56	0xbe236a06	-0.15958413
57	0xbdd141ac	-0.10217604
58	0xbe373e97	-0.1789497
59	0x3a9d64bd	0.0012008172
60	0xbe79dc63	-0.24400477
61	0x3cd4275c	0.025897674
62	0xbe0d8c5a	-0.13823071
63	0xbe18982f	-0.14901803

Linear3.weight f4 [64, 64]
0	0x3d9e228d	0.07721434
1	0x3d05c2ee	0.032656603
2	0x3e4bd9ea	0.19907346
3	0x3d1e4f44	0.038649812
4	0xbddfc36e	-0.10925947
5	0x3daa1cca	0.08306272
6	0xbdbb4481	-0.091439255
7	0x3dbfa1be	0.09357022
8	0xbc4bdd70	-0.0124429315
9	0x3c4431d5	0.0119747715
10	0xbce96f08	-0.028495327
11	0xbc9d9c66	-0.019239616
12	0x3e2178c2	0.15768722
13	0x3b54a792	0.0032448513
14	0xbd900f75	-0.07034198
15	0xbb1714a2	-0.002305307
16	0x3e6b1c84	0.22960097
17	0x3cfab93b	0.030605903
18	0xbd5650e4	-0.052323237
19	0xbd693d08	-0.05694297
20	0x3e392307	0.18079768
21	0xbe725e34	-0.23668748
22	0x3e264397	0.16236721
23	0x3d807ed1	0.06274188
24	0x3e5f6b64	0.2181831
25	0x3df8a772	0.12141313
26	0xba9fc2a0	-0.001218874
27	0xbd1702ea	-0.036868013
28	0x3db66f9d	0.08908007
29	0xbe286a42	-0.16446784
30	0x3d04a250	0.032381356
31	0xbd87d66c	-0.066326946
32	0xbd58a006	-0.052886985
33	0x3e19b7af	0.15011476
34	0x3d6b2c6b	0.057415407
35	0x3d8ef110	0.06979573
36	0xbcd7a25c	-0.026322536
37	0x3e16f784	0.14742857
38	0x3e01b26e	0.12665722
39	0x3cf3d6ce	0.029765513
40	0xbacfa400	-0.0015841722
41	0x3e17fe95	0.14843209
42	0xba34dae6	-0.00068990735
43	0xbd849926	-0.06474523
44	0xbd382f2f	-0.044966873
45	0x3d730ec2	0.059340246
46	0x3e62ad0d	0.22136326
47	0x3da8d099	0.08242912
48	0x3db01142	0.08597042
49	0xbc8c0a3c	-0.017094724
50	0x3d632132	0.05545158
51	0xbd767988	-0.060174495
52	0xbb8cdc48	-0.0042987205
53	0xbdaf4903	-0.08558848
54	0xbe72ee0e	-0.23723623
55	0x3e3dcce4	0.18535191
56	0x3de26cc7	0.11055904
57	0xbd14c770	-0.03632301
58	0xbda43071	-0.08017052
59	0xbdd1ae25	-0.102382936
60	0x3ec3753f	0.3817539
61	0x3a9bce85	0.0011887109
62	0x3cddb578	0.02706407
63	0x3e5a7ac6	0.21335897
64	0xbd12fd18	-0.0358859
65	0xbd8037d0	-0.062606454
66	0x3af2e4d0	0.0018531326
67	0xbbc02139	-0.0058633354
68	0x3b8d10f1	0.004304998
69	0x3a526700	0.00080262125
70	0xbd0a5b32	-0.033778377
71	0xbde579dc	-0.112048835
72	0x3d9ef44c	0.0776144
73	0xbb51bdd2	-0.003200401
74	0xbddcc54c	-0.10779819
75	0xbd183378	-0.03715846
76	0xbea11b52	-0.31466156
77	0x3e013762	0.12618783
78	0x3e20d8e8	0.15707743
79	0xbc48c216	-0.012253305
80	0xbd990952	-0.07472481
81	0x3dbd4f40	0.09243631
82	0x3ddcc873	0.1078042
83	0x3da8d8a4	0.08244446
84	0xbe927cb4	-0.28610766
85	0x3c0f8a2d	0.008760971
86	0x3ddb671e	0.107130274
87	0xbc7dfab5	-0.015501668
88	0xbe264378	-0.16236675
89	0x3c7f08ff	0.01556611
90	0xbd253688	-0.04033521
91	0x3d8e0404	0.0693436
92	0xbdb69fdb	-0.08917209
93	0x3d34cf7b	0.04414318
94	0x3c54c28c	0.012985837
95	0x3d8eff92	0.0698234
96	0xbce5fffa	-0.02807616
97	0x3c8b3ffa	0.01699828
98	0x3d986d2c	0.07442698
99	0xbdd851d3	-0.10562482
100	0x3d95cf2e	0.07314907
101	0xbdb88317	-0.090093784
102	0x3da8ec8e	0.08248244
103	0x3dbdcd37	0.09267657
104	0xbd816930	-0.06318891
105	0xbe281f01	-0.16418077
106	0xbd108dee	-0.035291605
107	0xbd9110e2	-0.07083298
108	0x3d8dff35	0.069334425
109	0x3d39e72a	0.04538647
110	0xbe0c5240	-0.13703251
111	0xbe0f5cd9	-0.14000262
112	0xbe6a8200	-0.22901154
113	0xbe899907	-0.26874563
114	0x3d389468	0.045063406
115	0x3c1ade80	0.009452462
116	0xbc9838b5	-0.018581728
117	0x3d643280	0.055712223
118	0x3ce2cf41	0.027686717
119	0xbd92d971	-0.0717038
120	0xbe05889a	-0.1304039
121	0x3d088848	0.033333093
122	0xbe9c7b58	-0.30562854
123	0x3c990b28	0.018682078
124	0x3d83ff19	0.064451404
125	0xbdb825c3	-0.089915775
126	0x3d73e5d2	0.059545346
127	0xbefe939b	-0.4972199
128	0xbdade3a2	-0.08490683
129	0xbd140e7e	-0.036146633
130	0xbda050e5	-0.078279294
131	0x3c989fc2	0.018630866
132	0xbda6ce10	-0.08144772
133	0x3da124d8	0.078683555
134	0xbe02f394	-0.1278823
135	0xbd23cb38	-0.039988726
136	0x3c5b4abb	0.013384516
137	0x3c928cc5	0.01788939
138	0x3d7ebc10	0.06219107
139	0xbd201ec3	-0.039091837
140	0x3c308719	0.010774397
141	0xbe1038cd	-0.14084168
142	0xbd295d23	-0.041348588
143	0xbcfcddb9	-0.030867444
144	0xbe08788a	-0.13327232
145	0xbdb730c7	-0.089448504
146	0x3d35c270	0.044374883
147	0xbdd822e0	-0.10553527
148	0x3da634ee	0.08115564
149	0xbdbe8b09	-0.093038626
150	0xbdb55ad9	-0.088552184
151	0x3d3dcf18	0.046340078
152	0xbd402d31	-0.046918098
153	0x3c380f85	0.011234169
154	0x3d976bb7	0.07393592
155	0x3dc4a38c	0.096015066
156	0x3d989309	0.0744992
157	0xbe034c0a	-0.12821975
158	0x3dc394ab	0.095498405
159	0x3cc3b6ce	0.023890879
160	0x3c13168f	0.008977546
161	0xbd8ec579	-0.06971259
162	0xbdc54fc1	-0.096343525
163	0xbdf4f56c	-0.11960873
164	0x3c1cec27	0.0095777875
165	0xbe1b4afc	-0.15165323
166	0xbe0a564f	-0.13509487
167	0x3daceb1a	0.084432796
168	0xbd3eb1b4	-0.04655619
169	0xbddcd2c8	-0.10782391
170	0xbe020e26	-0.1270071
171	0x3cd6a148	0.026199952
172	0xbdef64b9	-0.11689133
173	0xbd6e0e91	-0.05811936
174	0xbdd2fa58	-0.103016555
175	0xbdd3f226	-0.103489205
176	0x3d682918	0.056679815
177	0x3dbc2eb1	0.09188593
178	0x3d8c0168	0.06836206
179	0x3c0148f0	0.007890925
180	0xbc7bf306	-0.0153777655
181	0xbe10a637	-0.14125906
182	0xbd1842da	-0.03717313
183	0x3cfea18d	0.031082893
184	0xbdd7fa9b	-0.10545846
185	0x3d8c44a6	0.06849031
186	0xbda84384	-0.082160026
187	0xbde29054	-0.11062685
188	0x3c70f763	0.014707419
189	0x3dd46c58	0.103722274
190	0x3def05c4	0.116710216
191	0xbdbd5edf	-0.09246611
192	0xbde9af02	-0.11410333
193	0x3d66d40f	0.05635458
194	0xbdef4b0b	-0.11684235
195	0x3d842383	0.06452086
196	0x3de39a25	0.11113385
197	0xba9fe780	-0.001219973
198	0x3d7360ed	0.059418608
199	0xbdd04c96	-0.101708576
200	0x3da2be8e	0.07946502
201	0x3da5c8e1	0.08094955
202	0x3dfb209c	0.12262079
203	0x3c2a1494	0.010380883
204	0x3d8069f3	0.06270208
205	0xbdd54549	-0.10413606
206	0x3bb95ce2	0.0056568244
207	0x3c78a4ab	0.015175979
208	0xba8250ed	-0.0009942331
209	0xbd4c8fa5	-0.049941678
210	0x3d20aebb	0.039229136
211	0x3d6976a3	0.056997906
212	0xbde68939	-0.11256642
213	0xbd583286	-0.052782558
214	0xbe00645f	-0.12538289
215	0x3c6b653c	0.014367398
216	0x3d85623a	0.06512876
217	0xbdda1060	-0.106476545
218	0xbe0269c5	-0.1273566
219	0xbdabd5fa	-0.08390422
220	0x3daad40f	0.08341228
221	0xbd9edfec	-0.077575535
222	0xbd7de809	-0.061988864
223	0xbd0dbf5b	-0.03460632
224	0xbcacffee	-0.02111813
225	0xbdcf7454	-0.1012961
226	0xbd8b93fd	-0.06815336
227	0xbde0345a	-0.10947485
228	0x3df16fa1	0.1178887
229	0x3db65624	0.08903149
230	0x3d35939e	0.04433023
231	0xbd437b4e	-0.047725014
232	0xbd829e7a	-0.06377883
233	0x3dec4a08	0.11537558
234	0xbdbb457c	-0.091441125
235	0xbdde7b76	-0.10863392
236	0x3d23c2ac	0.039980575
237	0x3d95fbba	0.07323404
238	0x3da0edb5	0.07857839
239	0xbb25b4ce	-0.002528477
240	0xbcc66bab	-0.024221262
241	0xbe13c326	-0.14429912
242	0xbd262814	-0.040565565
243	0x3d76899c	0.06018983
244	0xbd98748c	-0.074441046
245	0xbd7f8e39	-0.062391493
246	0x3bb27e43	0.0054471805
247	0xbd7d4014	-0.061828688
248	0xbc7ef7ff	-0.015562057
249	0xbdf77d72	-0.12084474
250	0xbd3811a5	-0.044938702
251	0x3ce055fd	0.027384752
252	0x3d3d02d1	0.046145264
253	0xbada4126	-0.0016651496
254	0x3d5b4bc4	0.053539053
255	0x3dab873a	0.08375402

Linear3.bias f4 [64]
0	0xbe4231a3	-0.18964247
1	0xbe9990d9	-0.29993322
2	0x3dcf7512	0.10129751
3	0xbcb3be14	-0.021941222
4	0xbdc9113d	-0.09817741
5	0x3d93e890	0.07222092
6	0x3e1bdc76	0.15220818
7	0xbc59b8d2	-0.0132886935
8	0xbf197877	-0.5994944
9	0xbe16ed1c	-0.14738888
10	0xbe3bdafe	-0.18345258
11	0xbc8ce5ef	-0.017199485
12	0xbd7666b6	-0.060156547
13	0xbdc10001	-0.09423829
14	0x3a5a86e6	0.00083361415
15	0x3d80affa	0.06283565
16	0xbe0d7e75	-0.13817771
17	0xbde7561d	-0.11295722
18	0xbd8dd6e6	-0.06925754
19	0x3c8cd2b7	0.01719032
20	0x3bf7c128	0.007560868
21	0x3d70e38b	0.058810752
22	0x3ed35944	0.41279042
23	0xbe2db089	-0.16961874
24	0xbdf7fd4d	-0.1210886
25	0x3d012f70	0.03153938
26	0xbe1b865e	-0.15187976
27	0xbededc94	-0.43527663
28	0x3b913aab	0.0044320426
29	0xbdd74ba4	-0.10512474
30	0xbe25c40f	-0.16188072
31	0xbcfd0cdd	-0.030889923
32	0xbe92209b	-0.285405
33	0xbe97e542	-0.29667097
34	0xbe6d3010	-0.23162866
35	0xbee5a970	-0.44855833
36	0x3d5d62f7	0.05404946
37	0xbdc3b38f	-0.095557325
38	0xbe677bc0	-0.226058
39	0xbd1d5f8d	-0.038421202
40	0xbe9c191e	-0.30487913
41	0xbd734ad2	-0.059397526
42	0xbd8f7642	-0.07004978
43	0xbe6471f0	-0.22309089
44	0xbc4a7319	-0.012356543
45	0xbe03ea39	-0.12882318
46	0xbc0e6816	-0.008691808
47	0xbecadadc	-0.396201
48	0xbcc558f7	-0.024090273
49	0x3c429ec7	0.011878676
50	0xbd4b821c	-0.04968463
51	0x3dd82da1	0.10555578
52	0x3e1212ca	0.1426498
53	0x3d605e24	0.05477728
54	0xbe461ed4	-0.19347697
55	0xbdbf6d26	-0.0934699
56	0xbe0b79d9	-0.136207
57	0xbda26ffd	-0.07931516
58	0x3d03627e	0.03207635
59	0xbe9dd658	-0.30827594
60	0xbe8fc764	-0.2808181
61	0x3ca5cc8d	0.020239139
62	0xbdfe2434	-0.12409249
63	0xbdb1a509	-0.08674056

Linear_last.weight f4 [2, 64]
0	0x3f438a27	0.7638268
1	0xbd937eda	-0.072019294
2	0xbdd64b18	-0.10463542
3	0x3dd2f8d6	0.10301368
4	0x3c62ad63	0.013835284
5	0x3d7d20e7	0.061798956
6	0x3f0739fa	0.5282284
7	0x3def47bb	0.116836034
8	0xb853bc29	-5.0481558e-05
9	0xbdd5e5e0	-0.10444236
10	0x3d9c39b2	0.07628192
11	0xbcb09231	-0.021554084
12	0xbd1aaa77	-0.037760224
13	0x3bf54e9a	0.0074861767
14	0x3ce8e1b9	0.028427945
15	0x3d66bd07	0.056332614
16	0xbdf32d2a	-0.11873849
17	0xbd4a40bf	-0.049378153
18	0x3c0f625c	0.008751478
19	0x3f2a91dc	0.66628814
20	0x3deabe81	0.11462117
21	0xbce77926	-0.02825601
22	0x3f48d4f8	0.78449965
23	0x3eda129a	0.42592317
24	0xbd668850	-0.05628234
25	0x3f0819de	0.5316447
26	0x3ba1eaae	0.004941306
27	0xbf3951a6	-0.7239021
28	0xbcd5d10b	-0.026100656
29	0xbceb4a41	-0.02872193
30	0xbd0004f8	-0.03125474
31	0xbc5acf54	-0.013355095
32	0xbe830267	-0.2558777
33	0x3e706d9b	0.23479311
34	0xbd153c7e	-0.036434643
35	0xbe4f1e36	-0.20226368
36	0x3e2377a4	0.15963608
37	0x3ecb104d	0.39660874
38	0x3f4f8d6a	0.81075156
39	0x3da3f4b8	0.08005661
40	0x3e93d23c	0.28871334
41	0xbd2e42e5	-0.042544264
42	0xbd052189	-0.032502685
43	0xbdefd5a9	-0.11710674
44	0xbc87852d	-0.016542995
45	0xbd0c5a8e	-0.034266047
46	0x3da072c6	0.07834391
47	0xbebef461	-0.3729582
48	0x3bf5dff3	0.0075035035
49	0x3d775648	0.06038502
50	0xbc0d534a	-0.008625815
51	0x3e45a6e5	0.19301946
52	0x3f2a6131	0.6655455
53	0x3d12119d	0.03566133
54	0x3f810484	1.0079503
55	0x3d14725d	0.036241878
56	0x3e2833e9	0.16426052
57	0xbaab3667	-0.0013062478
58	0xbb3403aa	-0.0027468004
59	0xbe9eede2	-0.31040865
60	0x3f59e180	0.8510971
61	0x3cb8d507	0.022562517
62	0x3d1ec6cc	0.038763806
63	0xbd92d287	-0.07169061
64	0xbc9f494c	-0.01944413
65	0xbbf4deed	-0.007472864
66	0xbcac0c3d	-0.02100193
67	0x3db75be8	0.089530766
68	0x3d96b0e8	0.07357961
69	0x3d8ab64d	0.06773052
70	0x3b88ccca	0.0041748034
71	0x3d5105d0	0.051030934
72	0xbe99ad20	-0.30014896
73	0x3dc3d621	0.09562326
74	0x3d2a8855	0.041633923
75	0x3c72e2e3	0.014824602
76	0x3c69398b	0.014234911
77	0x3c7aae8b	0.015300403
78	0x3b51ceee	0.003201421
79	0x3d4272bb	0.047472697
80	0x3b33cd08	0.002743544
81	0xbc3e98a0	-0.011633068
82	0xbcaa5210	-0.020791084
83	0x3cb7ada0	0.022421658
84	0x3bda3b68	0.006659914
85	0x3dc19681	0.094525345
86	0xbb888c72	-0.004167133
87	0x3bb67e05	0.005569222
88	0x3d75d93e	0.06002163
89	0x3cf18552	0.029482517
90	0xbc1147e5	-0.008867239
91	0xbd47a6ba	-0.048742987
92	0x3ca28b9a	0.019841958
93	0xbcbab8fb	-0.022793284
94	0x3ca5c7b2	0.020236824
95	0x3db5c974	0.08876315
96	0xbcda5dcc	-0.026656054
97	0xbd529be3	-0.051418196
98	0x3ba204f1	0.0049444367
99	0xbe9601d8	-0.29298282
100	0x3d6b6c07	0.05747607
101	0xbc0ccbd5	-0.008593519
102	0xbd23314d	-0.03984194
103	0xbd54f7bc	-0.05199407
104	0x3c0642af	0.00819461
105	0xbd2b2434	-0.041782573
106	0xbd1a93d2	-0.03773863
107	0xbceb2dd7	-0.028708382
108	0x3cfed4e9	0.031107383
109	0x3c5f1fe2	0.013618441
110	0xbd816bca	-0.06319387
111	0x3c12a571	0.008950577
112	0xbb71c4fa	-0.0036891089
113	0x3c5b1ffd	0.013374326
114	0xbd29b38f	-0.041431006
115	0x3cd862f6	0.026414376
116	0x3c513736	0.012769511
117	0x3bf82795	0.007573078
118	0xbcda344c	-0.026636265
119	0x3b9bbf6d	0.0047530443
120	0x3b88d82c	0.0041761603
121	0x3dde3d81	0.10851575
122	0x3c9d0e64	0.019171901
123	0x3a4171d6	0.00073793286
124	0xbe543efa	-0.20727149
125	0x3ac0923d	0.001469202
126	0xbdd3d508	-0.10343367
127	0xbc47ffc9	-0.01220698

Linear_last.bias f4 [2]
0	0x3d9f5b5b	0.077810965
1	0x3a0fbc4c	0.00054830755
