method_min_euler_r/save/model/Phi_h_Model_32X32.pt (torch, 11955 bytes, 8 tensors)

Linear1.weight f4 [32, 2]
0.033569027 -0.86684644 0.019414878 0.30843738 -0.2571541 0.5682012 -0.015489546 0.36746067
0.06780851 -0.05637474 0.109734006 0.025738494 0.09942708 -0.44836226 -0.02734818 -0.050810065
0.023797244 -0.19156776 0.047269147 0.37015054 0.005281414 -0.7479067 -0.0063478854 -0.5591527
-0.023568196 0.36099508 0.0720595 0.65524316 -0.5744661 0.92548984 -0.003167671 0.8425283
0.00022172923 -1.1377151 -0.32541448 -0.8486579 0.21128717 -0.50263137 -0.002458169 -0.74097097
0.35577673 -0.59508616 0.21538818 -0.33127147 -0.17106752 0.8026152 -0.06189792 0.13101786
-0.0009093513 -0.4127945 -0.34352502 -0.58887106 0.010957868 0.013034077 0.5227359 0.90541357
-0.011208487 -0.7636077 0.24075554 0.6086277 -0.23975864 0.32319894 0.016542802 0.44626912
00000000: ad7f 093d a6e9 5dbf f30b 9f3c 81eb 9d3e
00000010: b4a9 83be a275 113f ddc7 7dbc ce23 bc3e
00000020: 30df 8a3d 33e9 66bd 39bc e03d 89d9 d23c
00000030: 6da0 cb3d bd8f e5be 4a09 e0bc 371e 50bd
00000040: 70f2 c23c 572a 44be 4b9d 413d 5f84 bd3e
00000050: b60f ad3b d076 3fbf ec01 d0bb a224 0fbf
00000060: 1712 c1bc 59d4 b83e ee93 933d 04be 273f
00000070: 3610 13bf e7ec 6c3f b398 4fbb efaf 573f
00000080: fd7f 6839 a6a0 91bf ba9c a6be a541 59bf
00000090: aa5b 583e 73ac 00bf 3b19 21bb 46b0 3dbf
000000a0: 5e28 b63e 9157 18bf b88e 5c3e 6a9c a9be
000000b0: 532c 2fbe 3178 4d3f ac88 7dbd 8c29 063e
000000c0: 8861 6eba cd59 d3be 83e2 afbe 41c0 16bf
000000d0: a188 333c e28c 553c 05d2 053f 2fc9 673f
000000e0: cda3 37bc cb7b 43bf 9f88 763e 06cf 1b3f
000000f0: 4a83 75be 557a a53e c584 873c 637d e43e

Linear1.bias f4 [32]
-0.39998594 -0.12022229 0.20297194 0.36371645 -0.56685984 -0.62960607 0.26420635 -0.18321145
-0.16999587 -0.0058169914 -0.040845685 -0.13050902 0.38033456 0.45352423 -0.417297 0.8348344
-0.4633273 -0.66602457 -0.17494464 -0.24140245 0.26180184 -0.62268496 -0.48084116 0.3499017
-0.24226482 0.29264325 -0.06748932 -0.4515742 -0.27322647 0.47731996 -0.6006489 -0.41509044
00000000: f5ca ccbe 1b37 f6bd e0d7 4f3e 0b39 ba3e
00000010: ba1d 11bf dd2d 21bf 0e46 873e c89b 3bbe
00000020: 6613 2ebe 769c bebb ce4d 27bd 28a4 05be
00000030: 36bb c23e 5434 e83e f4a7 d5be b5b7 553f
00000040: 3c39 edbe 9680 2abf b024 33be 3432 77be
00000050: e40a 863e 4868 1fbf d030 f6be 5126 b33e
00000060: 4514 78be 56d5 953e d737 8abd bc34 e7be
00000070: 57e4 8bbe 4863 f43e 20c4 19bf bc86 d4be

Linear2.weight f4 [32, 32]
0.25496805 -0.033867005 -0.24142379 -0.30283916 0.17978291 0.10266719 0.0364204 0.07125756
-0.19985951 -0.1361986 0.20251097 0.11356314 -0.11635873 -0.13498151 -0.0467663 -0.24494618
0.55847335 0.047704455 0.024759836 0.4025047 0.09063171 -0.023321481 -0.19116628 -0.29413074
0.080189064 -0.014757868 0.085490435 -0.21956073 0.30855203 -0.27839464 0.008468495 -0.0650625
-0.13212734 0.1405896 -0.12173571 -0.15539154 0.16116796 -0.03136586 0.061294045 0.12562327
-0.018157382 0.07833724 -0.1344741 -0.067071564 -0.21490954 -0.13461263 -0.26064795 -0.13642678
-0.10403723 -0.16817293 0.11306589 0.0427841 0.098063596 0.12820247 -0.15933001 0.040301785
-0.2781804 -0.0184837 -0.19412448 -0.14415373 -0.10512065 -0.20942013 0.106056966 -0.12798063
0.38439438 -0.068755284 -0.28678742 -0.16602854 -0.091477014 0.29841617 -0.06844275 -0.03870288
-0.217925 -0.07117164 -0.030164963 0.13661699 -0.23361237 -0.18330435 -0.1047122 -0.2507477
0.65954655 -0.10290013 0.0015276441 0.5171778 -0.027258348 0.024707505 -0.38564172 -0.2632903
-0.076315 0.04031983 -0.13522759 -0.21848841 0.13280548 -0.38434502 0.06126388 -0.09526817
-0.087171406 -0.0033778802 -0.034927007 -0.35882857 0.09236506 -0.008473449 0.12415259 -0.108231686
-0.0078946445 -0.19860268 0.14871728 -0.016117116 -0.07962643 -0.15410326 -0.14230241 -0.30825782
0.15175997 0.0223405 0.030347114 0.16773717 -0.17742622 -0.004638484 -0.08591717 0.0044596144
0.1413601 -0.1989887 -0.083769776 -0.0171509 -0.035098527 -0.037382256 -0.17707185 -0.16286413
0.07231335 -0.15063296 -0.07155935 0.10385933 0.14002286 0.119025536 -0.04899036 -0.13740158
0.16112599 -0.051399846 -0.08918549 0.028475972 -0.13664272 0.10319191 0.079931304 -0.1514947
-0.15915762 -0.04661274 0.06041703 -0.019452449 -0.10303047 -0.011149386 -0.19287057 -0.1408142
-0.1470458 0.11539475 0.14247277 -0.073647246 -0.006425088 0.065479234 -0.009099763 -0.09969268
-0.1363066 0.20903946 0.005585527 0.09699556 0.13801263 0.068911895 -0.061194014 0.15794428
0.13016252 -0.03719935 -0.0017332303 -0.2555644 0.25759566 0.019494707 0.060990315 0.30249438
-0.051455494 0.0051805223 -0.024877304 -0.19971213 -0.14051615 0.028667292 0.0130996145 0.09492779
0.053885765 -0.043101378 0.14331663 0.08907427 -0.21833053 0.118556805 -0.24262442 0.11176427
-0.0334886 0.035683274 0.006539166 -0.11265397 0.099557355 0.099068955 0.008902475 -0.10046024
-0.07511359 0.0024344027 -0.1009991 -0.09863401 -0.026369259 -0.050902918 0.04339528 -0.046464965
-0.023434073 -0.067472406 -0.16154924 0.15417172 0.033725873 0.15807806 -0.028489515 -0.044426247
-0.16618885 -0.067106314 0.11592521 -0.17314315 -0.06183037 0.10770284 0.10188441 0.065273955
-0.14036845 -0.2952009 -0.24305372 -0.21131837 0.07377325 -0.19694006 -0.05816166 0.028137373
-0.008779975 0.008681336 0.08823183 0.042006575 0.10093963 -0.13921688 -0.24069422 -0.09847709
-0.30558804 -0.1936163 0.119198754 -0.09977638 -0.005235832 -0.13440573 -0.28854138 0.15872063
-0.13278909 -0.062037695 0.057666842 -0.16983066 -0.25902268 -0.065003544 -0.09376835 -0.004660973
00000000: 2c8b 823e 21b8 0abd cc37 77be bc0d 9bbe
00000010: 0319 383e 2d43 d23d 8f2d 153d 7cef 913d
00000020: f9a7 4cbe a577 0bbe 095f 4f3e cb93 e83d
00000030: 7c4d eebd 9838 0abe 058e 3fbd 2cd3 7abe
00000040: 1cf8 0e3f bf65 433d 24d5 ca3c 1915 ce3e
00000050: 1e9d b93d b10c bfbc 18c1 43be 4e98 96be
00000060: 2a3a a43d fcca 71bc 9c15 af3d 87d4 60be
00000070: 88fa 9d3e be89 8ebe 71bf 0a3c 7d3f 85bd
00000080: 644c 07be b8f6 0f3e 9250 f9bd f61e 1fbe
00000090: 3709 253e 7d79 00bd 770f 7b3d 63a3 003e
000000a0: cabe 94bc 466f a03d 94b3 09be d15c 89bd
000000b0: 3f11 5cbe e5d7 09be a673 85be 76b3 0bbe
000000c0: 7911 d5bd 8635 2cbe 178f e73d 613e 2f3d
000000d0: 91d5 c83d 8247 033e 6827 23be 7c13 253d
000000e0: a96d 8ebe 216b 97bc 91c8 46be 099d 13be
000000f0: 7f49 d7bd 3b72 56be 6534 d93d 5b0d 03be
00000100: 57cf c43e 92cf 8cbd cdd5 92be 6303 2abe
00000110: 4d58 bbbd 01ca 983e b62b 8cbd e986 1ebd
00000120: bb27 5fbe 70c2 91bd 831c f7bc 53e5 0b3e
00000130: 1538 6fbe 23b4 3bbe 5a73 d6bd 0162 80be
00000140: 0bd8 283f 4ebd d2bd 3b3b c83a c465 043f
00000150: e64c dfbc 6567 ca3c d572 c5be fccd 86be
00000160: 0a4b 9cbd 6826 253d 1a79 0abe 6dbb 5fbe
00000170: 29fe 073e dfc8 c4be d6ef 7a3d f51b c3bd
00000180: ec86 b2bd 6d5f 5dbb 9f0f 0fbd 61b8 b7be
00000190: e429 bd3d 39d4 0abc b743 fe3d 93a8 ddbd
000001a0: 8a58 01bc 805e 4bbe 5849 183e 0b08 84bc
000001b0: 2f13 a3bd 3fcd 1dbe b9b7 11be f8d3 9dbe
000001c0: f766 1b3e 6d03 b73c 839a f83c 4bc3 2b3e
000001d0: 38af 35be 6dfe 97bb 57f5 afbd f521 923b
000001e0: b4c0 103e b2c3 4bbe 7d8f abbd 0b80 8cbc
000001f0: 79c3 0fbd 231e 19bd 5352 35be dbc5 26be
00000200: 0619 943d 873f 1abe b58d 92bd 33b4 d43d
00000210: 2762 0f3e a9c3 f33d 1eaa 48bd 00b3 0cbe
00000220: 36fe 243e a588 52bd e2a6 b6bd 7146 e93c
00000230: 12ec 0bbe 4856 d33d 06b3 a33d 6d21 1bbe
00000240: 37fa 22be 00ed 3ebd d977 773d be5a 9fbc
00000250: a401 d3bd eaab 36bc dd7f 45be 9931 10be
00000260: 2d93 16be 1554 ec3d 62e4 113e 5ed4 96bd
00000270: 8b89 d2bb fa19 863d 2c17 15bc ad2b ccbd
00000280: f593 0bbe 710e 563e cc06 b73b 9ca5 c63d
00000290: 2f53 0d3e ae21 8d3d 93a6 7abd 25bc 213e
000002a0: 5349 053e 585e 18bd 8f2d e3ba 56d9 82be
000002b0: 94e3 833e 5db3 9f3c fbd0 793d 8be0 9a3e
000002c0: ffc2 52bd 5fc1 a93b 7dcb cbbc 5681 4cbe
000002d0: 77e3 0fbe abd7 ea3c c49f 563c 8069 c23d
000002e0: 52b7 5c3d 128b 30bd 98c1 123e 926c b63d
000002f0: 0a92 5fbe e9cd f23d 8972 78be aae4 e43d
00000300: 582b 09bd a028 123d 8046 d63b 20b7 e6bd
00000310: bae4 cb3d aae4 ca3d b0db 113c 19be cdbd
00000320: 27d5 99bd 808a 1f3b 9ed8 cebd a100 cabd
00000330: 5804 d8bc 947f 50bd 40bf 313d 0c52 3ebd
00000340: d0f8 bfbc f92e 8abd 2a6d 25be 31df 1d3e
00000350: 2424 0a3d 37df 213e d862 e9bc 4cf8 35bd
00000360: 692d 2abe 096f 89bd 326a ed3d 704c 31be
00000370: d841 7dbd 4e93 dc3d c6a8 d03d 5aae 853d
00000380: bfbc 0fbe 9324 97be 13e3 78be d863 58be
00000390: 6e16 973d a8aa 49be ec3a 6ebd 5980 e63c
000003a0: e2d9 0fbc 2a3c 0e3c e4b2 b43d 160f 2c3d
000003b0: 70b9 ce3d df8e 0ebe 8c78 76be 5bae c9bd
000003c0: 0976 9cbe 5a43 46be 7a1e f43d 8f57 ccbd
000003d0: 5891 abbb a8a1 09be b2bb 93be a987 223e
000003e0: ddf9 07be 3d1b 7ebd 1134 6c3d 17e8 2dbe
000003f0: 9f9e 84be 9420 85bd 9f09 c0bd 13bb 98bb

Linear2.bias f4 [32]
-0.058132064 0.04768692 -0.06462018 -0.07965509 -0.06332711 -0.024720093 -0.096674375 0.079630665
-0.17240435 -0.07321354 0.3083329 0.21859014 -0.17424208 0.09132363 -0.11104982 -0.05140647
-0.07488082 0.117421195 -0.073614776 0.057804383 -0.22820796 0.07118194 -0.021977773 -0.008027732
-0.042247437 -0.28740454 -0.0872033 -0.116411865 -0.15414889 -0.29122633 -0.19323725 -0.004315618
00000000: e31b 6ebd 5c53 433d 9657 84bd 3522 a3bd
00000010: a5b1 81bd cb81 cabc 37fd c5bd 6715 a33d
00000020: c48a 30be fbf0 95bd cfdd 9d3e 18d6 5f3e
00000030: 846c 32be e207 bb3d 176e e3bd 978f 52bd
00000040: 1e5b 99bd 867a f03d 58c3 96bd 4ac4 6c3d
00000050: 59af 69be d6c7 913d bb0a b4bc c086 03bc
00000060: a60b 2dbd b026 93be a597 b2bd 5869 eebd
00000070: 35d9 1dbe 9e1b 95be fcdf 45be 076a 8dbb

Linear3.weight f4 [32, 32]
-0.12457734 -0.10499764 -0.0015287548 -0.08696418 0.16363312 -0.11216724 -0.09829317 -0.0063987267
-0.14636892 0.09025385 0.08726399 -0.14303051 -0.06571568 0.16497998 -0.12787923 0.039003126
-0.14925842 -0.13129008 -0.00491954 -0.10640935 0.08760101 -0.056510706 -0.0028219635 -0.09229129
0.064235166 0.15487877 -0.07861663 -0.11451796 -0.17958935 0.16400394 0.07450725 0.036503702
0.05331501 0.16545224 0.09199557 0.16772024 0.10060737 -0.18053527 0.15226452 0.08635069
-0.014395967 0.045945957 0.11645928 0.22577462 0.11198424 -0.07633111 -0.03690593 0.04714747
0.13443626 0.17939027 0.061353974 0.05281507 0.04265519 -0.102727085 0.10456355 0.018709391
-0.15882353 -0.54283965 -0.16536036 -0.301948 -0.24234925 -0.05289085 0.08617735 0.009566332
0.16143401 -0.05640629 0.06821056 -0.17898183 -0.021805331 -0.14026837 -0.033661067 0.121691965
0.07763649 -0.072568156 -0.03971317 -0.07171887 -0.06725059 -0.09683729 0.12980683 0.08965805
0.16733783 -0.083275154 0.12945114 -0.031497188 -0.041532204 -0.071606845 0.012470369 -0.07741025
0.0241756 -0.11708904 0.042823568 -0.14824897 -0.06408567 -0.13251449 0.11924811 0.10720606
-0.27666974 -0.21384133 -0.559403 -0.048390914 0.13167901 -0.22499001 0.07978363 -0.041588586
-0.014481428 -0.033799607 0.35262567 0.12208963 0.050722986 0.019586837 -0.07380196 -0.14678313
0.19838418 -0.07203443 0.1439045 0.026721792 -0.14085077 -0.1094353 -0.10914039 -0.0032097995
0.11729571 0.4539535 -0.24658662 -0.369668 -0.49977016 -0.6284358 0.11340134 -0.088198185
0.17658408 0.04078113 0.16174039 0.0009754077 0.099594 -0.28152832 0.12676431 -0.026381506
0.33632082 0.07107743 0.24752311 0.0059368084 0.12453525 -0.016711991 0.0015327781 0.15929075
0.48360267 0.04330136 0.13939837 0.11459167 0.23422231 -0.017005272 0.12738362 0.06681548
0.5012449 1.0074914 -0.29901245 0.6285545 0.2963719 0.461338 -0.032667983 -0.1407473
-0.012481249 0.06606534 -0.03522958 -0.02404599 0.0006263852 0.06724111 0.013831809 -0.1843418
-0.14922982 -0.015932614 -0.04039459 0.14273253 -0.041556165 0.13528861 -0.14908755 -0.1941711
-0.016261652 -0.13882607 -0.05155231 -0.006287701 -0.12099883 0.09557345 -0.13363191 0.13563614
0.057784274 -0.033152565 -0.18088442 0.02925843 -0.09875776 0.15278153 -0.14871359 -0.07313092
-0.038016953 -0.0184946 -0.01749948 0.06749727 0.0016950333 -0.39080602 0.09033267 -0.07266339
-0.08572998 0.10376761 0.29206255 0.056837093 -0.14882168 0.13821538 0.043012798 0.020055994
0.021830546 0.105339 -0.109676905 0.15713249 0.18955919 0.07435842 0.19049728 0.09753092
0.15670517 -0.39867687 -0.500354 -0.40813053 -0.2534384 -0.10989328 0.15256232 0.022486338
0.12979473 0.026786653 0.08111287 0.22258012 0.09539354 0.0063661747 -0.044709668 0.04134881
-0.008800787 -0.0050595417 -0.10300137 0.16926698 0.14721967 -0.07150234 -0.037936002 -0.03906599
0.14916983 0.07902386 -0.131854 0.07586093 -0.20464706 -0.05985492 0.033088986 0.012249261
-0.24376698 -0.16278915 0.0051937336 -0.2198367 0.09599573 0.06333329 0.15061373 -0.083159186
00000000: 6822 ffbd 0109 d7bd 8060 c8ba 471a b2bd
00000010: 718f 273e f0b7 e5bd ee4d c9bd 69ac d1bb
00000020: bce1 15be 03d7 b83d 76b7 b23d 9776 12be
00000030: f195 86bd 83f0 283e c6f2 02be bec1 1f3d
00000040: 33d7 18be e870 06be 1834 a1bb 25ed d9bd
00000050: 2968 b33d c577 67bd b1f0 38bb 3703 bdbd
00000060: ba8d 833d 8a98 1e3e c101 a1bd 6488 eabd
00000070: 45e6 37be a6f0 273e 4297 983d e884 153d
00000080: d760 5a3d 506c 293e 2c68 bc3d dbbe 2b3e
00000090: 3d0b ce3d 3dde 38be 3beb 1b3e a1d8 b03d
000000a0: 10dd 6bbc d431 3c3d 3482 ee3d 7631 673e
000000b0: fe57 e53d 7c53 9cbd ac2a 17bd b51d 413d
000000c0: a9a9 093e 15b2 373e 4e4e 7b3d 9d54 583d
000000d0: 35b7 2e3d 9462 d2bd 6a25 d63d 7044 993c
000000e0: a3a2 22be 8af7 0abf 3a54 29be ee98 9abe
000000f0: 672a 78be 13a4 58bd c07d b03d 1bbc 1c3c
00000100: f54e 253e 480a 67bd fab1 8b3d 0347 37be
00000110: 18a1 b2bc 83a2 0fbe 30e0 09bd a339 f93d
00000120: e1ff 9e3d 9d9e 94bd 47aa 22bd 58e1 92bd
00000130: adba 89bd a152 c6bd 15ec 043e a49e b73d
00000140: 9c5a 2b3e 2a8c aabd d78e 043e 3203 01bd
00000150: ac1d 2abd 9ca6 92bd 8550 4c3c 4489 9ebd
00000160: e80b c63c 61cc efbd c467 2f3d 94ce 17be
00000170: 593f 83bd e1b1 07be 5a38 f43d da8e db3d
00000180: a8a7 8dbe 39f9 5abe 0935 0fbf 8d35 46bd
00000190: ddd6 063e c863 66be 9a65 a33d cb58 2abd
000001a0: 8343 6dbc 7571 0abd 5a8b b43e 210a fa3d
000001b0: e8c2 4f3d 9374 a03c 7b25 97bd 514e 16be
000001c0: 3925 4b3e ca86 93bd b45b 133e a9e7 da3c
000001d0: 2f3b 10be 9d1f e0bd ff84 dfbd 805b 52bb
000001e0: bc38 f03d 986c e83e 3481 7cbe 2045 bdbe
000001f0: e0e1 ffbe 2be1 20bf f63e e83d 40a1 b4bd
00000200: 75d2 343e 1d0a 273d 469f 253e 81b2 7f3a
00000210: f0f7 cb3d 7b24 90be 81ce 013e 071e d8bc
00000220: 3e32 ac3e 0b91 913d b376 7d3e 8f89 c23b
00000230: 560c ff3d 96e7 88bc 80e7 c83a 1d1d 233e
00000240: c59a f73e c45c 313d 72be 0e3e 0aaf ea3d
00000250: f9d7 6f3e a44e 8bbc da70 023e 8ed6 883d
00000260: 9651 003f 7af5 803f 2918 99be f3e8 203f
00000270: 0fbe 973e 7f34 ec3e ddce 05bd 0f20 10be
00000280: 277e 4cbc 444d 873d e44c 10bd 19fc c4bc
00000290: 0034 243a b5b5 893d d09e 623c 19c4 3cbe
000002a0: b4cf 18be 1d85 82bc cc74 25bd 7a28 123e
000002b0: cc36 2abd 1989 0a3e 68aa 18be cad4 46be
000002c0: 2837 85bc 6c28 0ebe 8428 53bd 0f09 cebb
000002d0: 3cce f7bd 03bc c33d ced6 08be 33e4 0a3e
000002e0: 34af 6c3d fcca 07bd c439 39be 60af ef3c
000002f0: 8241 cabd c372 1c3e 6048 18be aac5 95bd
00000300: aab7 1bbd fd81 97bc 125b 8fbc 023c 8a3d
00000310: e12b de3a ba17 c8be 5600 b93d 8bd0 94bd
00000320: 3393 afbd 1d84 d43d 3989 953e 03ce 683d
00000330: b664 18be 5588 0d3e 302e 303d 784c a43c
00000340: f9d5 b23c f9bb d73d 499e e0bd 57e7 203e
00000350: ce1b 423e 3a49 983d b811 433e 4abe c73d
00000360: 5277 203e 601f ccbe 3317 00bf 7cf6 d0be
00000370: aec2 81be ba0f e1bd 4c39 1c3e 4535 b83c
00000380: e9e8 043e af6f db3c 811e a63d 0bec 633e
00000390: b05d c33d 589b d03b 7c21 37bd 5f5d 293d
000003a0: 2d31 10bc 83ca a5bb 62f2 d2bd 5354 2d3e
000003b0: c1c0 163e d26f 92bd c862 1bbd a903 20bd
000003c0: fabf 183e 43d7 a13d bc04 07be fa5c 9b3d
000003d0: 008f 51be 6f2a 75bd 5188 073d 20b1 483c
000003e0: 0d9e 79be 33b2 26be 3230 aa3b df1c 61be
000003f0: 6999 c43d e2b4 813d 7c3a 1a3e 5d4f aabd

Linear3.bias f4 [32]
-0.09165291 0.030663187 -0.11076287 0.20216915 -0.16078806 -0.118247636 0.031439666 -0.021814683
-0.11757394 -0.05665831 -0.069306634 -0.1329939 -0.11423702 0.18003277 -0.3734417 0.14488024
-0.12396781 -0.3794858 0.2555477 -0.08878677 -0.016365241 0.15379633 -0.13797493 -0.06344829
-0.07271124 -0.12759922 -0.054673065 -0.10683339 -0.07699282 -0.16769882 -0.23771091 0.10779146
00000000: 85b4 bbbd 5d31 fb3c a5d7 e2bd 6e05 4f3e
00000010: a0a5 24be d12b f2bd e1c6 003d b5b4 b2bc
00000020: 9bca f0bd 8b12 68bd a3f0 8dbd 8e2f 08be
00000030: 19f5 e9bd 835a 383e c033 bfbe 7c5b 143e
00000040: d6e2 fdbd f64b c2be 26d7 823e d7d5 b5bd
00000050: 6610 86bc c97c 1d3e 4d49 0dbe 2df1 81bd
00000060: a1e9 94bd 5fa9 02be ddf0 5fbd 77cb dabd
00000070: 69ae 9dbd 3db9 2bbe 7d6a 73be c5c1 dc3d

Linear_last.weight f4 [2, 32]
0.09706395 0.49613246 0.017278835 0.6346469 1.0605756 0.14220715 0.8566819 -0.074518725
1.1632153 0.0162677 -0.08545498 0.18921493 0.12062119 0.57608074 -0.026198454 0.6665444
0.054326057 -0.13852966 0.84089935 0.88599074 -0.07283186 -0.42302278 0.441695 0.012950348
-0.09422566 0.16288677 -0.25533587 0.118098274 0.5211602 -0.112247765 -0.012427447 -0.53303343
0.07358964 0.04764203 0.032265436 0.008881218 -0.11004345 -0.09141845 0.09143843 -0.020162567
-0.13830817 -0.0072075236 0.09655486 0.01935976 0.07855486 -0.058540106 -0.6155442 0.029430129
-0.0017308295 -0.49307737 0.008122962 -0.13561538 0.0045346967 -0.058577348 -0.22731441 0.0012555637
0.027820483 0.16560929 0.03837521 -0.0010345578 -0.073781304 -0.07061516 -0.04441313 -0.14980374
00000000: 77c9 c63d 1305 fe3e 588c 8d3c 3878 223f
00000010: f1c0 873f c09e 113e 814f 5b3f 469d 98bd
00000020: 3de4 943f d743 853c 0503 afbd 8fc1 413e
00000030: 3e08 f73d 077a 133f 249e d6bc a7a2 2a3f
00000040: 0085 5e3d b8da 0dbe 2e45 573f 4ad0 623f
00000050: df28 95bd 7196 d8be d925 e23e b22d 543c
00000060: 62f9 c0bd cacb 263e 62bb 82be 82dd f13d
00000070: c16a 053f 28e2 e5bd 7e9c 4bbc e174 08bf
00000080: 2ab6 963d 4a24 433d c328 043d 8782 113c
00000090: 765e e1bd 9939 bbbd 1244 bb3d f82b a5bc
000000a0: a8a0 0dbe 172d ecbb 8ebe c53d 5c98 9e3c
000000b0: 5fe1 a03d c0c7 6fbd 4e94 1dbf 7417 f13c
000000c0: 00dd e2ba a374 fcbe 2c16 053c c2de 0abe
000000d0: cb97 943b cdee 6fbd 1cc5 68be ba91 a43a
000000e0: c8e7 e33c 7b95 293e 532f 1d3d 009a 87ba
000000f0: a71a 97bd ae9e 90bd 8bea 35bd 2766 19be

Linear_last.bias f4 [2]
0.09695494 0.05258324
00000000: 5090 c63d 8661 573d
