method_min_euler_r/save/model/Phi_h_Model_16X16.pt (torch, 5363 bytes, 8 tensors)

Linear1.weight f4 [16, 2]
-0.0027947263 -0.6428051 -0.009207053 0.6111791 -0.22744416 0.056443717 0.005806175 0.008019222
0.0012412402 0.3644959 -0.0016985023 -0.7090129 0.00037471222 -0.8126652 -0.051554263 -0.06365895
0.00031332177 0.29308584 0.09334823 0.04844282 0.001999309 -0.9951769 -0.0010767289 -0.8341145
-0.085257046 0.04636529 -0.008437529 0.6530106 -0.15026914 0.057828706 -0.0019905558 0.8183377
00000000: ba27 37bb e08e 24bf 2ed9 16bc 3c76 1c3f
00000010: 1fe7 68be 8731 673d ba41 be3b 0e63 033c
00000020: 1cb1 a23a 359f ba3e 48a0 deba df81 35bf
00000030: 0675 c439 d40a 50bf 902a 53bd a05f 82bd
00000040: 5645 a439 590f 963e 5b2d bf3d fa6b 463d
00000050: d706 033b eac3 7ebf 0721 8dba 8788 55bf
00000060: 3f9b aebd 88e9 3d3d 903d 0abc b42b 273f
00000070: 27e0 19be cbdd 6c3d fc73 02bb 947e 513f

Linear1.bias f4 [16]
0.4060986 -0.09598506 -1.0912766 -0.036268555 0.5554598 -0.28124014 0.124617435 -0.3286006
0.7876326 -0.7133063 0.37609848 -0.26612774 -0.50483626 0.6797179 -0.7794912 0.8118768
00000000: 28ec cf3e d193 c4bd f4ae 8bbf 568e 14bd
00000010: 9d32 0e3f b5fe 8fbe 6d37 ff3d 563e a8be
00000020: 4aa2 493f 3e9b 36bf fb8f c03e e541 88be
00000030: f33c 01bf fe01 2e3f bc8c 47bf 28d7 4f3f

Linear2.weight f4 [16, 16]
-0.08302139 0.20434459 -0.17356701 -0.012080538 0.04823708 -1.1261474 0.10738292 0.2003971
-0.03557518 -0.06640943 0.0801696 -0.22828013 -0.26615104 0.18894492 0.1699501 0.26740918
0.014871722 -0.23389147 0.013180432 0.064562894 -0.057211094 -1.205279 -0.03877925 -0.058622986
0.30503038 0.0052032815 -0.11397835 -0.5432093 0.097373776 0.27366862 -0.108132035 0.26240346
-0.1757808 -0.18862724 0.015203595 -0.042601794 0.146831 -0.14478391 -0.22224548 0.1819422
-0.037070453 0.1406143 0.08037114 -0.18746883 0.050224572 0.060049146 -0.16738966 -0.11861807
0.012493727 0.30616882 0.015426155 -0.0975853 0.116214186 0.6780392 0.22694555 0.1082508
-0.28221294 -0.15282276 0.2815569 0.35936126 0.37895504 -0.11388338 0.110363014 0.016948475
0.37646118 -0.237599 0.08756523 0.106452405 -0.0045961346 0.83809686 0.10624089 -0.18002605
-0.25861177 -0.019861925 0.4807085 0.4845968 0.20598015 -0.5562111 -0.12735145 -0.83878946
0.078611046 0.3245106 0.036058534 0.13001579 0.35574517 -0.11230338 -0.0056723645 0.17765814
0.285203 0.15022282 -0.2339961 -0.54338247 -0.25663945 0.120804235 -0.25861216 0.31606707
0.077371955 -0.15676762 0.062787585 0.03765113 0.11992831 0.16836092 -0.08466318 0.2442564
-0.060756154 -0.0085889995 -0.26939827 -0.198659 -0.19313489 -0.11756067 0.14334166 -0.108359985
0.14480112 -0.0017677036 0.002312096 0.045551553 -0.25233883 0.5416374 0.35867932 -0.056168675
-0.3118344 0.039179042 0.012371632 0.36225232 -0.14876498 -0.20021325 -0.028642641 -0.24912329
0.17051178 0.007960886 -0.17294785 0.19537741 -0.062515855 -0.020211339 -0.21537474 -0.04938215
-0.16124696 0.2297265 -0.21613026 -0.19487068 -0.008489072 -0.13517886 0.08945292 -0.0962314
0.002320423 0.028170984 0.10805318 -0.19192424 -0.08258795 0.6140134 0.47590727 -0.17498273
-0.09096403 -0.04962829 0.3544863 0.37630746 0.1159711 -0.40631068 -0.07548602 -0.77681375
0.31663573 -0.06048137 0.043009017 0.048084207 -0.11970658 0.92489725 0.50764555 0.20665145
0.2591266 0.039866 0.24075218 0.71397847 -0.077828914 0.14761728 -0.008701884 -0.35926777
0.17689872 0.045780145 -0.19856149 0.35893196 0.10182093 0.5851089 0.055556115 -0.1943152
0.16746543 -0.07903161 -0.0213987 0.39989763 -0.02398197 -0.1235412 0.17676495 -0.6322737
0.057063527 -0.1528152 0.078860894 -0.23547105 -0.18825932 0.514764 0.1238499 -0.17669025
-0.1705459 0.072921194 0.4855112 0.4724425 -0.06449883 -0.3583538 -0.00711518 -1.2866611
0.12160165 0.38139197 -0.008926264 -0.004586025 0.30959836 -0.15781985 -0.25010654 0.2445969
0.14805628 -0.054577205 0.04966315 -0.51688653 0.07261408 0.102643766 -0.072577596 0.4763661
0.234807 0.3575382 -0.04111781 -0.015344373 -0.23063846 0.6932258 0.17479305 0.010017306
-0.0798078 0.016997023 0.4378536 0.5484882 -0.1991166 -0.26641434 0.005409273 -0.1122117
0.1678755 -0.010685493 -0.07207991 -0.36569697 -0.106296845 0.7021554 0.35906163 -0.14207223
-0.2802032 -0.036884576 0.011279598 0.37957507 -0.09957154 -0.59174967 -0.09237619 -1.253463
00000000: 1e07 aabd b53f 513e 8dbb 31be 73ed 45bc
00000010: 3f94 453d 9925 90bf 94eb db3d e634 4d3e
00000020: 48b7 11bd ab01 88bd f62f a43d 44c2 69be
00000030: f344 88be c77a 413e 6607 2e3e dbe9 883e
00000040: 86a8 733c 3f81 6fbe bdf2 573c 8d39 843d
00000050: 2e56 6abd 9546 9abf fed6 1ebd a81e 70bd
00000060: f12c 9c3e 4a80 aa3b 7b6d e9bd c40f 0bbf
00000070: e76b c73d 4b1e 8c3e 5474 ddbd bf59 863e
00000080: e2ff 33be 8027 41be 8018 793c 387f 2ebd
00000090: de5a 163e 3c42 14be 5294 63be 0e4f 3a3e
000000a0: 30d7 17bd 32fd 0f3e a099 a43d d4f7 3fbe
000000b0: 48b8 4d3d 18f6 753d 3268 2bbe 08ee f2bd
000000c0: 7db2 4c3c 29c2 9c3e fcbd 7c3c cdda c7bd
000000d0: b401 ee3d fa93 2d3f 6a64 683e 98b2 dd3d
000000e0: 377e 90be 927d 1cbe 3a28 903e 33fe b73e
000000f0: 6506 c23e b13b e9bd 0106 e23d 87d7 8a3c
00000100: 85bf c03e 274d 73be 6655 b33d b803 da3d
00000110: 2c9b 96bb 848d 563f d394 d93d c058 38be
00000120: c368 84be 7ab5 a2bc 6d1f f63e 121d f83e
00000130: 76ec 523e da63 0ebf 6b68 02be e8ba 56bf
00000140: d4fe a03d 4126 a63e 1db2 133d dc22 053e
00000150: 3b24 b63e 51ff e5bd 3edf b9bb 04ec 353e
00000160: 2106 923e 03d4 193e ac9c 6fbe 1d1b 0bbf
00000170: 3f66 83be 3668 f73d d068 84be 8bd3 a13e
00000180: 3075 9e3d b187 20be c796 803d 1238 1a3d
00000190: f99c f53d ce66 2c3e e463 adbd 5a1e 7a3e
000001a0: 72db 78bd e0b8 0cbc 92ee 89be 446d 4bbe
000001b0: 27c5 45be a6c3 f0bd 28c8 123e d7eb ddbd
000001c0: bf46 143e 4ab2 e7ba 8986 173b 4494 3a3d
000001d0: 8e32 81be c0a8 0a3f d1a4 b73e 2011 66bd
000001e0: c2a8 9fbe 347a 203d 63b2 4a3c 2379 b93e
000001f0: d955 18be b404 4dbe f9a3 eabc 2d1a 7fbe
00000200: a49a 2e3e 606e 023c 3e19 31be 0411 483e
00000210: 5008 80bd 4092 a5bc 328b 5cbe f044 4abd
00000220: ec1d 25be 6c3d 6b3e 4051 5dbe 2e8c 47be
00000230: c015 0bbc 546c 0abe 1833 b73d f814 c5bd
00000240: 3d12 183b d6c6 e63c fc4a dd3d ca87 44be
00000250: df23 a9bd fb2f 1d3f 1eaa f33e ac2e 33be
00000260: 594b babd 0947 4bbd 3a7f b53e 5fab c03e
00000270: 4282 ed3d f407 d0be 6a98 9abd 44dd 46bf
00000280: 141e a23e 50bb 77bd 392a 303d f2f3 443d
00000290: b928 f5bd 11c6 6c3f 0ff5 013f 709c 533e
000002a0: 3eac 843e 884a 233d bd87 763e 4bc7 363f
000002b0: c464 9fbd fc28 173e 5992 0ebc f2f1 b7be
000002c0: f024 353e f683 3b3d b453 4bbe eec5 b73e
000002d0: 7e87 d03d b2c9 153f cf8e 633d 90fa 46be
000002e0: 0f7c 2b3e 53db a1bd 544c afbc 62bf cc3e
000002f0: d675 c4bc 2b03 fdbd df01 353e b0dc 21bf
00000300: 72bb 693d 967b 1cbe d281 a13d 531f 71be
00000310: 0dc7 40be 93c7 033f 04a5 fd3d 4aee 34be
00000320: 96a3 2ebe b557 953d ed94 f83e fce3 f13e
00000330: f617 84bd 267a b7be 7526 e9bb 50b1 a4bf
00000340: 490a f93d cf45 c33e 773f 12bc 5e46 96bb
00000350: ad83 9e3e 879b 21be f70d 80be 9c77 7a3e
00000360: 119c 173e 598c 5fbd 966b 4b3d ad52 04bf
00000370: b1b6 943d e536 d23d 90a3 94bd 42e6 f33e
00000380: 3f71 703e 3f0f b73e 266b 28bd f766 7bbc
00000390: 7d2c 6cbe 3f77 313f f3fc 323e a01f 243c
000003a0: 4672 a3bd 573d 8b3c 592e e03e b969 0c3f
000003b0: 39e5 4bbe 7667 88be 4540 b13b 3fcf e5bd
000003c0: 8ee7 2b3e 3512 2fbc a29e 93bd a23c bbbe
000003d0: 29b2 d9bd 75c0 333f edd6 b73e 627b 11be
000003e0: cb76 8fbe 4814 17bd 10ce 383c aa57 c23e
000003f0: 2aec cbbd e87c 17bf ba2f bdbd 7a71 a0bf

Linear2.bias f4 [16]
-0.07556537 0.10907228 -0.22846514 0.11321181 -0.057368007 0.40575147 -0.07074339 -0.14560235
-0.23502654 -0.2621582 0.26966104 -0.2953289 -0.1098262 0.2574175 0.122054316 -0.09064048
00000000: 04c2 9abd 4a61 df3d c4f2 69be 98db e73d
00000010: b7fa 6abd a8be cf3e e9e1 90bd c818 15be
00000020: ccaa 70be 9939 86be 0311 8a3e 5935 97be
00000030: 8fec e0bd 3acc 833e 9df7 f93d b7a1 b9bd

Linear3.weight f4 [16, 16]
-0.0484466 -0.10566891 -0.04747671 -0.39204127 0.24961893 -0.8306046 -0.18664502 0.015266827
-0.1807015 0.29349697 -0.0070089474 0.029722687 0.7789233 -1.2331036 -0.07000744 0.5893547
-0.13982919 -0.14063838 0.06298402 0.026156157 -0.12761211 -0.17621487 -0.20713204 0.24501616
-0.04261136 -0.057808816 -0.091929495 -0.12504146 -0.22862804 -0.14676476 0.15280712 0.054793954
-0.12548012 0.3848695 0.15970346 0.10671466 -0.2711205 0.04512857 0.14760816 -0.09902427
-0.1461589 -0.23383853 0.015186517 -0.09674447 0.38798288 -0.05777861 -0.1795396 0.0065246853
-0.10150612 -0.3095415 -0.24141562 0.09799624 0.54462767 -0.3249867 0.059720043 0.35654834
-0.092200756 0.8153127 0.30762368 0.25717524 0.83699137 -0.58779836 0.4168143 1.0234554
-0.21630332 0.33033124 0.088787764 0.0015213134 0.0066712643 -0.17810431 0.027691314 0.34022552
0.035801023 0.28305995 0.26010212 0.115421794 0.9556339 -0.037755523 0.14481929 1.0039603
-0.12745678 0.17561382 0.0016082823 -0.20067933 -0.052386492 -0.22565302 -0.12952554 -0.17710897
0.1709879 -0.052522033 -0.043194234 0.119803846 0.101742655 -0.16499197 0.09213367 0.10620564
-0.2650727 0.14865977 -0.15212023 -0.16739127 -0.20592141 0.17632876 0.042245645 0.25980568
0.016325206 0.13052678 0.042020224 -0.29946637 0.034778334 -0.13124007 -0.02409244 -0.11286819
-0.09581148 -0.009831084 0.09018698 -0.3150737 0.09988805 -0.08354935 0.15244307 0.14415695
-0.19687867 0.2146192 -0.3378113 0.08522389 -0.05955856 0.010647343 -0.1736589 0.14408566
-0.18957157 -0.4307222 0.083758295 0.1822106 1.4783542 0.008740311 0.21690458 0.09707569
-0.12399101 -0.02126036 0.31872177 -0.14463873 0.35413286 -0.20966686 0.44351563 0.70892495
-0.079661965 0.09181522 -0.17798665 -0.10176919 -0.037810996 -0.19810371 -0.06388053 -0.14827524
0.23825905 0.17889625 0.16488719 0.08804471 -0.24176112 0.03778576 0.04339347 -0.20910525
0.074861504 -0.13565418 0.039754182 -0.00829352 0.10614319 -0.22239226 -0.20123456 0.18744314
0.104941964 0.022458848 -0.01047899 -0.17742036 0.051383454 -0.24842149 -0.055427447 -0.04911385
0.13905494 -0.13625199 -0.1689724 0.055195056 -0.21452715 -0.2385946 -0.24365264 -0.14740942
-0.04771945 -0.17506473 -0.13911572 -0.2692351 0.08777217 -0.09251522 -0.1953748 0.058914933
-0.21880028 0.14875379 0.14375389 -0.2635868 -0.2065451 -0.1872966 -0.1353328 0.03121546
-0.2472142 -0.15307994 0.09550218 -0.06887805 -0.09476103 -0.22935605 0.08363422 0.017654032
-0.0006078385 0.45205012 0.05316809 0.05570085 -0.26310563 0.2583709 -0.013793347 0.1164353
0.15915209 0.23672858 -0.24299778 0.38477063 0.74782145 -0.04581662 -0.2800183 0.6751811
-0.3311298 -0.22978112 -0.17834857 0.2671582 0.13745084 0.17823304 -0.01255447 0.18749145
0.1669457 -0.33347747 -0.040081892 0.22271903 -0.1784601 -0.084733985 0.067024544 -0.5445442
-0.14025354 -0.23499168 -0.05823031 0.17705573 1.0689818 0.06902027 -0.20144294 0.03309025
0.052938014 0.6185649 0.65841305 0.23190759 0.6020816 -0.11595803 0.31831345 0.94232
00000000: f16f 46bd f168 d8bd f076 42bd a2b9 c8be
00000010: 1b9c 7f3e 81a2 54bf df1f 3fbe b721 7a3c
00000020: d009 39be 3c45 963e 50ab e5bb fe7c f33c
00000030: 8467 473f 57d6 9dbf 1060 8fbd f3df 163f
00000040: 622f 0fbe 8203 10be c4fd 803d 7045 d63c
00000050: c0ac 02be ac71 34be 6c1a 54be 84e5 7a3e
00000060: 4089 2ebd f0c8 6cbd 8845 bcbd de0a 00be
00000070: 781d 6abe 8049 16be 7879 1c3e a06f 603d
00000080: dc7d 00be 9d0d c53e 4e89 233e 378d da3d
00000090: 4ed0 8abe bcd8 383d 9826 173e 3dcd cabd
000000a0: aeaa 15be 5e73 6fbe ded0 783c f721 c6bd
000000b0: b1a5 c63e 44a9 6cbd 3bd9 37be 07cd d53b
000000c0: 71e2 cfbd 397c 9ebe a835 77be 41b2 c83d
000000d0: b86c 0b3f a864 a6be 019d 743d 818d b63e
000000e0: c0d3 bcbd 55b8 503f da80 9d3e 79ac 833e
000000f0: 1145 563f f479 16bf af68 d53e 9600 833f
00000100: 9e7e 5dbe 2d21 a93e 5cd6 b53d cf66 c73a
00000110: 9f9a da3b fa60 36be e5d8 e23c 0a32 ae3e
00000120: 18a4 123d 3ced 903e 1b2c 853e 4362 ec3d
00000130: 6ca4 743f 89a5 1abd 824b 143e c581 803f
00000140: 0884 02be 1cd4 333e 00cd d23a e27e 4dbe
00000150: 3893 56bd 9611 67be 58a2 04be 0e5c 35be
00000160: 7417 2f3e 5821 57bd 70ec 30bd b85b f53d
00000170: 745e d03d a8f3 28be 94b0 bc3d 5882 d93d
00000180: 9cb7 87be 443a 183e 68c5 1bbe 9e68 2bbe
00000190: 10dd 52be 878f 343e c509 2d3d 4005 853e
000001a0: 70bc 853c d0a8 053e 661d 2c3d a853 99be
000001b0: ba73 0e3d cc63 06be 825d c5bc 7027 e7bd
000001c0: cf38 c4bd 8e12 21bc f4b3 b83d 5751 a1be
000001d0: 1b92 cc3d ec1b abbd 091a 1c3e e19d 133e
000001e0: 909a 49be 23c5 5b3e 9af5 acbe dd89 ae3d
000001f0: adf3 73bd 3172 2e3c a4d3 31be 318b 133e
00000200: 0d1f 42be 9f87 dcbe 7889 ab3d 6a95 3a3e
00000210: b63a bd3f 8533 0f3c 3c1c 5e3e 9fcf c63d
00000220: 00ef fdbd 352a aebc 802f a33e 2d1c 14be
00000230: e750 b53e e9b2 56be 7b14 e33e 1b7c 353f
00000240: d025 a3bd 9e09 bc3d 2242 36be 5d6c d0bd
00000250: b4df 1abd b3db 4abe ccd3 82bd 77d5 17be
00000260: 2efa 733e 9430 373e 30d8 283e c950 b43d
00000270: 3a90 77be 3ec5 1a3d 5abd 313d b01f 56be
00000280: fd50 993d eee8 0abe 48d5 223d 8be1 07bc
00000290: 9a61 d93d ccba 63be 6f10 4ebe 18f1 3f3e
000002a0: d0eb d63d 9efb b73c 12b0 2bbc afad 35be
000002b0: 7577 523d 3462 7ebe e407 63bd 9b2b 49bd
000002c0: 6b64 0e3e a485 0bbe 1a07 2dbe 3614 623d
000002d0: 01ad 5bbe 2552 74be 1480 79be 7ff2 16be
000002e0: 7875 43bd 2b44 33be 5a74 0ebe 2fd9 89be
000002f0: e5c1 b33d 9f78 bdbd 5510 48be c950 713d
00000300: 2e0d 60be ea52 183e 3834 133e d9f4 86be
00000310: 8f80 53be aeca 3fbe ae94 0abe 90b7 ff3c
00000320: b825 7dbe fdc0 1cbe a696 c33d ef0f 8dbd
00000330: 1212 c2bd 50dc 6abe 6b48 ab3d 309f 903c
00000340: 5a57 1fba 1d73 e73e c8c6 593d 9326 643d
00000350: c8b5 86be 3149 843e 7efd 61bc a175 ee3d
00000360: c4f8 223e fa68 723e 69d4 78be a800 c53e
00000370: 3a71 3f3f 35aa 3bbd 8f5e 8fbe abd8 2c3f
00000380: d889 a9be be4b 6bbe 02a1 36be f6c8 883e
00000390: eabf 0c3e b982 363e 44b1 4dbc c2fd 3f3e
000003a0: d0f3 2a3e 8fbd aabe e92c 24bd 7510 643e
000003b0: 3fbe 36be 0389 adbd 2a44 893d 4067 0bbf
000003c0: a09e 0fbe a9a1 70be e882 6ebd 194e 353e
000003d0: 65d4 883f 805a 8d3d 0f47 4ebe a489 073d
000003e0: 88d5 583d 455a 1e3f c28d 283f 2f79 6d3e
000003f0: 0522 1a3f 677b edbd fbf9 a23e e23b 713f

Linear3.bias f4 [16]
-0.39036754 -0.056067616 -0.057210837 -0.18207376 0.19091219 0.057421863 -0.16589142 0.111542545
0.13836704 -0.2221789 -0.21449614 0.120414644 0.09388952 0.2942552 0.00094821316 0.47085202
00000000: 41de c7be 28a7 65bd e955 6abd 8b71 3abe
00000010: 7c7e 433e 3033 6b3d 71df 29be 6b70 e43d
00000020: 17b0 0d3e de82 63be e0a4 5bbe f49b f63d
00000030: 2649 c03d 9ea8 963e 8291 783a 8413 f13e

Linear_last.weight f4 [2, 16]
0.2816996 0.07731429 -0.2200241 2.2302873 0.13400881 -0.06450343 -0.15495373 0.23368995
0.9845705 0.02345505 0.28105736 0.09534168 -0.09585137 -0.5325953 0.43169543 1.3319919
-0.9152736 0.10268071 -0.045654133 -0.42732778 -0.063581884 0.069550395 -0.022192897 0.12137599
-0.0012158109 0.035924915 0.15697627 0.052966803 -0.0012734851 -0.11502699 0.0888791 -0.07415525
00000000: ee3a 903e f456 9e3d ff4d 61be 07bd 0e40
00000010: 9b39 093e 601a 84bd 31ac 1ebe 6b4c 6f3e
00000020: d00c 7c3f ce24 c03c c0e6 8f3e 8042 c33d
00000030: b94d c4bd 2a58 08bf 2f07 dd3e b67e aa3f
00000040: 5f4f 6abf 444a d23d d4ff 3abd b5ca dabe
00000050: 3837 82bd 7070 8e3d e1cd b5bc fa93 f83d
00000060: d85b 9fba 0126 133d 63be 203e b8f3 583d
00000070: 12eb a6ba 4593 ebbd 3f06 b63d b5de 97bd

Linear_last.bias f4 [2]
0.143871 0.14696054
00000000: eb52 133e d37c 163e
